HloModule jit_train_step, entry_computation_layout={(f32[32000,256]{1,0}, f32[32000]{0}, f32[256,32000]{1,0}, f32[4,64]{1,0}, f32[256,4,64]{2,1,0}, /*index=5*/f32[256]{0}, f32[4,64,256]{2,1,0}, f32[4,64]{1,0}, f32[256,4,64]{2,1,0}, f32[4,64]{1,0}, /*index=10*/f32[256,4,64]{2,1,0}, f32[256]{0}, f32[256]{0}, f32[256]{0}, f32[256]{0}, /*index=15*/f32[1024]{0}, f32[256,1024]{1,0}, f32[256]{0}, f32[1024,256]{1,0}, f32[4,64]{1,0}, /*index=20*/f32[256,4,64]{2,1,0}, f32[256]{0}, f32[4,64,256]{2,1,0}, f32[4,64]{1,0}, f32[256,4,64]{2,1,0}, /*index=25*/f32[4,64]{1,0}, f32[256,4,64]{2,1,0}, f32[256]{0}, f32[256]{0}, f32[256]{0}, /*index=30*/f32[256]{0}, f32[1024]{0}, f32[256,1024]{1,0}, f32[256]{0}, f32[1024,256]{1,0}, /*index=35*/f32[4,64]{1,0}, f32[256,4,64]{2,1,0}, f32[256]{0}, f32[4,64,256]{2,1,0}, f32[4,64]{1,0}, /*index=40*/f32[256,4,64]{2,1,0}, f32[4,64]{1,0}, f32[256,4,64]{2,1,0}, f32[256]{0}, f32[256]{0}, /*index=45*/f32[256]{0}, f32[256]{0}, f32[1024]{0}, f32[256,1024]{1,0}, f32[256]{0}, /*index=50*/f32[1024,256]{1,0}, f32[4,64]{1,0}, f32[256,4,64]{2,1,0}, f32[256]{0}, f32[4,64,256]{2,1,0}, /*index=55*/f32[4,64]{1,0}, f32[256,4,64]{2,1,0}, f32[4,64]{1,0}, f32[256,4,64]{2,1,0}, f32[256]{0}, /*index=60*/f32[256]{0}, f32[256]{0}, f32[256]{0}, f32[1024]{0}, f32[256,1024]{1,0}, /*index=65*/f32[256]{0}, f32[1024,256]{1,0}, f32[256]{0}, f32[256]{0}, s32[], /*index=70*/f32[32000,256]{1,0}, f32[32000]{0}, f32[256,32000]{1,0}, f32[4,64]{1,0}, f32[256,4,64]{2,1,0}, /*index=75*/f32[256]{0}, f32[4,64,256]{2,1,0}, f32[4,64]{1,0}, f32[256,4,64]{2,1,0}, f32[4,64]{1,0}, /*index=80*/f32[256,4,64]{2,1,0}, f32[256]{0}, f32[256]{0}, f32[256]{0}, f32[256]{0}, /*index=85*/f32[1024]{0}, f32[256,1024]{1,0}, f32[256]{0}, f32[1024,256]{1,0}, f32[4,64]{1,0}, /*index=90*/f32[256,4,64]{2,1,0}, f32[256]{0}, f32[4,64,256]{2,1,0}, f32[4,64]{1,0}, f32[256,4,64]{2,1,0}, /*index=95*/f32[4,64]{1,0}, f32[256,4,64]{2,1,0}, f32[256]{0}, f32[256]{0}, f32[256]{0}, /*index=100*/f32[256]{0}, f32[1024]{0}, f32[256,1024]{1,0}, f32[256]{0}, f32[1024,256]{1,0}, /*index=105*/f32[4,64]{1,0}, f32[256,4,64]{2,1,0}, f32[256]{0}, f32[4,64,256]{2,1,0}, f32[4,64]{1,0}, /*index=110*/f32[256,4,64]{2,1,0}, f32[4,64]{1,0}, f32[256,4,64]{2,1,0}, f32[256]{0}, f32[256]{0}, /*index=115*/f32[256]{0}, f32[256]{0}, f32[1024]{0}, f32[256,1024]{1,0}, f32[256]{0}, /*index=120*/f32[1024,256]{1,0}, f32[4,64]{1,0}, f32[256,4,64]{2,1,0}, f32[256]{0}, f32[4,64,256]{2,1,0}, /*index=125*/f32[4,64]{1,0}, f32[256,4,64]{2,1,0}, f32[4,64]{1,0}, f32[256,4,64]{2,1,0}, f32[256]{0}, /*index=130*/f32[256]{0}, f32[256]{0}, f32[256]{0}, f32[1024]{0}, f32[256,1024]{1,0}, /*index=135*/f32[256]{0}, f32[1024,256]{1,0}, f32[256]{0}, f32[256]{0}, f32[32000,256]{1,0}, /*index=140*/f32[32000]{0}, f32[256,32000]{1,0}, f32[4,64]{1,0}, f32[256,4,64]{2,1,0}, f32[256]{0}, /*index=145*/f32[4,64,256]{2,1,0}, f32[4,64]{1,0}, f32[256,4,64]{2,1,0}, f32[4,64]{1,0}, f32[256,4,64]{2,1,0}, /*index=150*/f32[256]{0}, f32[256]{0}, f32[256]{0}, f32[256]{0}, f32[1024]{0}, /*index=155*/f32[256,1024]{1,0}, f32[256]{0}, f32[1024,256]{1,0}, f32[4,64]{1,0}, f32[256,4,64]{2,1,0}, /*index=160*/f32[256]{0}, f32[4,64,256]{2,1,0}, f32[4,64]{1,0}, f32[256,4,64]{2,1,0}, f32[4,64]{1,0}, /*index=165*/f32[256,4,64]{2,1,0}, f32[256]{0}, f32[256]{0}, f32[256]{0}, f32[256]{0}, /*index=170*/f32[1024]{0}, f32[256,1024]{1,0}, f32[256]{0}, f32[1024,256]{1,0}, f32[4,64]{1,0}, /*index=175*/f32[256,4,64]{2,1,0}, f32[256]{0}, f32[4,64,256]{2,1,0}, f32[4,64]{1,0}, f32[256,4,64]{2,1,0}, /*index=180*/f32[4,64]{1,0}, f32[256,4,64]{2,1,0}, f32[256]{0}, f32[256]{0}, f32[256]{0}, /*index=185*/f32[256]{0}, f32[1024]{0}, f32[256,1024]{1,0}, f32[256]{0}, f32[1024,256]{1,0}, /*index=190*/f32[4,64]{1,0}, f32[256,4,64]{2,1,0}, f32[256]{0}, f32[4,64,256]{2,1,0}, f32[4,64]{1,0}, /*index=195*/f32[256,4,64]{2,1,0}, f32[4,64]{1,0}, f32[256,4,64]{2,1,0}, f32[256]{0}, f32[256]{0}, /*index=200*/f32[256]{0}, f32[256]{0}, f32[1024]{0}, f32[256,1024]{1,0}, f32[256]{0}, /*index=205*/f32[1024,256]{1,0}, f32[256]{0}, f32[256]{0}, s32[8,128]{1,0}, s32[8,128]{1,0})->(f32[32000,256]{1,0}, f32[32000]{0}, f32[256,32000]{1,0}, f32[4,64]{1,0}, f32[256,4,64]{2,1,0}, /*index=5*/f32[256]{0}, f32[4,64,256]{2,1,0}, f32[4,64]{1,0}, f32[256,4,64]{2,1,0}, f32[4,64]{1,0}, /*index=10*/f32[256,4,64]{2,1,0}, f32[256]{0}, f32[256]{0}, f32[256]{0}, f32[256]{0}, /*index=15*/f32[1024]{0}, f32[256,1024]{1,0}, f32[256]{0}, f32[1024,256]{1,0}, f32[4,64]{1,0}, /*index=20*/f32[256,4,64]{2,1,0}, f32[256]{0}, f32[4,64,256]{2,1,0}, f32[4,64]{1,0}, f32[256,4,64]{2,1,0}, /*index=25*/f32[4,64]{1,0}, f32[256,4,64]{2,1,0}, f32[256]{0}, f32[256]{0}, f32[256]{0}, /*index=30*/f32[256]{0}, f32[1024]{0}, f32[256,1024]{1,0}, f32[256]{0}, f32[1024,256]{1,0}, /*index=35*/f32[4,64]{1,0}, f32[256,4,64]{2,1,0}, f32[256]{0}, f32[4,64,256]{2,1,0}, f32[4,64]{1,0}, /*index=40*/f32[256,4,64]{2,1,0}, f32[4,64]{1,0}, f32[256,4,64]{2,1,0}, f32[256]{0}, f32[256]{0}, /*index=45*/f32[256]{0}, f32[256]{0}, f32[1024]{0}, f32[256,1024]{1,0}, f32[256]{0}, /*index=50*/f32[1024,256]{1,0}, f32[4,64]{1,0}, f32[256,4,64]{2,1,0}, f32[256]{0}, f32[4,64,256]{2,1,0}, /*index=55*/f32[4,64]{1,0}, f32[256,4,64]{2,1,0}, f32[4,64]{1,0}, f32[256,4,64]{2,1,0}, f32[256]{0}, /*index=60*/f32[256]{0}, f32[256]{0}, f32[256]{0}, f32[1024]{0}, f32[256,1024]{1,0}, /*index=65*/f32[256]{0}, f32[1024,256]{1,0}, f32[256]{0}, f32[256]{0}, s32[], /*index=70*/f32[32000,256]{1,0}, f32[32000]{0}, f32[256,32000]{0,1}, f32[4,64]{1,0}, f32[256,4,64]{0,2,1}, /*index=75*/f32[256]{0}, f32[4,64,256]{1,0,2}, f32[4,64]{1,0}, f32[256,4,64]{0,2,1}, f32[4,64]{1,0}, /*index=80*/f32[256,4,64]{0,2,1}, f32[256]{0}, f32[256]{0}, f32[256]{0}, f32[256]{0}, /*index=85*/f32[1024]{0}, f32[256,1024]{0,1}, f32[256]{0}, f32[1024,256]{0,1}, f32[4,64]{1,0}, /*index=90*/f32[256,4,64]{0,2,1}, f32[256]{0}, f32[4,64,256]{1,0,2}, f32[4,64]{1,0}, f32[256,4,64]{0,2,1}, /*index=95*/f32[4,64]{1,0}, f32[256,4,64]{0,2,1}, f32[256]{0}, f32[256]{0}, f32[256]{0}, /*index=100*/f32[256]{0}, f32[1024]{0}, f32[256,1024]{0,1}, f32[256]{0}, f32[1024,256]{0,1}, /*index=105*/f32[4,64]{1,0}, f32[256,4,64]{0,2,1}, f32[256]{0}, f32[4,64,256]{1,0,2}, f32[4,64]{1,0}, /*index=110*/f32[256,4,64]{0,2,1}, f32[4,64]{1,0}, f32[256,4,64]{0,2,1}, f32[256]{0}, f32[256]{0}, /*index=115*/f32[256]{0}, f32[256]{0}, f32[1024]{0}, f32[256,1024]{0,1}, f32[256]{0}, /*index=120*/f32[1024,256]{0,1}, f32[4,64]{1,0}, f32[256,4,64]{0,2,1}, f32[256]{0}, f32[4,64,256]{1,0,2}, /*index=125*/f32[4,64]{1,0}, f32[256,4,64]{0,2,1}, f32[4,64]{1,0}, f32[256,4,64]{0,2,1}, f32[256]{0}, /*index=130*/f32[256]{0}, f32[256]{0}, f32[256]{0}, f32[1024]{0}, f32[256,1024]{0,1}, /*index=135*/f32[256]{0}, f32[1024,256]{0,1}, f32[256]{0}, f32[256]{0}, f32[32000,256]{1,0}, /*index=140*/f32[32000]{0}, f32[256,32000]{0,1}, f32[4,64]{1,0}, f32[256,4,64]{0,2,1}, f32[256]{0}, /*index=145*/f32[4,64,256]{1,0,2}, f32[4,64]{1,0}, f32[256,4,64]{0,2,1}, f32[4,64]{1,0}, f32[256,4,64]{0,2,1}, /*index=150*/f32[256]{0}, f32[256]{0}, f32[256]{0}, f32[256]{0}, f32[1024]{0}, /*index=155*/f32[256,1024]{0,1}, f32[256]{0}, f32[1024,256]{0,1}, f32[4,64]{1,0}, f32[256,4,64]{0,2,1}, /*index=160*/f32[256]{0}, f32[4,64,256]{1,0,2}, f32[4,64]{1,0}, f32[256,4,64]{0,2,1}, f32[4,64]{1,0}, /*index=165*/f32[256,4,64]{0,2,1}, f32[256]{0}, f32[256]{0}, f32[256]{0}, f32[256]{0}, /*index=170*/f32[1024]{0}, f32[256,1024]{0,1}, f32[256]{0}, f32[1024,256]{0,1}, f32[4,64]{1,0}, /*index=175*/f32[256,4,64]{0,2,1}, f32[256]{0}, f32[4,64,256]{1,0,2}, f32[4,64]{1,0}, f32[256,4,64]{0,2,1}, /*index=180*/f32[4,64]{1,0}, f32[256,4,64]{0,2,1}, f32[256]{0}, f32[256]{0}, f32[256]{0}, /*index=185*/f32[256]{0}, f32[1024]{0}, f32[256,1024]{0,1}, f32[256]{0}, f32[1024,256]{0,1}, /*index=190*/f32[4,64]{1,0}, f32[256,4,64]{0,2,1}, f32[256]{0}, f32[4,64,256]{1,0,2}, f32[4,64]{1,0}, /*index=195*/f32[256,4,64]{0,2,1}, f32[4,64]{1,0}, f32[256,4,64]{0,2,1}, f32[256]{0}, f32[256]{0}, /*index=200*/f32[256]{0}, f32[256]{0}, f32[1024]{0}, f32[256,1024]{0,1}, f32[256]{0}, /*index=205*/f32[1024,256]{0,1}, f32[256]{0}, f32[256]{0})}

_where.603 {
  Arg_0.599 = pred[8,128]{1,0} parameter(0)
  Arg_1.600 = s32[8,128]{1,0} parameter(1)
  Arg_2.601 = s32[8,128]{1,0} parameter(2)
  ROOT select.602 = s32[8,128]{1,0} select(Arg_0.599, Arg_1.600, Arg_2.601)
}

region_0.612 {
  Arg_0.609 = pred[] parameter(0)
  Arg_1.610 = pred[] parameter(1)
  ROOT and.611 = pred[] and(Arg_0.609, Arg_1.610)
}

_take.618 {
  Arg_1.585 = s32[8,128]{1,0} parameter(1)
  constant.595 = s32[] constant(0)
  broadcast.596 = s32[8,128]{1,0} broadcast(constant.595), dimensions={}
  compare.597 = pred[8,128]{1,0} compare(Arg_1.585, broadcast.596), direction=LT
  constant.592 = s32[] constant(32000)
  broadcast.593 = s32[8,128]{1,0} broadcast(constant.592), dimensions={}
  add.598 = s32[8,128]{1,0} add(Arg_1.585, broadcast.593)
  call.604 = s32[8,128]{1,0} call(compare.597, add.598, Arg_1.585), to_apply=_where.603
  reshape.605 = s32[8,128,1]{2,1,0} reshape(call.604)
  constant.590 = s32[] constant(0)
  broadcast.591 = s32[8,128,1]{2,1,0} broadcast(constant.590), dimensions={}
  compare.606 = pred[8,128,1]{2,1,0} compare(reshape.605, broadcast.591), direction=GE
  constant.588 = s32[] constant(31999)
  broadcast.589 = s32[8,128,1]{2,1,0} broadcast(constant.588), dimensions={}
  compare.607 = pred[8,128,1]{2,1,0} compare(reshape.605, broadcast.589), direction=LE
  and.608 = pred[8,128,1]{2,1,0} and(compare.606, compare.607)
  constant.594 = pred[] constant(true)
  reduce.613 = pred[8,128]{1,0} reduce(and.608, constant.594), dimensions={2}, to_apply=region_0.612
  broadcast.615 = pred[8,128,256]{2,1,0} broadcast(reduce.613), dimensions={0,1}
  Arg_0.584 = f32[32000,256]{1,0} parameter(0)
  gather.614 = f32[8,128,256]{2,1,0} gather(Arg_0.584, reshape.605), offset_dims={2}, collapsed_slice_dims={0}, start_index_map={0}, index_vector_dim=2, slice_sizes={1,256}
  constant.586 = f32[] constant(nan)
  broadcast.587 = f32[8,128,256]{2,1,0} broadcast(constant.586), dimensions={}
  select.616 = f32[8,128,256]{2,1,0} select(broadcast.615, gather.614, broadcast.587)
  ROOT tuple.617 = (f32[8,128,256]{2,1,0}, s32[8,128,1]{2,1,0}) tuple(select.616, reshape.605)
}

region_1.627 {
  Arg_0.624 = f32[] parameter(0)
  Arg_1.625 = f32[] parameter(1)
  ROOT add.626 = f32[] add(Arg_0.624, Arg_1.625)
}

region_2.633 {
  Arg_0.630 = f32[] parameter(0)
  Arg_1.631 = f32[] parameter(1)
  ROOT add.632 = f32[] add(Arg_0.630, Arg_1.631)
}

region_3.692 {
  Arg_0.689 = f32[] parameter(0)
  Arg_1.690 = f32[] parameter(1)
  ROOT maximum.691 = f32[] maximum(Arg_0.689, Arg_1.690)
}

region_4.704 {
  Arg_0.701 = f32[] parameter(0)
  Arg_1.702 = f32[] parameter(1)
  ROOT add.703 = f32[] add(Arg_0.701, Arg_1.702)
}

region_5.727 {
  Arg_0.724 = f32[] parameter(0)
  Arg_1.725 = f32[] parameter(1)
  ROOT add.726 = f32[] add(Arg_0.724, Arg_1.725)
}

region_6.733 {
  Arg_0.730 = f32[] parameter(0)
  Arg_1.731 = f32[] parameter(1)
  ROOT add.732 = f32[] add(Arg_0.730, Arg_1.731)
}

region_7.799 {
  Arg_0.796 = f32[] parameter(0)
  Arg_1.797 = f32[] parameter(1)
  ROOT add.798 = f32[] add(Arg_0.796, Arg_1.797)
}

region_8.805 {
  Arg_0.802 = f32[] parameter(0)
  Arg_1.803 = f32[] parameter(1)
  ROOT add.804 = f32[] add(Arg_0.802, Arg_1.803)
}

region_9.864 {
  Arg_0.861 = f32[] parameter(0)
  Arg_1.862 = f32[] parameter(1)
  ROOT maximum.863 = f32[] maximum(Arg_0.861, Arg_1.862)
}

region_10.876 {
  Arg_0.873 = f32[] parameter(0)
  Arg_1.874 = f32[] parameter(1)
  ROOT add.875 = f32[] add(Arg_0.873, Arg_1.874)
}

region_11.899 {
  Arg_0.896 = f32[] parameter(0)
  Arg_1.897 = f32[] parameter(1)
  ROOT add.898 = f32[] add(Arg_0.896, Arg_1.897)
}

region_12.905 {
  Arg_0.902 = f32[] parameter(0)
  Arg_1.903 = f32[] parameter(1)
  ROOT add.904 = f32[] add(Arg_0.902, Arg_1.903)
}

region_13.971 {
  Arg_0.968 = f32[] parameter(0)
  Arg_1.969 = f32[] parameter(1)
  ROOT add.970 = f32[] add(Arg_0.968, Arg_1.969)
}

region_14.977 {
  Arg_0.974 = f32[] parameter(0)
  Arg_1.975 = f32[] parameter(1)
  ROOT add.976 = f32[] add(Arg_0.974, Arg_1.975)
}

region_15.1036 {
  Arg_0.1033 = f32[] parameter(0)
  Arg_1.1034 = f32[] parameter(1)
  ROOT maximum.1035 = f32[] maximum(Arg_0.1033, Arg_1.1034)
}

region_16.1048 {
  Arg_0.1045 = f32[] parameter(0)
  Arg_1.1046 = f32[] parameter(1)
  ROOT add.1047 = f32[] add(Arg_0.1045, Arg_1.1046)
}

region_17.1071 {
  Arg_0.1068 = f32[] parameter(0)
  Arg_1.1069 = f32[] parameter(1)
  ROOT add.1070 = f32[] add(Arg_0.1068, Arg_1.1069)
}

region_18.1077 {
  Arg_0.1074 = f32[] parameter(0)
  Arg_1.1075 = f32[] parameter(1)
  ROOT add.1076 = f32[] add(Arg_0.1074, Arg_1.1075)
}

region_19.1143 {
  Arg_0.1140 = f32[] parameter(0)
  Arg_1.1141 = f32[] parameter(1)
  ROOT add.1142 = f32[] add(Arg_0.1140, Arg_1.1141)
}

region_20.1149 {
  Arg_0.1146 = f32[] parameter(0)
  Arg_1.1147 = f32[] parameter(1)
  ROOT add.1148 = f32[] add(Arg_0.1146, Arg_1.1147)
}

region_21.1208 {
  Arg_0.1205 = f32[] parameter(0)
  Arg_1.1206 = f32[] parameter(1)
  ROOT maximum.1207 = f32[] maximum(Arg_0.1205, Arg_1.1206)
}

region_22.1220 {
  Arg_0.1217 = f32[] parameter(0)
  Arg_1.1218 = f32[] parameter(1)
  ROOT add.1219 = f32[] add(Arg_0.1217, Arg_1.1218)
}

region_23.1243 {
  Arg_0.1240 = f32[] parameter(0)
  Arg_1.1241 = f32[] parameter(1)
  ROOT add.1242 = f32[] add(Arg_0.1240, Arg_1.1241)
}

region_24.1249 {
  Arg_0.1246 = f32[] parameter(0)
  Arg_1.1247 = f32[] parameter(1)
  ROOT add.1248 = f32[] add(Arg_0.1246, Arg_1.1247)
}

region_25.1315 {
  Arg_0.1312 = f32[] parameter(0)
  Arg_1.1313 = f32[] parameter(1)
  ROOT add.1314 = f32[] add(Arg_0.1312, Arg_1.1313)
}

region_26.1321 {
  Arg_0.1318 = f32[] parameter(0)
  Arg_1.1319 = f32[] parameter(1)
  ROOT add.1320 = f32[] add(Arg_0.1318, Arg_1.1319)
}

region_27.1371 {
  Arg_0.1368 = f32[] parameter(0)
  Arg_1.1369 = f32[] parameter(1)
  ROOT maximum.1370 = f32[] maximum(Arg_0.1368, Arg_1.1369)
}

region_28.1383 {
  Arg_0.1380 = f32[] parameter(0)
  Arg_1.1381 = f32[] parameter(1)
  ROOT add.1382 = f32[] add(Arg_0.1380, Arg_1.1381)
}

log_softmax.1387 {
  Arg_0.1363 = f32[8,128,32000]{2,1,0} parameter(0)
  constant.1367 = f32[] constant(-inf)
  reduce.1372 = f32[8,128]{1,0} reduce(Arg_0.1363, constant.1367), dimensions={2}, to_apply=region_27.1371
  constant.1364 = f32[] constant(-inf)
  broadcast.1365 = f32[8,128]{1,0} broadcast(constant.1364), dimensions={}
  maximum.1373 = f32[8,128]{1,0} maximum(reduce.1372, broadcast.1365)
  reshape.1374 = f32[8,128,1]{2,1,0} reshape(maximum.1373)
  broadcast.1375 = f32[8,128,1]{2,1,0} broadcast(reshape.1374), dimensions={0,1,2}
  reshape.1376 = f32[8,128]{1,0} reshape(broadcast.1375)
  broadcast.1377 = f32[8,128,32000]{2,1,0} broadcast(reshape.1376), dimensions={0,1}
  subtract.1378 = f32[8,128,32000]{2,1,0} subtract(Arg_0.1363, broadcast.1377)
  exponential.1379 = f32[8,128,32000]{2,1,0} exponential(subtract.1378)
  constant.1366 = f32[] constant(0)
  reduce.1384 = f32[8,128]{1,0} reduce(exponential.1379, constant.1366), dimensions={2}, to_apply=region_28.1383
  reshape.1385 = f32[8,128,1]{2,1,0} reshape(reduce.1384)
  ROOT tuple.1386 = (f32[8,128,32000]{2,1,0}, f32[8,128,1]{2,1,0}) tuple(exponential.1379, reshape.1385)
}

region_29.1411 {
  Arg_0.1408 = f32[] parameter(0)
  Arg_1.1409 = f32[] parameter(1)
  ROOT add.1410 = f32[] add(Arg_0.1408, Arg_1.1409)
}

region_30.1418 {
  Arg_0.1415 = f32[] parameter(0)
  Arg_1.1416 = f32[] parameter(1)
  ROOT add.1417 = f32[] add(Arg_0.1415, Arg_1.1416)
}

log_softmax_0.1423 {
  Arg_2.1405 = f32[8,128,32000]{2,1,0} parameter(2)
  negate.1407 = f32[8,128,32000]{2,1,0} negate(Arg_2.1405)
  constant.1406 = f32[] constant(0)
  reduce.1412 = f32[8,128]{1,0} reduce(negate.1407, constant.1406), dimensions={2}, to_apply=region_29.1411
  reshape.1413 = f32[8,128,1]{2,1,0} reshape(reduce.1412)
  Arg_1.1404 = f32[8,128,1]{2,1,0} parameter(1)
  divide.1414 = f32[8,128,1]{2,1,0} divide(reshape.1413, Arg_1.1404)
  reduce.1419 = f32[8,128]{1,0} reduce(divide.1414, constant.1406), dimensions={2}, to_apply=region_30.1418
  broadcast.1420 = f32[8,128,32000]{2,1,0} broadcast(reduce.1419), dimensions={0,1}
  Arg_0.1403 = f32[8,128,32000]{2,1,0} parameter(0)
  multiply.1421 = f32[8,128,32000]{2,1,0} multiply(broadcast.1420, Arg_0.1403)
  ROOT add.1422 = f32[8,128,32000]{2,1,0} add(Arg_2.1405, multiply.1421)
}

region_31.1428 {
  Arg_0.1425 = f32[] parameter(0)
  Arg_1.1426 = f32[] parameter(1)
  ROOT add.1427 = f32[] add(Arg_0.1425, Arg_1.1426)
}

region_32.1436 {
  Arg_0.1433 = f32[] parameter(0)
  Arg_1.1434 = f32[] parameter(1)
  ROOT add.1435 = f32[] add(Arg_0.1433, Arg_1.1434)
}

region_33.1447 {
  Arg_0.1444 = f32[] parameter(0)
  Arg_1.1445 = f32[] parameter(1)
  ROOT add.1446 = f32[] add(Arg_0.1444, Arg_1.1445)
}

region_34.1456 {
  Arg_0.1453 = f32[] parameter(0)
  Arg_1.1454 = f32[] parameter(1)
  ROOT add.1455 = f32[] add(Arg_0.1453, Arg_1.1454)
}

region_35.1464 {
  Arg_0.1461 = f32[] parameter(0)
  Arg_1.1462 = f32[] parameter(1)
  ROOT add.1463 = f32[] add(Arg_0.1461, Arg_1.1462)
}

region_36.1470 {
  Arg_0.1467 = f32[] parameter(0)
  Arg_1.1468 = f32[] parameter(1)
  ROOT add.1469 = f32[] add(Arg_0.1467, Arg_1.1468)
}

region_37.1475 {
  Arg_0.1472 = f32[] parameter(0)
  Arg_1.1473 = f32[] parameter(1)
  ROOT add.1474 = f32[] add(Arg_0.1472, Arg_1.1473)
}

region_38.1491 {
  Arg_0.1488 = f32[] parameter(0)
  Arg_1.1489 = f32[] parameter(1)
  ROOT add.1490 = f32[] add(Arg_0.1488, Arg_1.1489)
}

region_39.1510 {
  Arg_0.1507 = f32[] parameter(0)
  Arg_1.1508 = f32[] parameter(1)
  ROOT add.1509 = f32[] add(Arg_0.1507, Arg_1.1508)
}

region_40.1518 {
  Arg_0.1515 = f32[] parameter(0)
  Arg_1.1516 = f32[] parameter(1)
  ROOT add.1517 = f32[] add(Arg_0.1515, Arg_1.1516)
}

region_41.1529 {
  Arg_0.1526 = f32[] parameter(0)
  Arg_1.1527 = f32[] parameter(1)
  ROOT add.1528 = f32[] add(Arg_0.1526, Arg_1.1527)
}

region_42.1538 {
  Arg_0.1535 = f32[] parameter(0)
  Arg_1.1536 = f32[] parameter(1)
  ROOT add.1537 = f32[] add(Arg_0.1535, Arg_1.1536)
}

region_43.1546 {
  Arg_0.1543 = f32[] parameter(0)
  Arg_1.1544 = f32[] parameter(1)
  ROOT add.1545 = f32[] add(Arg_0.1543, Arg_1.1544)
}

region_44.1553 {
  Arg_0.1550 = f32[] parameter(0)
  Arg_1.1551 = f32[] parameter(1)
  ROOT add.1552 = f32[] add(Arg_0.1550, Arg_1.1551)
}

region_45.1558 {
  Arg_0.1555 = f32[] parameter(0)
  Arg_1.1556 = f32[] parameter(1)
  ROOT add.1557 = f32[] add(Arg_0.1555, Arg_1.1556)
}

region_46.1574 {
  Arg_0.1571 = f32[] parameter(0)
  Arg_1.1572 = f32[] parameter(1)
  ROOT add.1573 = f32[] add(Arg_0.1571, Arg_1.1572)
}

region_47.1591 {
  Arg_0.1588 = f32[] parameter(0)
  Arg_1.1589 = f32[] parameter(1)
  ROOT add.1590 = f32[] add(Arg_0.1588, Arg_1.1589)
}

region_48.1602 {
  Arg_0.1599 = f32[] parameter(0)
  Arg_1.1600 = f32[] parameter(1)
  ROOT add.1601 = f32[] add(Arg_0.1599, Arg_1.1600)
}

region_49.1615 {
  Arg_0.1612 = f32[] parameter(0)
  Arg_1.1613 = f32[] parameter(1)
  ROOT add.1614 = f32[] add(Arg_0.1612, Arg_1.1613)
}

region_50.1623 {
  Arg_0.1620 = f32[] parameter(0)
  Arg_1.1621 = f32[] parameter(1)
  ROOT add.1622 = f32[] add(Arg_0.1620, Arg_1.1621)
}

region_51.1632 {
  Arg_0.1629 = f32[] parameter(0)
  Arg_1.1630 = f32[] parameter(1)
  ROOT add.1631 = f32[] add(Arg_0.1629, Arg_1.1630)
}

region_52.1641 {
  Arg_0.1638 = f32[] parameter(0)
  Arg_1.1639 = f32[] parameter(1)
  ROOT add.1640 = f32[] add(Arg_0.1638, Arg_1.1639)
}

region_53.1652 {
  Arg_0.1649 = f32[] parameter(0)
  Arg_1.1650 = f32[] parameter(1)
  ROOT add.1651 = f32[] add(Arg_0.1649, Arg_1.1650)
}

region_54.1661 {
  Arg_0.1658 = f32[] parameter(0)
  Arg_1.1659 = f32[] parameter(1)
  ROOT add.1660 = f32[] add(Arg_0.1658, Arg_1.1659)
}

region_55.1669 {
  Arg_0.1666 = f32[] parameter(0)
  Arg_1.1667 = f32[] parameter(1)
  ROOT add.1668 = f32[] add(Arg_0.1666, Arg_1.1667)
}

region_56.1676 {
  Arg_0.1673 = f32[] parameter(0)
  Arg_1.1674 = f32[] parameter(1)
  ROOT add.1675 = f32[] add(Arg_0.1673, Arg_1.1674)
}

region_57.1681 {
  Arg_0.1678 = f32[] parameter(0)
  Arg_1.1679 = f32[] parameter(1)
  ROOT add.1680 = f32[] add(Arg_0.1678, Arg_1.1679)
}

region_58.1697 {
  Arg_0.1694 = f32[] parameter(0)
  Arg_1.1695 = f32[] parameter(1)
  ROOT add.1696 = f32[] add(Arg_0.1694, Arg_1.1695)
}

region_59.1716 {
  Arg_0.1713 = f32[] parameter(0)
  Arg_1.1714 = f32[] parameter(1)
  ROOT add.1715 = f32[] add(Arg_0.1713, Arg_1.1714)
}

region_60.1724 {
  Arg_0.1721 = f32[] parameter(0)
  Arg_1.1722 = f32[] parameter(1)
  ROOT add.1723 = f32[] add(Arg_0.1721, Arg_1.1722)
}

region_61.1735 {
  Arg_0.1732 = f32[] parameter(0)
  Arg_1.1733 = f32[] parameter(1)
  ROOT add.1734 = f32[] add(Arg_0.1732, Arg_1.1733)
}

region_62.1744 {
  Arg_0.1741 = f32[] parameter(0)
  Arg_1.1742 = f32[] parameter(1)
  ROOT add.1743 = f32[] add(Arg_0.1741, Arg_1.1742)
}

region_63.1752 {
  Arg_0.1749 = f32[] parameter(0)
  Arg_1.1750 = f32[] parameter(1)
  ROOT add.1751 = f32[] add(Arg_0.1749, Arg_1.1750)
}

region_64.1759 {
  Arg_0.1756 = f32[] parameter(0)
  Arg_1.1757 = f32[] parameter(1)
  ROOT add.1758 = f32[] add(Arg_0.1756, Arg_1.1757)
}

region_65.1764 {
  Arg_0.1761 = f32[] parameter(0)
  Arg_1.1762 = f32[] parameter(1)
  ROOT add.1763 = f32[] add(Arg_0.1761, Arg_1.1762)
}

region_66.1780 {
  Arg_0.1777 = f32[] parameter(0)
  Arg_1.1778 = f32[] parameter(1)
  ROOT add.1779 = f32[] add(Arg_0.1777, Arg_1.1778)
}

region_67.1797 {
  Arg_0.1794 = f32[] parameter(0)
  Arg_1.1795 = f32[] parameter(1)
  ROOT add.1796 = f32[] add(Arg_0.1794, Arg_1.1795)
}

region_68.1808 {
  Arg_0.1805 = f32[] parameter(0)
  Arg_1.1806 = f32[] parameter(1)
  ROOT add.1807 = f32[] add(Arg_0.1805, Arg_1.1806)
}

region_69.1821 {
  Arg_0.1818 = f32[] parameter(0)
  Arg_1.1819 = f32[] parameter(1)
  ROOT add.1820 = f32[] add(Arg_0.1818, Arg_1.1819)
}

region_70.1829 {
  Arg_0.1826 = f32[] parameter(0)
  Arg_1.1827 = f32[] parameter(1)
  ROOT add.1828 = f32[] add(Arg_0.1826, Arg_1.1827)
}

region_71.1838 {
  Arg_0.1835 = f32[] parameter(0)
  Arg_1.1836 = f32[] parameter(1)
  ROOT add.1837 = f32[] add(Arg_0.1835, Arg_1.1836)
}

region_72.1847 {
  Arg_0.1844 = f32[] parameter(0)
  Arg_1.1845 = f32[] parameter(1)
  ROOT add.1846 = f32[] add(Arg_0.1844, Arg_1.1845)
}

region_73.1858 {
  Arg_0.1855 = f32[] parameter(0)
  Arg_1.1856 = f32[] parameter(1)
  ROOT add.1857 = f32[] add(Arg_0.1855, Arg_1.1856)
}

region_74.1867 {
  Arg_0.1864 = f32[] parameter(0)
  Arg_1.1865 = f32[] parameter(1)
  ROOT add.1866 = f32[] add(Arg_0.1864, Arg_1.1865)
}

region_75.1875 {
  Arg_0.1872 = f32[] parameter(0)
  Arg_1.1873 = f32[] parameter(1)
  ROOT add.1874 = f32[] add(Arg_0.1872, Arg_1.1873)
}

region_76.1882 {
  Arg_0.1879 = f32[] parameter(0)
  Arg_1.1880 = f32[] parameter(1)
  ROOT add.1881 = f32[] add(Arg_0.1879, Arg_1.1880)
}

region_77.1887 {
  Arg_0.1884 = f32[] parameter(0)
  Arg_1.1885 = f32[] parameter(1)
  ROOT add.1886 = f32[] add(Arg_0.1884, Arg_1.1885)
}

region_78.1903 {
  Arg_0.1900 = f32[] parameter(0)
  Arg_1.1901 = f32[] parameter(1)
  ROOT add.1902 = f32[] add(Arg_0.1900, Arg_1.1901)
}

region_79.1922 {
  Arg_0.1919 = f32[] parameter(0)
  Arg_1.1920 = f32[] parameter(1)
  ROOT add.1921 = f32[] add(Arg_0.1919, Arg_1.1920)
}

region_80.1930 {
  Arg_0.1927 = f32[] parameter(0)
  Arg_1.1928 = f32[] parameter(1)
  ROOT add.1929 = f32[] add(Arg_0.1927, Arg_1.1928)
}

region_81.1941 {
  Arg_0.1938 = f32[] parameter(0)
  Arg_1.1939 = f32[] parameter(1)
  ROOT add.1940 = f32[] add(Arg_0.1938, Arg_1.1939)
}

region_82.1950 {
  Arg_0.1947 = f32[] parameter(0)
  Arg_1.1948 = f32[] parameter(1)
  ROOT add.1949 = f32[] add(Arg_0.1947, Arg_1.1948)
}

region_83.1958 {
  Arg_0.1955 = f32[] parameter(0)
  Arg_1.1956 = f32[] parameter(1)
  ROOT add.1957 = f32[] add(Arg_0.1955, Arg_1.1956)
}

region_84.1965 {
  Arg_0.1962 = f32[] parameter(0)
  Arg_1.1963 = f32[] parameter(1)
  ROOT add.1964 = f32[] add(Arg_0.1962, Arg_1.1963)
}

region_85.1970 {
  Arg_0.1967 = f32[] parameter(0)
  Arg_1.1968 = f32[] parameter(1)
  ROOT add.1969 = f32[] add(Arg_0.1967, Arg_1.1968)
}

region_86.1986 {
  Arg_0.1983 = f32[] parameter(0)
  Arg_1.1984 = f32[] parameter(1)
  ROOT add.1985 = f32[] add(Arg_0.1983, Arg_1.1984)
}

region_87.2003 {
  Arg_0.2000 = f32[] parameter(0)
  Arg_1.2001 = f32[] parameter(1)
  ROOT add.2002 = f32[] add(Arg_0.2000, Arg_1.2001)
}

region_88.2014 {
  Arg_0.2011 = f32[] parameter(0)
  Arg_1.2012 = f32[] parameter(1)
  ROOT add.2013 = f32[] add(Arg_0.2011, Arg_1.2012)
}

region_89.2027 {
  Arg_0.2024 = f32[] parameter(0)
  Arg_1.2025 = f32[] parameter(1)
  ROOT add.2026 = f32[] add(Arg_0.2024, Arg_1.2025)
}

region_90.2035 {
  Arg_0.2032 = f32[] parameter(0)
  Arg_1.2033 = f32[] parameter(1)
  ROOT add.2034 = f32[] add(Arg_0.2032, Arg_1.2033)
}

region_91.2044 {
  Arg_0.2041 = f32[] parameter(0)
  Arg_1.2042 = f32[] parameter(1)
  ROOT add.2043 = f32[] add(Arg_0.2041, Arg_1.2042)
}

region_92.2053 {
  Arg_0.2050 = f32[] parameter(0)
  Arg_1.2051 = f32[] parameter(1)
  ROOT add.2052 = f32[] add(Arg_0.2050, Arg_1.2051)
}

region_93.2064 {
  Arg_0.2061 = f32[] parameter(0)
  Arg_1.2062 = f32[] parameter(1)
  ROOT add.2063 = f32[] add(Arg_0.2061, Arg_1.2062)
}

region_94.2073 {
  Arg_0.2070 = f32[] parameter(0)
  Arg_1.2071 = f32[] parameter(1)
  ROOT add.2072 = f32[] add(Arg_0.2070, Arg_1.2071)
}

region_95.2081 {
  Arg_0.2078 = f32[] parameter(0)
  Arg_1.2079 = f32[] parameter(1)
  ROOT add.2080 = f32[] add(Arg_0.2078, Arg_1.2079)
}

region_96.2088 {
  Arg_0.2085 = f32[] parameter(0)
  Arg_1.2086 = f32[] parameter(1)
  ROOT add.2087 = f32[] add(Arg_0.2085, Arg_1.2086)
}

region_97.2093 {
  Arg_0.2090 = f32[] parameter(0)
  Arg_1.2091 = f32[] parameter(1)
  ROOT add.2092 = f32[] add(Arg_0.2090, Arg_1.2091)
}

region_98.2109 {
  Arg_0.2106 = f32[] parameter(0)
  Arg_1.2107 = f32[] parameter(1)
  ROOT add.2108 = f32[] add(Arg_0.2106, Arg_1.2107)
}

region_99.2128 {
  Arg_0.2125 = f32[] parameter(0)
  Arg_1.2126 = f32[] parameter(1)
  ROOT add.2127 = f32[] add(Arg_0.2125, Arg_1.2126)
}

region_100.2136 {
  Arg_0.2133 = f32[] parameter(0)
  Arg_1.2134 = f32[] parameter(1)
  ROOT add.2135 = f32[] add(Arg_0.2133, Arg_1.2134)
}

region_101.2147 {
  Arg_0.2144 = f32[] parameter(0)
  Arg_1.2145 = f32[] parameter(1)
  ROOT add.2146 = f32[] add(Arg_0.2144, Arg_1.2145)
}

region_102.2156 {
  Arg_0.2153 = f32[] parameter(0)
  Arg_1.2154 = f32[] parameter(1)
  ROOT add.2155 = f32[] add(Arg_0.2153, Arg_1.2154)
}

region_103.2164 {
  Arg_0.2161 = f32[] parameter(0)
  Arg_1.2162 = f32[] parameter(1)
  ROOT add.2163 = f32[] add(Arg_0.2161, Arg_1.2162)
}

region_104.2171 {
  Arg_0.2168 = f32[] parameter(0)
  Arg_1.2169 = f32[] parameter(1)
  ROOT add.2170 = f32[] add(Arg_0.2168, Arg_1.2169)
}

region_105.2176 {
  Arg_0.2173 = f32[] parameter(0)
  Arg_1.2174 = f32[] parameter(1)
  ROOT add.2175 = f32[] add(Arg_0.2173, Arg_1.2174)
}

region_106.2192 {
  Arg_0.2189 = f32[] parameter(0)
  Arg_1.2190 = f32[] parameter(1)
  ROOT add.2191 = f32[] add(Arg_0.2189, Arg_1.2190)
}

region_107.2209 {
  Arg_0.2206 = f32[] parameter(0)
  Arg_1.2207 = f32[] parameter(1)
  ROOT add.2208 = f32[] add(Arg_0.2206, Arg_1.2207)
}

region_108.2220 {
  Arg_0.2217 = f32[] parameter(0)
  Arg_1.2218 = f32[] parameter(1)
  ROOT add.2219 = f32[] add(Arg_0.2217, Arg_1.2218)
}

region_109.2233 {
  Arg_0.2230 = f32[] parameter(0)
  Arg_1.2231 = f32[] parameter(1)
  ROOT add.2232 = f32[] add(Arg_0.2230, Arg_1.2231)
}

region_110.2241 {
  Arg_0.2238 = f32[] parameter(0)
  Arg_1.2239 = f32[] parameter(1)
  ROOT add.2240 = f32[] add(Arg_0.2238, Arg_1.2239)
}

region_111.2250 {
  Arg_0.2247 = f32[] parameter(0)
  Arg_1.2248 = f32[] parameter(1)
  ROOT add.2249 = f32[] add(Arg_0.2247, Arg_1.2248)
}

region_112.2259 {
  Arg_0.2256 = f32[] parameter(0)
  Arg_1.2257 = f32[] parameter(1)
  ROOT add.2258 = f32[] add(Arg_0.2256, Arg_1.2257)
}

region_113.2270 {
  Arg_0.2267 = f32[] parameter(0)
  Arg_1.2268 = f32[] parameter(1)
  ROOT add.2269 = f32[] add(Arg_0.2267, Arg_1.2268)
}

region_114.2279 {
  Arg_0.2276 = f32[] parameter(0)
  Arg_1.2277 = f32[] parameter(1)
  ROOT add.2278 = f32[] add(Arg_0.2276, Arg_1.2277)
}

region_115.2287 {
  Arg_0.2284 = f32[] parameter(0)
  Arg_1.2285 = f32[] parameter(1)
  ROOT add.2286 = f32[] add(Arg_0.2284, Arg_1.2285)
}

region_116.2294 {
  Arg_0.2291 = f32[] parameter(0)
  Arg_1.2292 = f32[] parameter(1)
  ROOT add.2293 = f32[] add(Arg_0.2291, Arg_1.2292)
}

region_117.2299 {
  Arg_0.2296 = f32[] parameter(0)
  Arg_1.2297 = f32[] parameter(1)
  ROOT add.2298 = f32[] add(Arg_0.2296, Arg_1.2297)
}

region_118.2319 {
  Arg_0.2316 = f32[] parameter(0)
  Arg_1.2317 = f32[] parameter(1)
  ROOT add.2318 = f32[] add(Arg_0.2316, Arg_1.2317)
}

_take_1.2321 {
  constant.2314 = f32[] constant(0)
  broadcast.2315 = f32[32000,256]{1,0} broadcast(constant.2314), dimensions={}
  Arg_0.2312 = s32[8,128,1]{2,1,0} parameter(0)
  Arg_1.2313 = f32[8,128,256]{2,1,0} parameter(1)
  ROOT scatter.2320 = f32[32000,256]{1,0} scatter(broadcast.2315, Arg_0.2312, Arg_1.2313), update_window_dims={2}, inserted_window_dims={0}, scatter_dims_to_operand_dims={0}, index_vector_dim=2, to_apply=region_118.2319
}

_where_2.2812 {
  Arg_0.2808 = pred[] parameter(0)
  Arg_1.2809 = s32[] parameter(1)
  Arg_2.2810 = s32[] parameter(2)
  ROOT select.2811 = s32[] select(Arg_0.2808, Arg_1.2809, Arg_2.2810)
}

train_step.3442 {
  Arg_0.211 = f32[32000,256]{1,0} parameter(0)
  Arg_208.419 = s32[8,128]{1,0} parameter(208)
  call.619 = (f32[8,128,256]{2,1,0}, s32[8,128,1]{2,1,0}) call(Arg_0.211, Arg_208.419), to_apply=_take.618
  get-tuple-element.621 = s32[8,128,1]{2,1,0} get-tuple-element(call.619), index=1
  get-tuple-element.620 = f32[8,128,256]{2,1,0} get-tuple-element(call.619), index=0
  constant.583 = f32[] constant(0)
  reduce.628 = f32[8,128]{1,0} reduce(get-tuple-element.620, constant.583), dimensions={2}, to_apply=region_1.627
  constant.573 = f32[] constant(256)
  broadcast.574 = f32[8,128]{1,0} broadcast(constant.573), dimensions={}
  divide.629 = f32[8,128]{1,0} divide(reduce.628, broadcast.574)
  reshape.645 = f32[8,128,1]{2,1,0} reshape(divide.629)
  broadcast.647 = f32[8,128,1]{2,1,0} broadcast(reshape.645), dimensions={0,1,2}
  reshape.648 = f32[8,128]{1,0} reshape(broadcast.647)
  broadcast.649 = f32[8,128,256]{2,1,0} broadcast(reshape.648), dimensions={0,1}
  subtract.650 = f32[8,128,256]{2,1,0} subtract(get-tuple-element.620, broadcast.649)
  multiply.622 = f32[8,128,256]{2,1,0} multiply(get-tuple-element.620, get-tuple-element.620)
  reduce.634 = f32[8,128]{1,0} reduce(multiply.622, constant.583), dimensions={2}, to_apply=region_2.633
  divide.635 = f32[8,128]{1,0} divide(reduce.634, broadcast.574)
  multiply.636 = f32[8,128]{1,0} multiply(divide.629, divide.629)
  subtract.638 = f32[8,128]{1,0} subtract(divide.635, multiply.636)
  constant.569 = f32[] constant(0)
  broadcast.570 = f32[8,128]{1,0} broadcast(constant.569), dimensions={}
  maximum.639 = f32[8,128]{1,0} maximum(subtract.638, broadcast.570)
  reshape.646 = f32[8,128,1]{2,1,0} reshape(maximum.639)
  constant.565 = f32[] constant(1e-06)
  broadcast.566 = f32[8,128,1]{2,1,0} broadcast(constant.565), dimensions={}
  add.651 = f32[8,128,1]{2,1,0} add(reshape.646, broadcast.566)
  rsqrt.652 = f32[8,128,1]{2,1,0} rsqrt(add.651)
  broadcast.656 = f32[8,128,1]{2,1,0} broadcast(rsqrt.652), dimensions={0,1,2}
  reshape.657 = f32[8,128]{1,0} reshape(broadcast.656)
  broadcast.658 = f32[8,128,256]{2,1,0} broadcast(reshape.657), dimensions={0,1}
  Arg_12.223 = f32[256]{0} parameter(12)
  reshape.655 = f32[1,1,256]{2,1,0} reshape(Arg_12.223)
  broadcast.659 = f32[1,1,256]{2,1,0} broadcast(reshape.655), dimensions={0,1,2}
  reshape.660 = f32[256]{0} reshape(broadcast.659)
  broadcast.661 = f32[8,128,256]{2,1,0} broadcast(reshape.660), dimensions={2}
  multiply.662 = f32[8,128,256]{2,1,0} multiply(broadcast.658, broadcast.661)
  multiply.663 = f32[8,128,256]{2,1,0} multiply(subtract.650, multiply.662)
  Arg_11.222 = f32[256]{0} parameter(11)
  reshape.664 = f32[1,1,256]{2,1,0} reshape(Arg_11.222)
  broadcast.665 = f32[1,1,256]{2,1,0} broadcast(reshape.664), dimensions={0,1,2}
  reshape.666 = f32[256]{0} reshape(broadcast.665)
  broadcast.667 = f32[8,128,256]{2,1,0} broadcast(reshape.666), dimensions={2}
  add.668 = f32[8,128,256]{2,1,0} add(multiply.663, broadcast.667)
  Arg_10.221 = f32[256,4,64]{2,1,0} parameter(10)
  dot.681 = f32[8,128,4,64]{3,2,1,0} dot(add.668, Arg_10.221), lhs_contracting_dims={2}, rhs_contracting_dims={0}
  Arg_9.220 = f32[4,64]{1,0} parameter(9)
  reshape.682 = f32[1,1,4,64]{3,2,1,0} reshape(Arg_9.220)
  broadcast.683 = f32[1,1,4,64]{3,2,1,0} broadcast(reshape.682), dimensions={0,1,2,3}
  reshape.684 = f32[4,64]{1,0} reshape(broadcast.683)
  broadcast.685 = f32[8,128,4,64]{3,2,1,0} broadcast(reshape.684), dimensions={2,3}
  add.686 = f32[8,128,4,64]{3,2,1,0} add(dot.681, broadcast.685)
  Arg_8.219 = f32[256,4,64]{2,1,0} parameter(8)
  dot.669 = f32[8,128,4,64]{3,2,1,0} dot(add.668, Arg_8.219), lhs_contracting_dims={2}, rhs_contracting_dims={0}
  Arg_7.218 = f32[4,64]{1,0} parameter(7)
  reshape.670 = f32[1,1,4,64]{3,2,1,0} reshape(Arg_7.218)
  broadcast.671 = f32[1,1,4,64]{3,2,1,0} broadcast(reshape.670), dimensions={0,1,2,3}
  reshape.672 = f32[4,64]{1,0} reshape(broadcast.671)
  broadcast.673 = f32[8,128,4,64]{3,2,1,0} broadcast(reshape.672), dimensions={2,3}
  add.674 = f32[8,128,4,64]{3,2,1,0} add(dot.669, broadcast.673)
  constant.561 = f32[] constant(8)
  broadcast.562 = f32[8,128,4,64]{3,2,1,0} broadcast(constant.561), dimensions={}
  divide.687 = f32[8,128,4,64]{3,2,1,0} divide(add.674, broadcast.562)
  Arg_4.215 = f32[256,4,64]{2,1,0} parameter(4)
  dot.675 = f32[8,128,4,64]{3,2,1,0} dot(add.668, Arg_4.215), lhs_contracting_dims={2}, rhs_contracting_dims={0}
  Arg_3.214 = f32[4,64]{1,0} parameter(3)
  reshape.676 = f32[1,1,4,64]{3,2,1,0} reshape(Arg_3.214)
  broadcast.677 = f32[1,1,4,64]{3,2,1,0} broadcast(reshape.676), dimensions={0,1,2,3}
  reshape.678 = f32[4,64]{1,0} reshape(broadcast.677)
  broadcast.679 = f32[8,128,4,64]{3,2,1,0} broadcast(reshape.678), dimensions={2,3}
  add.680 = f32[8,128,4,64]{3,2,1,0} add(dot.675, broadcast.679)
  dot.688 = f32[8,4,128,128]{3,2,1,0} dot(divide.687, add.680), lhs_batch_dims={0,2}, lhs_contracting_dims={3}, rhs_batch_dims={0,2}, rhs_contracting_dims={3}
  constant.581 = f32[] constant(-inf)
  reduce.693 = f32[8,4,128]{2,1,0} reduce(dot.688, constant.581), dimensions={3}, to_apply=region_3.692
  constant.559 = f32[] constant(-inf)
  broadcast.560 = f32[8,4,128]{2,1,0} broadcast(constant.559), dimensions={}
  maximum.694 = f32[8,4,128]{2,1,0} maximum(reduce.693, broadcast.560)
  reshape.695 = f32[8,4,128,1]{3,2,1,0} reshape(maximum.694)
  broadcast.696 = f32[8,4,128,1]{3,2,1,0} broadcast(reshape.695), dimensions={0,1,2,3}
  reshape.697 = f32[8,4,128]{2,1,0} reshape(broadcast.696)
  broadcast.698 = f32[8,4,128,128]{3,2,1,0} broadcast(reshape.697), dimensions={0,1,2}
  subtract.699 = f32[8,4,128,128]{3,2,1,0} subtract(dot.688, broadcast.698)
  exponential.700 = f32[8,4,128,128]{3,2,1,0} exponential(subtract.699)
  reduce.705 = f32[8,4,128]{2,1,0} reduce(exponential.700, constant.583), dimensions={3}, to_apply=region_4.704
  reshape.706 = f32[8,4,128,1]{3,2,1,0} reshape(reduce.705)
  broadcast.707 = f32[8,4,128,1]{3,2,1,0} broadcast(reshape.706), dimensions={0,1,2,3}
  reshape.708 = f32[8,4,128]{2,1,0} reshape(broadcast.707)
  broadcast.709 = f32[8,4,128,128]{3,2,1,0} broadcast(reshape.708), dimensions={0,1,2}
  divide.710 = f32[8,4,128,128]{3,2,1,0} divide(exponential.700, broadcast.709)
  dot.713 = f32[8,4,64,128]{3,2,1,0} dot(add.686, divide.710), lhs_batch_dims={0,2}, lhs_contracting_dims={1}, rhs_batch_dims={0,1}, rhs_contracting_dims={3}
  transpose.714 = f32[8,128,4,64]{1,3,2,0} transpose(dot.713), dimensions={0,3,1,2}
  Arg_6.217 = f32[4,64,256]{2,1,0} parameter(6)
  dot.715 = f32[8,128,256]{2,1,0} dot(transpose.714, Arg_6.217), lhs_contracting_dims={2,3}, rhs_contracting_dims={0,1}
  Arg_5.216 = f32[256]{0} parameter(5)
  reshape.716 = f32[1,1,256]{2,1,0} reshape(Arg_5.216)
  broadcast.717 = f32[1,1,256]{2,1,0} broadcast(reshape.716), dimensions={0,1,2}
  reshape.718 = f32[256]{0} reshape(broadcast.717)
  broadcast.719 = f32[8,128,256]{2,1,0} broadcast(reshape.718), dimensions={2}
  add.720 = f32[8,128,256]{2,1,0} add(dot.715, broadcast.719)
  add.721 = f32[8,128,256]{2,1,0} add(get-tuple-element.620, add.720)
  reduce.728 = f32[8,128]{1,0} reduce(add.721, constant.583), dimensions={2}, to_apply=region_5.727
  divide.729 = f32[8,128]{1,0} divide(reduce.728, broadcast.574)
  reshape.745 = f32[8,128,1]{2,1,0} reshape(divide.729)
  broadcast.747 = f32[8,128,1]{2,1,0} broadcast(reshape.745), dimensions={0,1,2}
  reshape.748 = f32[8,128]{1,0} reshape(broadcast.747)
  broadcast.749 = f32[8,128,256]{2,1,0} broadcast(reshape.748), dimensions={0,1}
  subtract.750 = f32[8,128,256]{2,1,0} subtract(add.721, broadcast.749)
  multiply.722 = f32[8,128,256]{2,1,0} multiply(add.721, add.721)
  reduce.734 = f32[8,128]{1,0} reduce(multiply.722, constant.583), dimensions={2}, to_apply=region_6.733
  divide.735 = f32[8,128]{1,0} divide(reduce.734, broadcast.574)
  multiply.736 = f32[8,128]{1,0} multiply(divide.729, divide.729)
  subtract.738 = f32[8,128]{1,0} subtract(divide.735, multiply.736)
  maximum.739 = f32[8,128]{1,0} maximum(subtract.738, broadcast.570)
  reshape.746 = f32[8,128,1]{2,1,0} reshape(maximum.739)
  add.751 = f32[8,128,1]{2,1,0} add(reshape.746, broadcast.566)
  rsqrt.752 = f32[8,128,1]{2,1,0} rsqrt(add.751)
  broadcast.756 = f32[8,128,1]{2,1,0} broadcast(rsqrt.752), dimensions={0,1,2}
  reshape.757 = f32[8,128]{1,0} reshape(broadcast.756)
  broadcast.758 = f32[8,128,256]{2,1,0} broadcast(reshape.757), dimensions={0,1}
  Arg_14.225 = f32[256]{0} parameter(14)
  reshape.755 = f32[1,1,256]{2,1,0} reshape(Arg_14.225)
  broadcast.759 = f32[1,1,256]{2,1,0} broadcast(reshape.755), dimensions={0,1,2}
  reshape.760 = f32[256]{0} reshape(broadcast.759)
  broadcast.761 = f32[8,128,256]{2,1,0} broadcast(reshape.760), dimensions={2}
  multiply.762 = f32[8,128,256]{2,1,0} multiply(broadcast.758, broadcast.761)
  multiply.763 = f32[8,128,256]{2,1,0} multiply(subtract.750, multiply.762)
  Arg_13.224 = f32[256]{0} parameter(13)
  reshape.764 = f32[1,1,256]{2,1,0} reshape(Arg_13.224)
  broadcast.765 = f32[1,1,256]{2,1,0} broadcast(reshape.764), dimensions={0,1,2}
  reshape.766 = f32[256]{0} reshape(broadcast.765)
  broadcast.767 = f32[8,128,256]{2,1,0} broadcast(reshape.766), dimensions={2}
  add.768 = f32[8,128,256]{2,1,0} add(multiply.763, broadcast.767)
  Arg_16.227 = f32[256,1024]{1,0} parameter(16)
  dot.769 = f32[8,128,1024]{2,1,0} dot(add.768, Arg_16.227), lhs_contracting_dims={2}, rhs_contracting_dims={0}
  Arg_15.226 = f32[1024]{0} parameter(15)
  reshape.770 = f32[1,1,1024]{2,1,0} reshape(Arg_15.226)
  broadcast.771 = f32[1,1,1024]{2,1,0} broadcast(reshape.770), dimensions={0,1,2}
  reshape.772 = f32[1024]{0} reshape(broadcast.771)
  broadcast.773 = f32[8,128,1024]{2,1,0} broadcast(reshape.772), dimensions={2}
  add.774 = f32[8,128,1024]{2,1,0} add(dot.769, broadcast.773)
  multiply.775 = f32[8,128,1024]{2,1,0} multiply(add.774, add.774)
  multiply.776 = f32[8,128,1024]{2,1,0} multiply(multiply.775, add.774)
  constant.553 = f32[] constant(0.044715)
  broadcast.554 = f32[8,128,1024]{2,1,0} broadcast(constant.553), dimensions={}
  multiply.779 = f32[8,128,1024]{2,1,0} multiply(multiply.776, broadcast.554)
  add.780 = f32[8,128,1024]{2,1,0} add(add.774, multiply.779)
  constant.551 = f32[] constant(0.797884583)
  broadcast.552 = f32[8,128,1024]{2,1,0} broadcast(constant.551), dimensions={}
  multiply.781 = f32[8,128,1024]{2,1,0} multiply(add.780, broadcast.552)
  tanh.782 = f32[8,128,1024]{2,1,0} tanh(multiply.781)
  constant.549 = f32[] constant(1)
  broadcast.550 = f32[8,128,1024]{2,1,0} broadcast(constant.549), dimensions={}
  add.784 = f32[8,128,1024]{2,1,0} add(tanh.782, broadcast.550)
  constant.547 = f32[] constant(0.5)
  broadcast.548 = f32[8,128,1024]{2,1,0} broadcast(constant.547), dimensions={}
  multiply.785 = f32[8,128,1024]{2,1,0} multiply(add.784, broadcast.548)
  multiply.786 = f32[8,128,1024]{2,1,0} multiply(add.774, multiply.785)
  Arg_18.229 = f32[1024,256]{1,0} parameter(18)
  dot.787 = f32[8,128,256]{2,1,0} dot(multiply.786, Arg_18.229), lhs_contracting_dims={2}, rhs_contracting_dims={0}
  Arg_17.228 = f32[256]{0} parameter(17)
  reshape.788 = f32[1,1,256]{2,1,0} reshape(Arg_17.228)
  broadcast.789 = f32[1,1,256]{2,1,0} broadcast(reshape.788), dimensions={0,1,2}
  reshape.790 = f32[256]{0} reshape(broadcast.789)
  broadcast.791 = f32[8,128,256]{2,1,0} broadcast(reshape.790), dimensions={2}
  add.792 = f32[8,128,256]{2,1,0} add(dot.787, broadcast.791)
  add.793 = f32[8,128,256]{2,1,0} add(add.721, add.792)
  reduce.800 = f32[8,128]{1,0} reduce(add.793, constant.583), dimensions={2}, to_apply=region_7.799
  divide.801 = f32[8,128]{1,0} divide(reduce.800, broadcast.574)
  reshape.817 = f32[8,128,1]{2,1,0} reshape(divide.801)
  broadcast.819 = f32[8,128,1]{2,1,0} broadcast(reshape.817), dimensions={0,1,2}
  reshape.820 = f32[8,128]{1,0} reshape(broadcast.819)
  broadcast.821 = f32[8,128,256]{2,1,0} broadcast(reshape.820), dimensions={0,1}
  subtract.822 = f32[8,128,256]{2,1,0} subtract(add.793, broadcast.821)
  multiply.794 = f32[8,128,256]{2,1,0} multiply(add.793, add.793)
  reduce.806 = f32[8,128]{1,0} reduce(multiply.794, constant.583), dimensions={2}, to_apply=region_8.805
  divide.807 = f32[8,128]{1,0} divide(reduce.806, broadcast.574)
  multiply.808 = f32[8,128]{1,0} multiply(divide.801, divide.801)
  subtract.810 = f32[8,128]{1,0} subtract(divide.807, multiply.808)
  maximum.811 = f32[8,128]{1,0} maximum(subtract.810, broadcast.570)
  reshape.818 = f32[8,128,1]{2,1,0} reshape(maximum.811)
  add.823 = f32[8,128,1]{2,1,0} add(reshape.818, broadcast.566)
  rsqrt.824 = f32[8,128,1]{2,1,0} rsqrt(add.823)
  broadcast.828 = f32[8,128,1]{2,1,0} broadcast(rsqrt.824), dimensions={0,1,2}
  reshape.829 = f32[8,128]{1,0} reshape(broadcast.828)
  broadcast.830 = f32[8,128,256]{2,1,0} broadcast(reshape.829), dimensions={0,1}
  Arg_28.239 = f32[256]{0} parameter(28)
  reshape.827 = f32[1,1,256]{2,1,0} reshape(Arg_28.239)
  broadcast.831 = f32[1,1,256]{2,1,0} broadcast(reshape.827), dimensions={0,1,2}
  reshape.832 = f32[256]{0} reshape(broadcast.831)
  broadcast.833 = f32[8,128,256]{2,1,0} broadcast(reshape.832), dimensions={2}
  multiply.834 = f32[8,128,256]{2,1,0} multiply(broadcast.830, broadcast.833)
  multiply.835 = f32[8,128,256]{2,1,0} multiply(subtract.822, multiply.834)
  Arg_27.238 = f32[256]{0} parameter(27)
  reshape.836 = f32[1,1,256]{2,1,0} reshape(Arg_27.238)
  broadcast.837 = f32[1,1,256]{2,1,0} broadcast(reshape.836), dimensions={0,1,2}
  reshape.838 = f32[256]{0} reshape(broadcast.837)
  broadcast.839 = f32[8,128,256]{2,1,0} broadcast(reshape.838), dimensions={2}
  add.840 = f32[8,128,256]{2,1,0} add(multiply.835, broadcast.839)
  Arg_26.237 = f32[256,4,64]{2,1,0} parameter(26)
  dot.853 = f32[8,128,4,64]{3,2,1,0} dot(add.840, Arg_26.237), lhs_contracting_dims={2}, rhs_contracting_dims={0}
  Arg_25.236 = f32[4,64]{1,0} parameter(25)
  reshape.854 = f32[1,1,4,64]{3,2,1,0} reshape(Arg_25.236)
  broadcast.855 = f32[1,1,4,64]{3,2,1,0} broadcast(reshape.854), dimensions={0,1,2,3}
  reshape.856 = f32[4,64]{1,0} reshape(broadcast.855)
  broadcast.857 = f32[8,128,4,64]{3,2,1,0} broadcast(reshape.856), dimensions={2,3}
  add.858 = f32[8,128,4,64]{3,2,1,0} add(dot.853, broadcast.857)
  Arg_24.235 = f32[256,4,64]{2,1,0} parameter(24)
  dot.841 = f32[8,128,4,64]{3,2,1,0} dot(add.840, Arg_24.235), lhs_contracting_dims={2}, rhs_contracting_dims={0}
  Arg_23.234 = f32[4,64]{1,0} parameter(23)
  reshape.842 = f32[1,1,4,64]{3,2,1,0} reshape(Arg_23.234)
  broadcast.843 = f32[1,1,4,64]{3,2,1,0} broadcast(reshape.842), dimensions={0,1,2,3}
  reshape.844 = f32[4,64]{1,0} reshape(broadcast.843)
  broadcast.845 = f32[8,128,4,64]{3,2,1,0} broadcast(reshape.844), dimensions={2,3}
  add.846 = f32[8,128,4,64]{3,2,1,0} add(dot.841, broadcast.845)
  divide.859 = f32[8,128,4,64]{3,2,1,0} divide(add.846, broadcast.562)
  Arg_20.231 = f32[256,4,64]{2,1,0} parameter(20)
  dot.847 = f32[8,128,4,64]{3,2,1,0} dot(add.840, Arg_20.231), lhs_contracting_dims={2}, rhs_contracting_dims={0}
  Arg_19.230 = f32[4,64]{1,0} parameter(19)
  reshape.848 = f32[1,1,4,64]{3,2,1,0} reshape(Arg_19.230)
  broadcast.849 = f32[1,1,4,64]{3,2,1,0} broadcast(reshape.848), dimensions={0,1,2,3}
  reshape.850 = f32[4,64]{1,0} reshape(broadcast.849)
  broadcast.851 = f32[8,128,4,64]{3,2,1,0} broadcast(reshape.850), dimensions={2,3}
  add.852 = f32[8,128,4,64]{3,2,1,0} add(dot.847, broadcast.851)
  dot.860 = f32[8,4,128,128]{3,2,1,0} dot(divide.859, add.852), lhs_batch_dims={0,2}, lhs_contracting_dims={3}, rhs_batch_dims={0,2}, rhs_contracting_dims={3}
  reduce.865 = f32[8,4,128]{2,1,0} reduce(dot.860, constant.581), dimensions={3}, to_apply=region_9.864
  maximum.866 = f32[8,4,128]{2,1,0} maximum(reduce.865, broadcast.560)
  reshape.867 = f32[8,4,128,1]{3,2,1,0} reshape(maximum.866)
  broadcast.868 = f32[8,4,128,1]{3,2,1,0} broadcast(reshape.867), dimensions={0,1,2,3}
  reshape.869 = f32[8,4,128]{2,1,0} reshape(broadcast.868)
  broadcast.870 = f32[8,4,128,128]{3,2,1,0} broadcast(reshape.869), dimensions={0,1,2}
  subtract.871 = f32[8,4,128,128]{3,2,1,0} subtract(dot.860, broadcast.870)
  exponential.872 = f32[8,4,128,128]{3,2,1,0} exponential(subtract.871)
  reduce.877 = f32[8,4,128]{2,1,0} reduce(exponential.872, constant.583), dimensions={3}, to_apply=region_10.876
  reshape.878 = f32[8,4,128,1]{3,2,1,0} reshape(reduce.877)
  broadcast.879 = f32[8,4,128,1]{3,2,1,0} broadcast(reshape.878), dimensions={0,1,2,3}
  reshape.880 = f32[8,4,128]{2,1,0} reshape(broadcast.879)
  broadcast.881 = f32[8,4,128,128]{3,2,1,0} broadcast(reshape.880), dimensions={0,1,2}
  divide.882 = f32[8,4,128,128]{3,2,1,0} divide(exponential.872, broadcast.881)
  dot.885 = f32[8,4,64,128]{3,2,1,0} dot(add.858, divide.882), lhs_batch_dims={0,2}, lhs_contracting_dims={1}, rhs_batch_dims={0,1}, rhs_contracting_dims={3}
  transpose.886 = f32[8,128,4,64]{1,3,2,0} transpose(dot.885), dimensions={0,3,1,2}
  Arg_22.233 = f32[4,64,256]{2,1,0} parameter(22)
  dot.887 = f32[8,128,256]{2,1,0} dot(transpose.886, Arg_22.233), lhs_contracting_dims={2,3}, rhs_contracting_dims={0,1}
  Arg_21.232 = f32[256]{0} parameter(21)
  reshape.888 = f32[1,1,256]{2,1,0} reshape(Arg_21.232)
  broadcast.889 = f32[1,1,256]{2,1,0} broadcast(reshape.888), dimensions={0,1,2}
  reshape.890 = f32[256]{0} reshape(broadcast.889)
  broadcast.891 = f32[8,128,256]{2,1,0} broadcast(reshape.890), dimensions={2}
  add.892 = f32[8,128,256]{2,1,0} add(dot.887, broadcast.891)
  add.893 = f32[8,128,256]{2,1,0} add(add.793, add.892)
  reduce.900 = f32[8,128]{1,0} reduce(add.893, constant.583), dimensions={2}, to_apply=region_11.899
  divide.901 = f32[8,128]{1,0} divide(reduce.900, broadcast.574)
  reshape.917 = f32[8,128,1]{2,1,0} reshape(divide.901)
  broadcast.919 = f32[8,128,1]{2,1,0} broadcast(reshape.917), dimensions={0,1,2}
  reshape.920 = f32[8,128]{1,0} reshape(broadcast.919)
  broadcast.921 = f32[8,128,256]{2,1,0} broadcast(reshape.920), dimensions={0,1}
  subtract.922 = f32[8,128,256]{2,1,0} subtract(add.893, broadcast.921)
  multiply.894 = f32[8,128,256]{2,1,0} multiply(add.893, add.893)
  reduce.906 = f32[8,128]{1,0} reduce(multiply.894, constant.583), dimensions={2}, to_apply=region_12.905
  divide.907 = f32[8,128]{1,0} divide(reduce.906, broadcast.574)
  multiply.908 = f32[8,128]{1,0} multiply(divide.901, divide.901)
  subtract.910 = f32[8,128]{1,0} subtract(divide.907, multiply.908)
  maximum.911 = f32[8,128]{1,0} maximum(subtract.910, broadcast.570)
  reshape.918 = f32[8,128,1]{2,1,0} reshape(maximum.911)
  add.923 = f32[8,128,1]{2,1,0} add(reshape.918, broadcast.566)
  rsqrt.924 = f32[8,128,1]{2,1,0} rsqrt(add.923)
  broadcast.928 = f32[8,128,1]{2,1,0} broadcast(rsqrt.924), dimensions={0,1,2}
  reshape.929 = f32[8,128]{1,0} reshape(broadcast.928)
  broadcast.930 = f32[8,128,256]{2,1,0} broadcast(reshape.929), dimensions={0,1}
  Arg_30.241 = f32[256]{0} parameter(30)
  reshape.927 = f32[1,1,256]{2,1,0} reshape(Arg_30.241)
  broadcast.931 = f32[1,1,256]{2,1,0} broadcast(reshape.927), dimensions={0,1,2}
  reshape.932 = f32[256]{0} reshape(broadcast.931)
  broadcast.933 = f32[8,128,256]{2,1,0} broadcast(reshape.932), dimensions={2}
  multiply.934 = f32[8,128,256]{2,1,0} multiply(broadcast.930, broadcast.933)
  multiply.935 = f32[8,128,256]{2,1,0} multiply(subtract.922, multiply.934)
  Arg_29.240 = f32[256]{0} parameter(29)
  reshape.936 = f32[1,1,256]{2,1,0} reshape(Arg_29.240)
  broadcast.937 = f32[1,1,256]{2,1,0} broadcast(reshape.936), dimensions={0,1,2}
  reshape.938 = f32[256]{0} reshape(broadcast.937)
  broadcast.939 = f32[8,128,256]{2,1,0} broadcast(reshape.938), dimensions={2}
  add.940 = f32[8,128,256]{2,1,0} add(multiply.935, broadcast.939)
  Arg_32.243 = f32[256,1024]{1,0} parameter(32)
  dot.941 = f32[8,128,1024]{2,1,0} dot(add.940, Arg_32.243), lhs_contracting_dims={2}, rhs_contracting_dims={0}
  Arg_31.242 = f32[1024]{0} parameter(31)
  reshape.942 = f32[1,1,1024]{2,1,0} reshape(Arg_31.242)
  broadcast.943 = f32[1,1,1024]{2,1,0} broadcast(reshape.942), dimensions={0,1,2}
  reshape.944 = f32[1024]{0} reshape(broadcast.943)
  broadcast.945 = f32[8,128,1024]{2,1,0} broadcast(reshape.944), dimensions={2}
  add.946 = f32[8,128,1024]{2,1,0} add(dot.941, broadcast.945)
  multiply.947 = f32[8,128,1024]{2,1,0} multiply(add.946, add.946)
  multiply.948 = f32[8,128,1024]{2,1,0} multiply(multiply.947, add.946)
  multiply.951 = f32[8,128,1024]{2,1,0} multiply(multiply.948, broadcast.554)
  add.952 = f32[8,128,1024]{2,1,0} add(add.946, multiply.951)
  multiply.953 = f32[8,128,1024]{2,1,0} multiply(add.952, broadcast.552)
  tanh.954 = f32[8,128,1024]{2,1,0} tanh(multiply.953)
  add.956 = f32[8,128,1024]{2,1,0} add(tanh.954, broadcast.550)
  multiply.957 = f32[8,128,1024]{2,1,0} multiply(add.956, broadcast.548)
  multiply.958 = f32[8,128,1024]{2,1,0} multiply(add.946, multiply.957)
  Arg_34.245 = f32[1024,256]{1,0} parameter(34)
  dot.959 = f32[8,128,256]{2,1,0} dot(multiply.958, Arg_34.245), lhs_contracting_dims={2}, rhs_contracting_dims={0}
  Arg_33.244 = f32[256]{0} parameter(33)
  reshape.960 = f32[1,1,256]{2,1,0} reshape(Arg_33.244)
  broadcast.961 = f32[1,1,256]{2,1,0} broadcast(reshape.960), dimensions={0,1,2}
  reshape.962 = f32[256]{0} reshape(broadcast.961)
  broadcast.963 = f32[8,128,256]{2,1,0} broadcast(reshape.962), dimensions={2}
  add.964 = f32[8,128,256]{2,1,0} add(dot.959, broadcast.963)
  add.965 = f32[8,128,256]{2,1,0} add(add.893, add.964)
  reduce.972 = f32[8,128]{1,0} reduce(add.965, constant.583), dimensions={2}, to_apply=region_13.971
  divide.973 = f32[8,128]{1,0} divide(reduce.972, broadcast.574)
  reshape.989 = f32[8,128,1]{2,1,0} reshape(divide.973)
  broadcast.991 = f32[8,128,1]{2,1,0} broadcast(reshape.989), dimensions={0,1,2}
  reshape.992 = f32[8,128]{1,0} reshape(broadcast.991)
  broadcast.993 = f32[8,128,256]{2,1,0} broadcast(reshape.992), dimensions={0,1}
  subtract.994 = f32[8,128,256]{2,1,0} subtract(add.965, broadcast.993)
  multiply.966 = f32[8,128,256]{2,1,0} multiply(add.965, add.965)
  reduce.978 = f32[8,128]{1,0} reduce(multiply.966, constant.583), dimensions={2}, to_apply=region_14.977
  divide.979 = f32[8,128]{1,0} divide(reduce.978, broadcast.574)
  multiply.980 = f32[8,128]{1,0} multiply(divide.973, divide.973)
  subtract.982 = f32[8,128]{1,0} subtract(divide.979, multiply.980)
  maximum.983 = f32[8,128]{1,0} maximum(subtract.982, broadcast.570)
  reshape.990 = f32[8,128,1]{2,1,0} reshape(maximum.983)
  add.995 = f32[8,128,1]{2,1,0} add(reshape.990, broadcast.566)
  rsqrt.996 = f32[8,128,1]{2,1,0} rsqrt(add.995)
  broadcast.1000 = f32[8,128,1]{2,1,0} broadcast(rsqrt.996), dimensions={0,1,2}
  reshape.1001 = f32[8,128]{1,0} reshape(broadcast.1000)
  broadcast.1002 = f32[8,128,256]{2,1,0} broadcast(reshape.1001), dimensions={0,1}
  Arg_44.255 = f32[256]{0} parameter(44)
  reshape.999 = f32[1,1,256]{2,1,0} reshape(Arg_44.255)
  broadcast.1003 = f32[1,1,256]{2,1,0} broadcast(reshape.999), dimensions={0,1,2}
  reshape.1004 = f32[256]{0} reshape(broadcast.1003)
  broadcast.1005 = f32[8,128,256]{2,1,0} broadcast(reshape.1004), dimensions={2}
  multiply.1006 = f32[8,128,256]{2,1,0} multiply(broadcast.1002, broadcast.1005)
  multiply.1007 = f32[8,128,256]{2,1,0} multiply(subtract.994, multiply.1006)
  Arg_43.254 = f32[256]{0} parameter(43)
  reshape.1008 = f32[1,1,256]{2,1,0} reshape(Arg_43.254)
  broadcast.1009 = f32[1,1,256]{2,1,0} broadcast(reshape.1008), dimensions={0,1,2}
  reshape.1010 = f32[256]{0} reshape(broadcast.1009)
  broadcast.1011 = f32[8,128,256]{2,1,0} broadcast(reshape.1010), dimensions={2}
  add.1012 = f32[8,128,256]{2,1,0} add(multiply.1007, broadcast.1011)
  Arg_42.253 = f32[256,4,64]{2,1,0} parameter(42)
  dot.1025 = f32[8,128,4,64]{3,2,1,0} dot(add.1012, Arg_42.253), lhs_contracting_dims={2}, rhs_contracting_dims={0}
  Arg_41.252 = f32[4,64]{1,0} parameter(41)
  reshape.1026 = f32[1,1,4,64]{3,2,1,0} reshape(Arg_41.252)
  broadcast.1027 = f32[1,1,4,64]{3,2,1,0} broadcast(reshape.1026), dimensions={0,1,2,3}
  reshape.1028 = f32[4,64]{1,0} reshape(broadcast.1027)
  broadcast.1029 = f32[8,128,4,64]{3,2,1,0} broadcast(reshape.1028), dimensions={2,3}
  add.1030 = f32[8,128,4,64]{3,2,1,0} add(dot.1025, broadcast.1029)
  Arg_40.251 = f32[256,4,64]{2,1,0} parameter(40)
  dot.1013 = f32[8,128,4,64]{3,2,1,0} dot(add.1012, Arg_40.251), lhs_contracting_dims={2}, rhs_contracting_dims={0}
  Arg_39.250 = f32[4,64]{1,0} parameter(39)
  reshape.1014 = f32[1,1,4,64]{3,2,1,0} reshape(Arg_39.250)
  broadcast.1015 = f32[1,1,4,64]{3,2,1,0} broadcast(reshape.1014), dimensions={0,1,2,3}
  reshape.1016 = f32[4,64]{1,0} reshape(broadcast.1015)
  broadcast.1017 = f32[8,128,4,64]{3,2,1,0} broadcast(reshape.1016), dimensions={2,3}
  add.1018 = f32[8,128,4,64]{3,2,1,0} add(dot.1013, broadcast.1017)
  divide.1031 = f32[8,128,4,64]{3,2,1,0} divide(add.1018, broadcast.562)
  Arg_36.247 = f32[256,4,64]{2,1,0} parameter(36)
  dot.1019 = f32[8,128,4,64]{3,2,1,0} dot(add.1012, Arg_36.247), lhs_contracting_dims={2}, rhs_contracting_dims={0}
  Arg_35.246 = f32[4,64]{1,0} parameter(35)
  reshape.1020 = f32[1,1,4,64]{3,2,1,0} reshape(Arg_35.246)
  broadcast.1021 = f32[1,1,4,64]{3,2,1,0} broadcast(reshape.1020), dimensions={0,1,2,3}
  reshape.1022 = f32[4,64]{1,0} reshape(broadcast.1021)
  broadcast.1023 = f32[8,128,4,64]{3,2,1,0} broadcast(reshape.1022), dimensions={2,3}
  add.1024 = f32[8,128,4,64]{3,2,1,0} add(dot.1019, broadcast.1023)
  dot.1032 = f32[8,4,128,128]{3,2,1,0} dot(divide.1031, add.1024), lhs_batch_dims={0,2}, lhs_contracting_dims={3}, rhs_batch_dims={0,2}, rhs_contracting_dims={3}
  reduce.1037 = f32[8,4,128]{2,1,0} reduce(dot.1032, constant.581), dimensions={3}, to_apply=region_15.1036
  maximum.1038 = f32[8,4,128]{2,1,0} maximum(reduce.1037, broadcast.560)
  reshape.1039 = f32[8,4,128,1]{3,2,1,0} reshape(maximum.1038)
  broadcast.1040 = f32[8,4,128,1]{3,2,1,0} broadcast(reshape.1039), dimensions={0,1,2,3}
  reshape.1041 = f32[8,4,128]{2,1,0} reshape(broadcast.1040)
  broadcast.1042 = f32[8,4,128,128]{3,2,1,0} broadcast(reshape.1041), dimensions={0,1,2}
  subtract.1043 = f32[8,4,128,128]{3,2,1,0} subtract(dot.1032, broadcast.1042)
  exponential.1044 = f32[8,4,128,128]{3,2,1,0} exponential(subtract.1043)
  reduce.1049 = f32[8,4,128]{2,1,0} reduce(exponential.1044, constant.583), dimensions={3}, to_apply=region_16.1048
  reshape.1050 = f32[8,4,128,1]{3,2,1,0} reshape(reduce.1049)
  broadcast.1051 = f32[8,4,128,1]{3,2,1,0} broadcast(reshape.1050), dimensions={0,1,2,3}
  reshape.1052 = f32[8,4,128]{2,1,0} reshape(broadcast.1051)
  broadcast.1053 = f32[8,4,128,128]{3,2,1,0} broadcast(reshape.1052), dimensions={0,1,2}
  divide.1054 = f32[8,4,128,128]{3,2,1,0} divide(exponential.1044, broadcast.1053)
  dot.1057 = f32[8,4,64,128]{3,2,1,0} dot(add.1030, divide.1054), lhs_batch_dims={0,2}, lhs_contracting_dims={1}, rhs_batch_dims={0,1}, rhs_contracting_dims={3}
  transpose.1058 = f32[8,128,4,64]{1,3,2,0} transpose(dot.1057), dimensions={0,3,1,2}
  Arg_38.249 = f32[4,64,256]{2,1,0} parameter(38)
  dot.1059 = f32[8,128,256]{2,1,0} dot(transpose.1058, Arg_38.249), lhs_contracting_dims={2,3}, rhs_contracting_dims={0,1}
  Arg_37.248 = f32[256]{0} parameter(37)
  reshape.1060 = f32[1,1,256]{2,1,0} reshape(Arg_37.248)
  broadcast.1061 = f32[1,1,256]{2,1,0} broadcast(reshape.1060), dimensions={0,1,2}
  reshape.1062 = f32[256]{0} reshape(broadcast.1061)
  broadcast.1063 = f32[8,128,256]{2,1,0} broadcast(reshape.1062), dimensions={2}
  add.1064 = f32[8,128,256]{2,1,0} add(dot.1059, broadcast.1063)
  add.1065 = f32[8,128,256]{2,1,0} add(add.965, add.1064)
  reduce.1072 = f32[8,128]{1,0} reduce(add.1065, constant.583), dimensions={2}, to_apply=region_17.1071
  divide.1073 = f32[8,128]{1,0} divide(reduce.1072, broadcast.574)
  reshape.1089 = f32[8,128,1]{2,1,0} reshape(divide.1073)
  broadcast.1091 = f32[8,128,1]{2,1,0} broadcast(reshape.1089), dimensions={0,1,2}
  reshape.1092 = f32[8,128]{1,0} reshape(broadcast.1091)
  broadcast.1093 = f32[8,128,256]{2,1,0} broadcast(reshape.1092), dimensions={0,1}
  subtract.1094 = f32[8,128,256]{2,1,0} subtract(add.1065, broadcast.1093)
  multiply.1066 = f32[8,128,256]{2,1,0} multiply(add.1065, add.1065)
  reduce.1078 = f32[8,128]{1,0} reduce(multiply.1066, constant.583), dimensions={2}, to_apply=region_18.1077
  divide.1079 = f32[8,128]{1,0} divide(reduce.1078, broadcast.574)
  multiply.1080 = f32[8,128]{1,0} multiply(divide.1073, divide.1073)
  subtract.1082 = f32[8,128]{1,0} subtract(divide.1079, multiply.1080)
  maximum.1083 = f32[8,128]{1,0} maximum(subtract.1082, broadcast.570)
  reshape.1090 = f32[8,128,1]{2,1,0} reshape(maximum.1083)
  add.1095 = f32[8,128,1]{2,1,0} add(reshape.1090, broadcast.566)
  rsqrt.1096 = f32[8,128,1]{2,1,0} rsqrt(add.1095)
  broadcast.1100 = f32[8,128,1]{2,1,0} broadcast(rsqrt.1096), dimensions={0,1,2}
  reshape.1101 = f32[8,128]{1,0} reshape(broadcast.1100)
  broadcast.1102 = f32[8,128,256]{2,1,0} broadcast(reshape.1101), dimensions={0,1}
  Arg_46.257 = f32[256]{0} parameter(46)
  reshape.1099 = f32[1,1,256]{2,1,0} reshape(Arg_46.257)
  broadcast.1103 = f32[1,1,256]{2,1,0} broadcast(reshape.1099), dimensions={0,1,2}
  reshape.1104 = f32[256]{0} reshape(broadcast.1103)
  broadcast.1105 = f32[8,128,256]{2,1,0} broadcast(reshape.1104), dimensions={2}
  multiply.1106 = f32[8,128,256]{2,1,0} multiply(broadcast.1102, broadcast.1105)
  multiply.1107 = f32[8,128,256]{2,1,0} multiply(subtract.1094, multiply.1106)
  Arg_45.256 = f32[256]{0} parameter(45)
  reshape.1108 = f32[1,1,256]{2,1,0} reshape(Arg_45.256)
  broadcast.1109 = f32[1,1,256]{2,1,0} broadcast(reshape.1108), dimensions={0,1,2}
  reshape.1110 = f32[256]{0} reshape(broadcast.1109)
  broadcast.1111 = f32[8,128,256]{2,1,0} broadcast(reshape.1110), dimensions={2}
  add.1112 = f32[8,128,256]{2,1,0} add(multiply.1107, broadcast.1111)
  Arg_48.259 = f32[256,1024]{1,0} parameter(48)
  dot.1113 = f32[8,128,1024]{2,1,0} dot(add.1112, Arg_48.259), lhs_contracting_dims={2}, rhs_contracting_dims={0}
  Arg_47.258 = f32[1024]{0} parameter(47)
  reshape.1114 = f32[1,1,1024]{2,1,0} reshape(Arg_47.258)
  broadcast.1115 = f32[1,1,1024]{2,1,0} broadcast(reshape.1114), dimensions={0,1,2}
  reshape.1116 = f32[1024]{0} reshape(broadcast.1115)
  broadcast.1117 = f32[8,128,1024]{2,1,0} broadcast(reshape.1116), dimensions={2}
  add.1118 = f32[8,128,1024]{2,1,0} add(dot.1113, broadcast.1117)
  multiply.1119 = f32[8,128,1024]{2,1,0} multiply(add.1118, add.1118)
  multiply.1120 = f32[8,128,1024]{2,1,0} multiply(multiply.1119, add.1118)
  multiply.1123 = f32[8,128,1024]{2,1,0} multiply(multiply.1120, broadcast.554)
  add.1124 = f32[8,128,1024]{2,1,0} add(add.1118, multiply.1123)
  multiply.1125 = f32[8,128,1024]{2,1,0} multiply(add.1124, broadcast.552)
  tanh.1126 = f32[8,128,1024]{2,1,0} tanh(multiply.1125)
  add.1128 = f32[8,128,1024]{2,1,0} add(tanh.1126, broadcast.550)
  multiply.1129 = f32[8,128,1024]{2,1,0} multiply(add.1128, broadcast.548)
  multiply.1130 = f32[8,128,1024]{2,1,0} multiply(add.1118, multiply.1129)
  Arg_50.261 = f32[1024,256]{1,0} parameter(50)
  dot.1131 = f32[8,128,256]{2,1,0} dot(multiply.1130, Arg_50.261), lhs_contracting_dims={2}, rhs_contracting_dims={0}
  Arg_49.260 = f32[256]{0} parameter(49)
  reshape.1132 = f32[1,1,256]{2,1,0} reshape(Arg_49.260)
  broadcast.1133 = f32[1,1,256]{2,1,0} broadcast(reshape.1132), dimensions={0,1,2}
  reshape.1134 = f32[256]{0} reshape(broadcast.1133)
  broadcast.1135 = f32[8,128,256]{2,1,0} broadcast(reshape.1134), dimensions={2}
  add.1136 = f32[8,128,256]{2,1,0} add(dot.1131, broadcast.1135)
  add.1137 = f32[8,128,256]{2,1,0} add(add.1065, add.1136)
  reduce.1144 = f32[8,128]{1,0} reduce(add.1137, constant.583), dimensions={2}, to_apply=region_19.1143
  divide.1145 = f32[8,128]{1,0} divide(reduce.1144, broadcast.574)
  reshape.1161 = f32[8,128,1]{2,1,0} reshape(divide.1145)
  broadcast.1163 = f32[8,128,1]{2,1,0} broadcast(reshape.1161), dimensions={0,1,2}
  reshape.1164 = f32[8,128]{1,0} reshape(broadcast.1163)
  broadcast.1165 = f32[8,128,256]{2,1,0} broadcast(reshape.1164), dimensions={0,1}
  subtract.1166 = f32[8,128,256]{2,1,0} subtract(add.1137, broadcast.1165)
  multiply.1138 = f32[8,128,256]{2,1,0} multiply(add.1137, add.1137)
  reduce.1150 = f32[8,128]{1,0} reduce(multiply.1138, constant.583), dimensions={2}, to_apply=region_20.1149
  divide.1151 = f32[8,128]{1,0} divide(reduce.1150, broadcast.574)
  multiply.1152 = f32[8,128]{1,0} multiply(divide.1145, divide.1145)
  subtract.1154 = f32[8,128]{1,0} subtract(divide.1151, multiply.1152)
  maximum.1155 = f32[8,128]{1,0} maximum(subtract.1154, broadcast.570)
  reshape.1162 = f32[8,128,1]{2,1,0} reshape(maximum.1155)
  add.1167 = f32[8,128,1]{2,1,0} add(reshape.1162, broadcast.566)
  rsqrt.1168 = f32[8,128,1]{2,1,0} rsqrt(add.1167)
  broadcast.1172 = f32[8,128,1]{2,1,0} broadcast(rsqrt.1168), dimensions={0,1,2}
  reshape.1173 = f32[8,128]{1,0} reshape(broadcast.1172)
  broadcast.1174 = f32[8,128,256]{2,1,0} broadcast(reshape.1173), dimensions={0,1}
  Arg_60.271 = f32[256]{0} parameter(60)
  reshape.1171 = f32[1,1,256]{2,1,0} reshape(Arg_60.271)
  broadcast.1175 = f32[1,1,256]{2,1,0} broadcast(reshape.1171), dimensions={0,1,2}
  reshape.1176 = f32[256]{0} reshape(broadcast.1175)
  broadcast.1177 = f32[8,128,256]{2,1,0} broadcast(reshape.1176), dimensions={2}
  multiply.1178 = f32[8,128,256]{2,1,0} multiply(broadcast.1174, broadcast.1177)
  multiply.1179 = f32[8,128,256]{2,1,0} multiply(subtract.1166, multiply.1178)
  Arg_59.270 = f32[256]{0} parameter(59)
  reshape.1180 = f32[1,1,256]{2,1,0} reshape(Arg_59.270)
  broadcast.1181 = f32[1,1,256]{2,1,0} broadcast(reshape.1180), dimensions={0,1,2}
  reshape.1182 = f32[256]{0} reshape(broadcast.1181)
  broadcast.1183 = f32[8,128,256]{2,1,0} broadcast(reshape.1182), dimensions={2}
  add.1184 = f32[8,128,256]{2,1,0} add(multiply.1179, broadcast.1183)
  Arg_58.269 = f32[256,4,64]{2,1,0} parameter(58)
  dot.1197 = f32[8,128,4,64]{3,2,1,0} dot(add.1184, Arg_58.269), lhs_contracting_dims={2}, rhs_contracting_dims={0}
  Arg_57.268 = f32[4,64]{1,0} parameter(57)
  reshape.1198 = f32[1,1,4,64]{3,2,1,0} reshape(Arg_57.268)
  broadcast.1199 = f32[1,1,4,64]{3,2,1,0} broadcast(reshape.1198), dimensions={0,1,2,3}
  reshape.1200 = f32[4,64]{1,0} reshape(broadcast.1199)
  broadcast.1201 = f32[8,128,4,64]{3,2,1,0} broadcast(reshape.1200), dimensions={2,3}
  add.1202 = f32[8,128,4,64]{3,2,1,0} add(dot.1197, broadcast.1201)
  Arg_56.267 = f32[256,4,64]{2,1,0} parameter(56)
  dot.1185 = f32[8,128,4,64]{3,2,1,0} dot(add.1184, Arg_56.267), lhs_contracting_dims={2}, rhs_contracting_dims={0}
  Arg_55.266 = f32[4,64]{1,0} parameter(55)
  reshape.1186 = f32[1,1,4,64]{3,2,1,0} reshape(Arg_55.266)
  broadcast.1187 = f32[1,1,4,64]{3,2,1,0} broadcast(reshape.1186), dimensions={0,1,2,3}
  reshape.1188 = f32[4,64]{1,0} reshape(broadcast.1187)
  broadcast.1189 = f32[8,128,4,64]{3,2,1,0} broadcast(reshape.1188), dimensions={2,3}
  add.1190 = f32[8,128,4,64]{3,2,1,0} add(dot.1185, broadcast.1189)
  divide.1203 = f32[8,128,4,64]{3,2,1,0} divide(add.1190, broadcast.562)
  Arg_52.263 = f32[256,4,64]{2,1,0} parameter(52)
  dot.1191 = f32[8,128,4,64]{3,2,1,0} dot(add.1184, Arg_52.263), lhs_contracting_dims={2}, rhs_contracting_dims={0}
  Arg_51.262 = f32[4,64]{1,0} parameter(51)
  reshape.1192 = f32[1,1,4,64]{3,2,1,0} reshape(Arg_51.262)
  broadcast.1193 = f32[1,1,4,64]{3,2,1,0} broadcast(reshape.1192), dimensions={0,1,2,3}
  reshape.1194 = f32[4,64]{1,0} reshape(broadcast.1193)
  broadcast.1195 = f32[8,128,4,64]{3,2,1,0} broadcast(reshape.1194), dimensions={2,3}
  add.1196 = f32[8,128,4,64]{3,2,1,0} add(dot.1191, broadcast.1195)
  dot.1204 = f32[8,4,128,128]{3,2,1,0} dot(divide.1203, add.1196), lhs_batch_dims={0,2}, lhs_contracting_dims={3}, rhs_batch_dims={0,2}, rhs_contracting_dims={3}
  reduce.1209 = f32[8,4,128]{2,1,0} reduce(dot.1204, constant.581), dimensions={3}, to_apply=region_21.1208
  maximum.1210 = f32[8,4,128]{2,1,0} maximum(reduce.1209, broadcast.560)
  reshape.1211 = f32[8,4,128,1]{3,2,1,0} reshape(maximum.1210)
  broadcast.1212 = f32[8,4,128,1]{3,2,1,0} broadcast(reshape.1211), dimensions={0,1,2,3}
  reshape.1213 = f32[8,4,128]{2,1,0} reshape(broadcast.1212)
  broadcast.1214 = f32[8,4,128,128]{3,2,1,0} broadcast(reshape.1213), dimensions={0,1,2}
  subtract.1215 = f32[8,4,128,128]{3,2,1,0} subtract(dot.1204, broadcast.1214)
  exponential.1216 = f32[8,4,128,128]{3,2,1,0} exponential(subtract.1215)
  reduce.1221 = f32[8,4,128]{2,1,0} reduce(exponential.1216, constant.583), dimensions={3}, to_apply=region_22.1220
  reshape.1222 = f32[8,4,128,1]{3,2,1,0} reshape(reduce.1221)
  broadcast.1223 = f32[8,4,128,1]{3,2,1,0} broadcast(reshape.1222), dimensions={0,1,2,3}
  reshape.1224 = f32[8,4,128]{2,1,0} reshape(broadcast.1223)
  broadcast.1225 = f32[8,4,128,128]{3,2,1,0} broadcast(reshape.1224), dimensions={0,1,2}
  divide.1226 = f32[8,4,128,128]{3,2,1,0} divide(exponential.1216, broadcast.1225)
  dot.1229 = f32[8,4,64,128]{3,2,1,0} dot(add.1202, divide.1226), lhs_batch_dims={0,2}, lhs_contracting_dims={1}, rhs_batch_dims={0,1}, rhs_contracting_dims={3}
  transpose.1230 = f32[8,128,4,64]{1,3,2,0} transpose(dot.1229), dimensions={0,3,1,2}
  Arg_54.265 = f32[4,64,256]{2,1,0} parameter(54)
  dot.1231 = f32[8,128,256]{2,1,0} dot(transpose.1230, Arg_54.265), lhs_contracting_dims={2,3}, rhs_contracting_dims={0,1}
  Arg_53.264 = f32[256]{0} parameter(53)
  reshape.1232 = f32[1,1,256]{2,1,0} reshape(Arg_53.264)
  broadcast.1233 = f32[1,1,256]{2,1,0} broadcast(reshape.1232), dimensions={0,1,2}
  reshape.1234 = f32[256]{0} reshape(broadcast.1233)
  broadcast.1235 = f32[8,128,256]{2,1,0} broadcast(reshape.1234), dimensions={2}
  add.1236 = f32[8,128,256]{2,1,0} add(dot.1231, broadcast.1235)
  add.1237 = f32[8,128,256]{2,1,0} add(add.1137, add.1236)
  reduce.1244 = f32[8,128]{1,0} reduce(add.1237, constant.583), dimensions={2}, to_apply=region_23.1243
  divide.1245 = f32[8,128]{1,0} divide(reduce.1244, broadcast.574)
  reshape.1261 = f32[8,128,1]{2,1,0} reshape(divide.1245)
  broadcast.1263 = f32[8,128,1]{2,1,0} broadcast(reshape.1261), dimensions={0,1,2}
  reshape.1264 = f32[8,128]{1,0} reshape(broadcast.1263)
  broadcast.1265 = f32[8,128,256]{2,1,0} broadcast(reshape.1264), dimensions={0,1}
  subtract.1266 = f32[8,128,256]{2,1,0} subtract(add.1237, broadcast.1265)
  multiply.1238 = f32[8,128,256]{2,1,0} multiply(add.1237, add.1237)
  reduce.1250 = f32[8,128]{1,0} reduce(multiply.1238, constant.583), dimensions={2}, to_apply=region_24.1249
  divide.1251 = f32[8,128]{1,0} divide(reduce.1250, broadcast.574)
  multiply.1252 = f32[8,128]{1,0} multiply(divide.1245, divide.1245)
  subtract.1254 = f32[8,128]{1,0} subtract(divide.1251, multiply.1252)
  maximum.1255 = f32[8,128]{1,0} maximum(subtract.1254, broadcast.570)
  reshape.1262 = f32[8,128,1]{2,1,0} reshape(maximum.1255)
  add.1267 = f32[8,128,1]{2,1,0} add(reshape.1262, broadcast.566)
  rsqrt.1268 = f32[8,128,1]{2,1,0} rsqrt(add.1267)
  broadcast.1272 = f32[8,128,1]{2,1,0} broadcast(rsqrt.1268), dimensions={0,1,2}
  reshape.1273 = f32[8,128]{1,0} reshape(broadcast.1272)
  broadcast.1274 = f32[8,128,256]{2,1,0} broadcast(reshape.1273), dimensions={0,1}
  Arg_62.273 = f32[256]{0} parameter(62)
  reshape.1271 = f32[1,1,256]{2,1,0} reshape(Arg_62.273)
  broadcast.1275 = f32[1,1,256]{2,1,0} broadcast(reshape.1271), dimensions={0,1,2}
  reshape.1276 = f32[256]{0} reshape(broadcast.1275)
  broadcast.1277 = f32[8,128,256]{2,1,0} broadcast(reshape.1276), dimensions={2}
  multiply.1278 = f32[8,128,256]{2,1,0} multiply(broadcast.1274, broadcast.1277)
  multiply.1279 = f32[8,128,256]{2,1,0} multiply(subtract.1266, multiply.1278)
  Arg_61.272 = f32[256]{0} parameter(61)
  reshape.1280 = f32[1,1,256]{2,1,0} reshape(Arg_61.272)
  broadcast.1281 = f32[1,1,256]{2,1,0} broadcast(reshape.1280), dimensions={0,1,2}
  reshape.1282 = f32[256]{0} reshape(broadcast.1281)
  broadcast.1283 = f32[8,128,256]{2,1,0} broadcast(reshape.1282), dimensions={2}
  add.1284 = f32[8,128,256]{2,1,0} add(multiply.1279, broadcast.1283)
  Arg_64.275 = f32[256,1024]{1,0} parameter(64)
  dot.1285 = f32[8,128,1024]{2,1,0} dot(add.1284, Arg_64.275), lhs_contracting_dims={2}, rhs_contracting_dims={0}
  Arg_63.274 = f32[1024]{0} parameter(63)
  reshape.1286 = f32[1,1,1024]{2,1,0} reshape(Arg_63.274)
  broadcast.1287 = f32[1,1,1024]{2,1,0} broadcast(reshape.1286), dimensions={0,1,2}
  reshape.1288 = f32[1024]{0} reshape(broadcast.1287)
  broadcast.1289 = f32[8,128,1024]{2,1,0} broadcast(reshape.1288), dimensions={2}
  add.1290 = f32[8,128,1024]{2,1,0} add(dot.1285, broadcast.1289)
  multiply.1291 = f32[8,128,1024]{2,1,0} multiply(add.1290, add.1290)
  multiply.1292 = f32[8,128,1024]{2,1,0} multiply(multiply.1291, add.1290)
  multiply.1295 = f32[8,128,1024]{2,1,0} multiply(multiply.1292, broadcast.554)
  add.1296 = f32[8,128,1024]{2,1,0} add(add.1290, multiply.1295)
  multiply.1297 = f32[8,128,1024]{2,1,0} multiply(add.1296, broadcast.552)
  tanh.1298 = f32[8,128,1024]{2,1,0} tanh(multiply.1297)
  add.1300 = f32[8,128,1024]{2,1,0} add(tanh.1298, broadcast.550)
  multiply.1301 = f32[8,128,1024]{2,1,0} multiply(add.1300, broadcast.548)
  multiply.1302 = f32[8,128,1024]{2,1,0} multiply(add.1290, multiply.1301)
  Arg_66.277 = f32[1024,256]{1,0} parameter(66)
  dot.1303 = f32[8,128,256]{2,1,0} dot(multiply.1302, Arg_66.277), lhs_contracting_dims={2}, rhs_contracting_dims={0}
  Arg_65.276 = f32[256]{0} parameter(65)
  reshape.1304 = f32[1,1,256]{2,1,0} reshape(Arg_65.276)
  broadcast.1305 = f32[1,1,256]{2,1,0} broadcast(reshape.1304), dimensions={0,1,2}
  reshape.1306 = f32[256]{0} reshape(broadcast.1305)
  broadcast.1307 = f32[8,128,256]{2,1,0} broadcast(reshape.1306), dimensions={2}
  add.1308 = f32[8,128,256]{2,1,0} add(dot.1303, broadcast.1307)
  add.1309 = f32[8,128,256]{2,1,0} add(add.1237, add.1308)
  reduce.1316 = f32[8,128]{1,0} reduce(add.1309, constant.583), dimensions={2}, to_apply=region_25.1315
  divide.1317 = f32[8,128]{1,0} divide(reduce.1316, broadcast.574)
  reshape.1333 = f32[8,128,1]{2,1,0} reshape(divide.1317)
  broadcast.1335 = f32[8,128,1]{2,1,0} broadcast(reshape.1333), dimensions={0,1,2}
  reshape.1336 = f32[8,128]{1,0} reshape(broadcast.1335)
  broadcast.1337 = f32[8,128,256]{2,1,0} broadcast(reshape.1336), dimensions={0,1}
  subtract.1338 = f32[8,128,256]{2,1,0} subtract(add.1309, broadcast.1337)
  multiply.1310 = f32[8,128,256]{2,1,0} multiply(add.1309, add.1309)
  reduce.1322 = f32[8,128]{1,0} reduce(multiply.1310, constant.583), dimensions={2}, to_apply=region_26.1321
  divide.1323 = f32[8,128]{1,0} divide(reduce.1322, broadcast.574)
  multiply.1324 = f32[8,128]{1,0} multiply(divide.1317, divide.1317)
  subtract.1326 = f32[8,128]{1,0} subtract(divide.1323, multiply.1324)
  maximum.1327 = f32[8,128]{1,0} maximum(subtract.1326, broadcast.570)
  reshape.1334 = f32[8,128,1]{2,1,0} reshape(maximum.1327)
  add.1339 = f32[8,128,1]{2,1,0} add(reshape.1334, broadcast.566)
  rsqrt.1340 = f32[8,128,1]{2,1,0} rsqrt(add.1339)
  broadcast.1344 = f32[8,128,1]{2,1,0} broadcast(rsqrt.1340), dimensions={0,1,2}
  reshape.1345 = f32[8,128]{1,0} reshape(broadcast.1344)
  broadcast.1346 = f32[8,128,256]{2,1,0} broadcast(reshape.1345), dimensions={0,1}
  Arg_68.279 = f32[256]{0} parameter(68)
  reshape.1343 = f32[1,1,256]{2,1,0} reshape(Arg_68.279)
  broadcast.1347 = f32[1,1,256]{2,1,0} broadcast(reshape.1343), dimensions={0,1,2}
  reshape.1348 = f32[256]{0} reshape(broadcast.1347)
  broadcast.1349 = f32[8,128,256]{2,1,0} broadcast(reshape.1348), dimensions={2}
  multiply.1350 = f32[8,128,256]{2,1,0} multiply(broadcast.1346, broadcast.1349)
  multiply.1351 = f32[8,128,256]{2,1,0} multiply(subtract.1338, multiply.1350)
  Arg_67.278 = f32[256]{0} parameter(67)
  reshape.1352 = f32[1,1,256]{2,1,0} reshape(Arg_67.278)
  broadcast.1353 = f32[1,1,256]{2,1,0} broadcast(reshape.1352), dimensions={0,1,2}
  reshape.1354 = f32[256]{0} reshape(broadcast.1353)
  broadcast.1355 = f32[8,128,256]{2,1,0} broadcast(reshape.1354), dimensions={2}
  add.1356 = f32[8,128,256]{2,1,0} add(multiply.1351, broadcast.1355)
  Arg_2.213 = f32[256,32000]{1,0} parameter(2)
  dot.1357 = f32[8,128,32000]{2,1,0} dot(add.1356, Arg_2.213), lhs_contracting_dims={2}, rhs_contracting_dims={0}
  Arg_1.212 = f32[32000]{0} parameter(1)
  reshape.1358 = f32[1,1,32000]{2,1,0} reshape(Arg_1.212)
  broadcast.1359 = f32[1,1,32000]{2,1,0} broadcast(reshape.1358), dimensions={0,1,2}
  reshape.1360 = f32[32000]{0} reshape(broadcast.1359)
  broadcast.1361 = f32[8,128,32000]{2,1,0} broadcast(reshape.1360), dimensions={2}
  add.1362 = f32[8,128,32000]{2,1,0} add(dot.1357, broadcast.1361)
  call.1388 = (f32[8,128,32000]{2,1,0}, f32[8,128,1]{2,1,0}) call(add.1362), to_apply=log_softmax.1387
  get-tuple-element.1389 = f32[8,128,32000]{2,1,0} get-tuple-element(call.1388), index=0
  get-tuple-element.1390 = f32[8,128,1]{2,1,0} get-tuple-element(call.1388), index=1
  iota.1391 = s32[32000]{0} iota(), iota_dimension=0
  broadcast.1392 = s32[32000,32000]{1,0} broadcast(iota.1391), dimensions={0}
  iota.1393 = s32[32000]{0} iota(), iota_dimension=0
  broadcast.1394 = s32[32000,32000]{1,0} broadcast(iota.1393), dimensions={1}
  compare.1395 = pred[32000,32000]{1,0} compare(broadcast.1392, broadcast.1394), direction=EQ
  convert.1396 = f32[32000,32000]{1,0} convert(compare.1395)
  Arg_209.420 = s32[8,128]{1,0} parameter(209)
  constant.545 = s32[] constant(0)
  broadcast.546 = s32[8,128]{1,0} broadcast(constant.545), dimensions={}
  compare.1397 = pred[8,128]{1,0} compare(Arg_209.420, broadcast.546), direction=LT
  constant.543 = s32[] constant(32000)
  broadcast.544 = s32[8,128]{1,0} broadcast(constant.543), dimensions={}
  add.1398 = s32[8,128]{1,0} add(Arg_209.420, broadcast.544)
  select.1399 = s32[8,128]{1,0} select(compare.1397, add.1398, Arg_209.420)
  reshape.1400 = s32[8,128,1]{2,1,0} reshape(select.1399)
  gather.1401 = f32[8,128,32000]{2,1,0} gather(convert.1396, reshape.1400), offset_dims={2}, collapsed_slice_dims={0}, start_index_map={0}, index_vector_dim=2, slice_sizes={1,32000}
  constant.541 = f32[] constant(-0.0009765625)
  broadcast.542 = f32[8,128,32000]{2,1,0} broadcast(constant.541), dimensions={}
  multiply.1402 = f32[8,128,32000]{2,1,0} multiply(gather.1401, broadcast.542)
  call.1424 = f32[8,128,32000]{2,1,0} call(get-tuple-element.1389, get-tuple-element.1390, multiply.1402), to_apply=log_softmax_0.1423
  dot.1432 = f32[8,128,256]{2,1,0} dot(call.1424, Arg_2.213), lhs_contracting_dims={2}, rhs_contracting_dims={1}
  multiply.1439 = f32[8,128,256]{2,1,0} multiply(dot.1432, multiply.1350)
  negate.1460 = f32[8,128,256]{2,1,0} negate(multiply.1439)
  reduce.1465 = f32[8,128]{1,0} reduce(negate.1460, constant.583), dimensions={2}, to_apply=region_35.1464
  reshape.1466 = f32[8,128,1]{2,1,0} reshape(reduce.1465)
  reduce.1476 = f32[8,128]{1,0} reduce(reshape.1466, constant.583), dimensions={2}, to_apply=region_37.1475
  multiply.1438 = f32[8,128,256]{2,1,0} multiply(subtract.1338, dot.1432)
  broadcast.1449 = f32[1,1,256]{2,1,0} broadcast(reshape.1343), dimensions={0,1,2}
  reshape.1450 = f32[256]{0} reshape(broadcast.1449)
  broadcast.1451 = f32[8,128,256]{2,1,0} broadcast(reshape.1450), dimensions={2}
  multiply.1452 = f32[8,128,256]{2,1,0} multiply(multiply.1438, broadcast.1451)
  reduce.1457 = f32[8,128]{1,0} reduce(multiply.1452, constant.583), dimensions={2}, to_apply=region_34.1456
  reshape.1458 = f32[8,128,1]{2,1,0} reshape(reduce.1457)
  divide.1341 = f32[8,128,1]{2,1,0} divide(rsqrt.1340, add.1339)
  constant.563 = f32[] constant(-0.5)
  broadcast.564 = f32[8,128,1]{2,1,0} broadcast(constant.563), dimensions={}
  multiply.1342 = f32[8,128,1]{2,1,0} multiply(divide.1341, broadcast.564)
  multiply.1459 = f32[8,128,1]{2,1,0} multiply(reshape.1458, multiply.1342)
  reduce.1471 = f32[8,128]{1,0} reduce(multiply.1459, constant.583), dimensions={2}, to_apply=region_36.1470
  compare.1328 = pred[8,128]{1,0} compare(subtract.1326, maximum.1327), direction=EQ
  constant.567 = f32[] constant(1)
  broadcast.568 = f32[8,128]{1,0} broadcast(constant.567), dimensions={}
  select.1329 = f32[8,128]{1,0} select(compare.1328, broadcast.568, broadcast.570)
  compare.1330 = pred[8,128]{1,0} compare(broadcast.570, maximum.1327), direction=EQ
  constant.571 = f32[] constant(2)
  broadcast.572 = f32[8,128]{1,0} broadcast(constant.571), dimensions={}
  select.1331 = f32[8,128]{1,0} select(compare.1330, broadcast.572, broadcast.568)
  divide.1332 = f32[8,128]{1,0} divide(select.1329, select.1331)
  multiply.1477 = f32[8,128]{1,0} multiply(reduce.1471, divide.1332)
  negate.1478 = f32[8,128]{1,0} negate(multiply.1477)
  multiply.1325 = f32[8,128]{1,0} multiply(divide.1317, broadcast.572)
  multiply.1479 = f32[8,128]{1,0} multiply(negate.1478, multiply.1325)
  add.1480 = f32[8,128]{1,0} add(reduce.1476, multiply.1479)
  divide.1483 = f32[8,128]{1,0} divide(add.1480, broadcast.574)
  broadcast.1484 = f32[8,128,256]{2,1,0} broadcast(divide.1483), dimensions={0,1}
  add.1485 = f32[8,128,256]{2,1,0} add(multiply.1439, broadcast.1484)
  divide.1481 = f32[8,128]{1,0} divide(multiply.1477, broadcast.574)
  broadcast.1482 = f32[8,128,256]{2,1,0} broadcast(divide.1481), dimensions={0,1}
  constant.575 = f32[] constant(2)
  broadcast.576 = f32[8,128,256]{2,1,0} broadcast(constant.575), dimensions={}
  multiply.1311 = f32[8,128,256]{2,1,0} multiply(add.1309, broadcast.576)
  multiply.1486 = f32[8,128,256]{2,1,0} multiply(broadcast.1482, multiply.1311)
  add.1487 = f32[8,128,256]{2,1,0} add(add.1485, multiply.1486)
  dot.1495 = f32[8,128,1024]{2,1,0} dot(add.1487, Arg_66.277), lhs_contracting_dims={2}, rhs_contracting_dims={1}
  multiply.1497 = f32[8,128,1024]{2,1,0} multiply(dot.1495, multiply.1301)
  multiply.1496 = f32[8,128,1024]{2,1,0} multiply(add.1290, dot.1495)
  multiply.1498 = f32[8,128,1024]{2,1,0} multiply(multiply.1496, broadcast.548)
  subtract.1299 = f32[8,128,1024]{2,1,0} subtract(broadcast.550, tanh.1298)
  multiply.1499 = f32[8,128,1024]{2,1,0} multiply(multiply.1498, subtract.1299)
  multiply.1500 = f32[8,128,1024]{2,1,0} multiply(multiply.1499, tanh.1298)
  add.1501 = f32[8,128,1024]{2,1,0} add(multiply.1499, multiply.1500)
  multiply.1502 = f32[8,128,1024]{2,1,0} multiply(add.1501, broadcast.552)
  add.1503 = f32[8,128,1024]{2,1,0} add(multiply.1497, multiply.1502)
  multiply.1504 = f32[8,128,1024]{2,1,0} multiply(multiply.1502, broadcast.554)
  multiply.1293 = f32[8,128,1024]{2,1,0} multiply(add.1290, add.1290)
  constant.555 = f32[] constant(3)
  broadcast.556 = f32[8,128,1024]{2,1,0} broadcast(constant.555), dimensions={}
  multiply.1294 = f32[8,128,1024]{2,1,0} multiply(multiply.1293, broadcast.556)
  multiply.1505 = f32[8,128,1024]{2,1,0} multiply(multiply.1504, multiply.1294)
  add.1506 = f32[8,128,1024]{2,1,0} add(add.1503, multiply.1505)
  dot.1514 = f32[8,128,256]{2,1,0} dot(add.1506, Arg_64.275), lhs_contracting_dims={2}, rhs_contracting_dims={1}
  multiply.1521 = f32[8,128,256]{2,1,0} multiply(dot.1514, multiply.1278)
  add.1549 = f32[8,128,256]{2,1,0} add(add.1487, multiply.1521)
  negate.1542 = f32[8,128,256]{2,1,0} negate(multiply.1521)
  reduce.1547 = f32[8,128]{1,0} reduce(negate.1542, constant.583), dimensions={2}, to_apply=region_43.1546
  reshape.1548 = f32[8,128,1]{2,1,0} reshape(reduce.1547)
  reduce.1559 = f32[8,128]{1,0} reduce(reshape.1548, constant.583), dimensions={2}, to_apply=region_45.1558
  multiply.1520 = f32[8,128,256]{2,1,0} multiply(subtract.1266, dot.1514)
  broadcast.1531 = f32[1,1,256]{2,1,0} broadcast(reshape.1271), dimensions={0,1,2}
  reshape.1532 = f32[256]{0} reshape(broadcast.1531)
  broadcast.1533 = f32[8,128,256]{2,1,0} broadcast(reshape.1532), dimensions={2}
  multiply.1534 = f32[8,128,256]{2,1,0} multiply(multiply.1520, broadcast.1533)
  reduce.1539 = f32[8,128]{1,0} reduce(multiply.1534, constant.583), dimensions={2}, to_apply=region_42.1538
  reshape.1540 = f32[8,128,1]{2,1,0} reshape(reduce.1539)
  divide.1269 = f32[8,128,1]{2,1,0} divide(rsqrt.1268, add.1267)
  multiply.1270 = f32[8,128,1]{2,1,0} multiply(divide.1269, broadcast.564)
  multiply.1541 = f32[8,128,1]{2,1,0} multiply(reshape.1540, multiply.1270)
  reduce.1554 = f32[8,128]{1,0} reduce(multiply.1541, constant.583), dimensions={2}, to_apply=region_44.1553
  compare.1256 = pred[8,128]{1,0} compare(subtract.1254, maximum.1255), direction=EQ
  select.1257 = f32[8,128]{1,0} select(compare.1256, broadcast.568, broadcast.570)
  compare.1258 = pred[8,128]{1,0} compare(broadcast.570, maximum.1255), direction=EQ
  select.1259 = f32[8,128]{1,0} select(compare.1258, broadcast.572, broadcast.568)
  divide.1260 = f32[8,128]{1,0} divide(select.1257, select.1259)
  multiply.1560 = f32[8,128]{1,0} multiply(reduce.1554, divide.1260)
  negate.1561 = f32[8,128]{1,0} negate(multiply.1560)
  multiply.1253 = f32[8,128]{1,0} multiply(divide.1245, broadcast.572)
  multiply.1562 = f32[8,128]{1,0} multiply(negate.1561, multiply.1253)
  add.1563 = f32[8,128]{1,0} add(reduce.1559, multiply.1562)
  divide.1566 = f32[8,128]{1,0} divide(add.1563, broadcast.574)
  broadcast.1567 = f32[8,128,256]{2,1,0} broadcast(divide.1566), dimensions={0,1}
  add.1568 = f32[8,128,256]{2,1,0} add(add.1549, broadcast.1567)
  divide.1564 = f32[8,128]{1,0} divide(multiply.1560, broadcast.574)
  broadcast.1565 = f32[8,128,256]{2,1,0} broadcast(divide.1564), dimensions={0,1}
  multiply.1239 = f32[8,128,256]{2,1,0} multiply(add.1237, broadcast.576)
  multiply.1569 = f32[8,128,256]{2,1,0} multiply(broadcast.1565, multiply.1239)
  add.1570 = f32[8,128,256]{2,1,0} add(add.1568, multiply.1569)
  dot.1578 = f32[8,128,4,64]{3,2,1,0} dot(add.1570, Arg_54.265), lhs_contracting_dims={2}, rhs_contracting_dims={2}
  transpose.1579 = f32[8,4,64,128]{2,1,3,0} transpose(dot.1578), dimensions={0,2,3,1}
  dot.1581 = f32[8,4,64,128]{3,2,1,0} dot(transpose.1579, divide.1226), lhs_batch_dims={0,1}, lhs_contracting_dims={3}, rhs_batch_dims={0,1}, rhs_contracting_dims={2}
  transpose.1582 = f32[8,128,4,64]{1,3,2,0} transpose(dot.1581), dimensions={0,3,1,2}
  dot.1619 = f32[8,128,256]{2,1,0} dot(transpose.1582, Arg_58.269), lhs_contracting_dims={2,3}, rhs_contracting_dims={1,2}
  dot.1580 = f32[8,4,128,128]{3,2,1,0} dot(transpose.1579, add.1202), lhs_batch_dims={0,1}, lhs_contracting_dims={2}, rhs_batch_dims={0,2}, rhs_contracting_dims={3}
  broadcast.1595 = f32[8,4,128,1]{3,2,1,0} broadcast(reshape.1222), dimensions={0,1,2,3}
  reshape.1596 = f32[8,4,128]{2,1,0} reshape(broadcast.1595)
  broadcast.1597 = f32[8,4,128,128]{3,2,1,0} broadcast(reshape.1596), dimensions={0,1,2}
  divide.1598 = f32[8,4,128,128]{3,2,1,0} divide(dot.1580, broadcast.1597)
  constant.557 = f32[] constant(1)
  broadcast.558 = f32[8,4,128,1]{3,2,1,0} broadcast(constant.557), dimensions={}
  multiply.1227 = f32[8,4,128,1]{3,2,1,0} multiply(reshape.1222, reshape.1222)
  divide.1228 = f32[8,4,128,1]{3,2,1,0} divide(broadcast.558, multiply.1227)
  broadcast.1583 = f32[8,4,128,1]{3,2,1,0} broadcast(divide.1228), dimensions={0,1,2,3}
  reshape.1584 = f32[8,4,128]{2,1,0} reshape(broadcast.1583)
  broadcast.1585 = f32[8,4,128,128]{3,2,1,0} broadcast(reshape.1584), dimensions={0,1,2}
  multiply.1586 = f32[8,4,128,128]{3,2,1,0} multiply(dot.1580, broadcast.1585)
  multiply.1587 = f32[8,4,128,128]{3,2,1,0} multiply(multiply.1586, exponential.1216)
  reduce.1592 = f32[8,4,128]{2,1,0} reduce(multiply.1587, constant.583), dimensions={3}, to_apply=region_47.1591
  reshape.1593 = f32[8,4,128,1]{3,2,1,0} reshape(reduce.1592)
  negate.1594 = f32[8,4,128,1]{3,2,1,0} negate(reshape.1593)
  reduce.1603 = f32[8,4,128]{2,1,0} reduce(negate.1594, constant.583), dimensions={3}, to_apply=region_48.1602
  broadcast.1604 = f32[8,4,128,128]{3,2,1,0} broadcast(reduce.1603), dimensions={0,1,2}
  add.1605 = f32[8,4,128,128]{3,2,1,0} add(divide.1598, broadcast.1604)
  multiply.1606 = f32[8,4,128,128]{3,2,1,0} multiply(add.1605, exponential.1216)
  dot.1607 = f32[8,4,128,64]{3,2,1,0} dot(multiply.1606, divide.1203), lhs_batch_dims={0,1}, lhs_contracting_dims={2}, rhs_batch_dims={0,2}, rhs_contracting_dims={1}
  transpose.1608 = f32[8,128,4,64]{3,1,2,0} transpose(dot.1607), dimensions={0,2,1,3}
  dot.1627 = f32[8,128,256]{2,1,0} dot(transpose.1608, Arg_52.263), lhs_contracting_dims={2,3}, rhs_contracting_dims={1,2}
  add.1628 = f32[8,128,256]{2,1,0} add(dot.1619, dot.1627)
  dot.1609 = f32[8,4,128,64]{3,2,1,0} dot(multiply.1606, add.1196), lhs_batch_dims={0,1}, lhs_contracting_dims={3}, rhs_batch_dims={0,2}, rhs_contracting_dims={1}
  transpose.1610 = f32[8,128,4,64]{3,1,2,0} transpose(dot.1609), dimensions={0,2,1,3}
  divide.1611 = f32[8,128,4,64]{3,1,2,0} divide(transpose.1610, broadcast.562)
  dot.1636 = f32[8,128,256]{2,1,0} dot(divide.1611, Arg_56.267), lhs_contracting_dims={2,3}, rhs_contracting_dims={1,2}
  add.1637 = f32[8,128,256]{2,1,0} add(add.1628, dot.1636)
  multiply.1644 = f32[8,128,256]{2,1,0} multiply(add.1637, multiply.1178)
  add.1672 = f32[8,128,256]{2,1,0} add(add.1570, multiply.1644)
  negate.1665 = f32[8,128,256]{2,1,0} negate(multiply.1644)
  reduce.1670 = f32[8,128]{1,0} reduce(negate.1665, constant.583), dimensions={2}, to_apply=region_55.1669
  reshape.1671 = f32[8,128,1]{2,1,0} reshape(reduce.1670)
  reduce.1682 = f32[8,128]{1,0} reduce(reshape.1671, constant.583), dimensions={2}, to_apply=region_57.1681
  multiply.1643 = f32[8,128,256]{2,1,0} multiply(subtract.1166, add.1637)
  broadcast.1654 = f32[1,1,256]{2,1,0} broadcast(reshape.1171), dimensions={0,1,2}
  reshape.1655 = f32[256]{0} reshape(broadcast.1654)
  broadcast.1656 = f32[8,128,256]{2,1,0} broadcast(reshape.1655), dimensions={2}
  multiply.1657 = f32[8,128,256]{2,1,0} multiply(multiply.1643, broadcast.1656)
  reduce.1662 = f32[8,128]{1,0} reduce(multiply.1657, constant.583), dimensions={2}, to_apply=region_54.1661
  reshape.1663 = f32[8,128,1]{2,1,0} reshape(reduce.1662)
  divide.1169 = f32[8,128,1]{2,1,0} divide(rsqrt.1168, add.1167)
  multiply.1170 = f32[8,128,1]{2,1,0} multiply(divide.1169, broadcast.564)
  multiply.1664 = f32[8,128,1]{2,1,0} multiply(reshape.1663, multiply.1170)
  reduce.1677 = f32[8,128]{1,0} reduce(multiply.1664, constant.583), dimensions={2}, to_apply=region_56.1676
  compare.1156 = pred[8,128]{1,0} compare(subtract.1154, maximum.1155), direction=EQ
  select.1157 = f32[8,128]{1,0} select(compare.1156, broadcast.568, broadcast.570)
  compare.1158 = pred[8,128]{1,0} compare(broadcast.570, maximum.1155), direction=EQ
  select.1159 = f32[8,128]{1,0} select(compare.1158, broadcast.572, broadcast.568)
  divide.1160 = f32[8,128]{1,0} divide(select.1157, select.1159)
  multiply.1683 = f32[8,128]{1,0} multiply(reduce.1677, divide.1160)
  negate.1684 = f32[8,128]{1,0} negate(multiply.1683)
  multiply.1153 = f32[8,128]{1,0} multiply(divide.1145, broadcast.572)
  multiply.1685 = f32[8,128]{1,0} multiply(negate.1684, multiply.1153)
  add.1686 = f32[8,128]{1,0} add(reduce.1682, multiply.1685)
  divide.1689 = f32[8,128]{1,0} divide(add.1686, broadcast.574)
  broadcast.1690 = f32[8,128,256]{2,1,0} broadcast(divide.1689), dimensions={0,1}
  add.1691 = f32[8,128,256]{2,1,0} add(add.1672, broadcast.1690)
  divide.1687 = f32[8,128]{1,0} divide(multiply.1683, broadcast.574)
  broadcast.1688 = f32[8,128,256]{2,1,0} broadcast(divide.1687), dimensions={0,1}
  multiply.1139 = f32[8,128,256]{2,1,0} multiply(add.1137, broadcast.576)
  multiply.1692 = f32[8,128,256]{2,1,0} multiply(broadcast.1688, multiply.1139)
  add.1693 = f32[8,128,256]{2,1,0} add(add.1691, multiply.1692)
  dot.1701 = f32[8,128,1024]{2,1,0} dot(add.1693, Arg_50.261), lhs_contracting_dims={2}, rhs_contracting_dims={1}
  multiply.1703 = f32[8,128,1024]{2,1,0} multiply(dot.1701, multiply.1129)
  multiply.1702 = f32[8,128,1024]{2,1,0} multiply(add.1118, dot.1701)
  multiply.1704 = f32[8,128,1024]{2,1,0} multiply(multiply.1702, broadcast.548)
  subtract.1127 = f32[8,128,1024]{2,1,0} subtract(broadcast.550, tanh.1126)
  multiply.1705 = f32[8,128,1024]{2,1,0} multiply(multiply.1704, subtract.1127)
  multiply.1706 = f32[8,128,1024]{2,1,0} multiply(multiply.1705, tanh.1126)
  add.1707 = f32[8,128,1024]{2,1,0} add(multiply.1705, multiply.1706)
  multiply.1708 = f32[8,128,1024]{2,1,0} multiply(add.1707, broadcast.552)
  add.1709 = f32[8,128,1024]{2,1,0} add(multiply.1703, multiply.1708)
  multiply.1710 = f32[8,128,1024]{2,1,0} multiply(multiply.1708, broadcast.554)
  multiply.1121 = f32[8,128,1024]{2,1,0} multiply(add.1118, add.1118)
  multiply.1122 = f32[8,128,1024]{2,1,0} multiply(multiply.1121, broadcast.556)
  multiply.1711 = f32[8,128,1024]{2,1,0} multiply(multiply.1710, multiply.1122)
  add.1712 = f32[8,128,1024]{2,1,0} add(add.1709, multiply.1711)
  dot.1720 = f32[8,128,256]{2,1,0} dot(add.1712, Arg_48.259), lhs_contracting_dims={2}, rhs_contracting_dims={1}
  multiply.1727 = f32[8,128,256]{2,1,0} multiply(dot.1720, multiply.1106)
  add.1755 = f32[8,128,256]{2,1,0} add(add.1693, multiply.1727)
  negate.1748 = f32[8,128,256]{2,1,0} negate(multiply.1727)
  reduce.1753 = f32[8,128]{1,0} reduce(negate.1748, constant.583), dimensions={2}, to_apply=region_63.1752
  reshape.1754 = f32[8,128,1]{2,1,0} reshape(reduce.1753)
  reduce.1765 = f32[8,128]{1,0} reduce(reshape.1754, constant.583), dimensions={2}, to_apply=region_65.1764
  multiply.1726 = f32[8,128,256]{2,1,0} multiply(subtract.1094, dot.1720)
  broadcast.1737 = f32[1,1,256]{2,1,0} broadcast(reshape.1099), dimensions={0,1,2}
  reshape.1738 = f32[256]{0} reshape(broadcast.1737)
  broadcast.1739 = f32[8,128,256]{2,1,0} broadcast(reshape.1738), dimensions={2}
  multiply.1740 = f32[8,128,256]{2,1,0} multiply(multiply.1726, broadcast.1739)
  reduce.1745 = f32[8,128]{1,0} reduce(multiply.1740, constant.583), dimensions={2}, to_apply=region_62.1744
  reshape.1746 = f32[8,128,1]{2,1,0} reshape(reduce.1745)
  divide.1097 = f32[8,128,1]{2,1,0} divide(rsqrt.1096, add.1095)
  multiply.1098 = f32[8,128,1]{2,1,0} multiply(divide.1097, broadcast.564)
  multiply.1747 = f32[8,128,1]{2,1,0} multiply(reshape.1746, multiply.1098)
  reduce.1760 = f32[8,128]{1,0} reduce(multiply.1747, constant.583), dimensions={2}, to_apply=region_64.1759
  compare.1084 = pred[8,128]{1,0} compare(subtract.1082, maximum.1083), direction=EQ
  select.1085 = f32[8,128]{1,0} select(compare.1084, broadcast.568, broadcast.570)
  compare.1086 = pred[8,128]{1,0} compare(broadcast.570, maximum.1083), direction=EQ
  select.1087 = f32[8,128]{1,0} select(compare.1086, broadcast.572, broadcast.568)
  divide.1088 = f32[8,128]{1,0} divide(select.1085, select.1087)
  multiply.1766 = f32[8,128]{1,0} multiply(reduce.1760, divide.1088)
  negate.1767 = f32[8,128]{1,0} negate(multiply.1766)
  multiply.1081 = f32[8,128]{1,0} multiply(divide.1073, broadcast.572)
  multiply.1768 = f32[8,128]{1,0} multiply(negate.1767, multiply.1081)
  add.1769 = f32[8,128]{1,0} add(reduce.1765, multiply.1768)
  divide.1772 = f32[8,128]{1,0} divide(add.1769, broadcast.574)
  broadcast.1773 = f32[8,128,256]{2,1,0} broadcast(divide.1772), dimensions={0,1}
  add.1774 = f32[8,128,256]{2,1,0} add(add.1755, broadcast.1773)
  divide.1770 = f32[8,128]{1,0} divide(multiply.1766, broadcast.574)
  broadcast.1771 = f32[8,128,256]{2,1,0} broadcast(divide.1770), dimensions={0,1}
  multiply.1067 = f32[8,128,256]{2,1,0} multiply(add.1065, broadcast.576)
  multiply.1775 = f32[8,128,256]{2,1,0} multiply(broadcast.1771, multiply.1067)
  add.1776 = f32[8,128,256]{2,1,0} add(add.1774, multiply.1775)
  dot.1784 = f32[8,128,4,64]{3,2,1,0} dot(add.1776, Arg_38.249), lhs_contracting_dims={2}, rhs_contracting_dims={2}
  transpose.1785 = f32[8,4,64,128]{2,1,3,0} transpose(dot.1784), dimensions={0,2,3,1}
  dot.1787 = f32[8,4,64,128]{3,2,1,0} dot(transpose.1785, divide.1054), lhs_batch_dims={0,1}, lhs_contracting_dims={3}, rhs_batch_dims={0,1}, rhs_contracting_dims={2}
  transpose.1788 = f32[8,128,4,64]{1,3,2,0} transpose(dot.1787), dimensions={0,3,1,2}
  dot.1825 = f32[8,128,256]{2,1,0} dot(transpose.1788, Arg_42.253), lhs_contracting_dims={2,3}, rhs_contracting_dims={1,2}
  dot.1786 = f32[8,4,128,128]{3,2,1,0} dot(transpose.1785, add.1030), lhs_batch_dims={0,1}, lhs_contracting_dims={2}, rhs_batch_dims={0,2}, rhs_contracting_dims={3}
  broadcast.1801 = f32[8,4,128,1]{3,2,1,0} broadcast(reshape.1050), dimensions={0,1,2,3}
  reshape.1802 = f32[8,4,128]{2,1,0} reshape(broadcast.1801)
  broadcast.1803 = f32[8,4,128,128]{3,2,1,0} broadcast(reshape.1802), dimensions={0,1,2}
  divide.1804 = f32[8,4,128,128]{3,2,1,0} divide(dot.1786, broadcast.1803)
  multiply.1055 = f32[8,4,128,1]{3,2,1,0} multiply(reshape.1050, reshape.1050)
  divide.1056 = f32[8,4,128,1]{3,2,1,0} divide(broadcast.558, multiply.1055)
  broadcast.1789 = f32[8,4,128,1]{3,2,1,0} broadcast(divide.1056), dimensions={0,1,2,3}
  reshape.1790 = f32[8,4,128]{2,1,0} reshape(broadcast.1789)
  broadcast.1791 = f32[8,4,128,128]{3,2,1,0} broadcast(reshape.1790), dimensions={0,1,2}
  multiply.1792 = f32[8,4,128,128]{3,2,1,0} multiply(dot.1786, broadcast.1791)
  multiply.1793 = f32[8,4,128,128]{3,2,1,0} multiply(multiply.1792, exponential.1044)
  reduce.1798 = f32[8,4,128]{2,1,0} reduce(multiply.1793, constant.583), dimensions={3}, to_apply=region_67.1797
  reshape.1799 = f32[8,4,128,1]{3,2,1,0} reshape(reduce.1798)
  negate.1800 = f32[8,4,128,1]{3,2,1,0} negate(reshape.1799)
  reduce.1809 = f32[8,4,128]{2,1,0} reduce(negate.1800, constant.583), dimensions={3}, to_apply=region_68.1808
  broadcast.1810 = f32[8,4,128,128]{3,2,1,0} broadcast(reduce.1809), dimensions={0,1,2}
  add.1811 = f32[8,4,128,128]{3,2,1,0} add(divide.1804, broadcast.1810)
  multiply.1812 = f32[8,4,128,128]{3,2,1,0} multiply(add.1811, exponential.1044)
  dot.1813 = f32[8,4,128,64]{3,2,1,0} dot(multiply.1812, divide.1031), lhs_batch_dims={0,1}, lhs_contracting_dims={2}, rhs_batch_dims={0,2}, rhs_contracting_dims={1}
  transpose.1814 = f32[8,128,4,64]{3,1,2,0} transpose(dot.1813), dimensions={0,2,1,3}
  dot.1833 = f32[8,128,256]{2,1,0} dot(transpose.1814, Arg_36.247), lhs_contracting_dims={2,3}, rhs_contracting_dims={1,2}
  add.1834 = f32[8,128,256]{2,1,0} add(dot.1825, dot.1833)
  dot.1815 = f32[8,4,128,64]{3,2,1,0} dot(multiply.1812, add.1024), lhs_batch_dims={0,1}, lhs_contracting_dims={3}, rhs_batch_dims={0,2}, rhs_contracting_dims={1}
  transpose.1816 = f32[8,128,4,64]{3,1,2,0} transpose(dot.1815), dimensions={0,2,1,3}
  divide.1817 = f32[8,128,4,64]{3,1,2,0} divide(transpose.1816, broadcast.562)
  dot.1842 = f32[8,128,256]{2,1,0} dot(divide.1817, Arg_40.251), lhs_contracting_dims={2,3}, rhs_contracting_dims={1,2}
  add.1843 = f32[8,128,256]{2,1,0} add(add.1834, dot.1842)
  multiply.1850 = f32[8,128,256]{2,1,0} multiply(add.1843, multiply.1006)
  add.1878 = f32[8,128,256]{2,1,0} add(add.1776, multiply.1850)
  negate.1871 = f32[8,128,256]{2,1,0} negate(multiply.1850)
  reduce.1876 = f32[8,128]{1,0} reduce(negate.1871, constant.583), dimensions={2}, to_apply=region_75.1875
  reshape.1877 = f32[8,128,1]{2,1,0} reshape(reduce.1876)
  reduce.1888 = f32[8,128]{1,0} reduce(reshape.1877, constant.583), dimensions={2}, to_apply=region_77.1887
  multiply.1849 = f32[8,128,256]{2,1,0} multiply(subtract.994, add.1843)
  broadcast.1860 = f32[1,1,256]{2,1,0} broadcast(reshape.999), dimensions={0,1,2}
  reshape.1861 = f32[256]{0} reshape(broadcast.1860)
  broadcast.1862 = f32[8,128,256]{2,1,0} broadcast(reshape.1861), dimensions={2}
  multiply.1863 = f32[8,128,256]{2,1,0} multiply(multiply.1849, broadcast.1862)
  reduce.1868 = f32[8,128]{1,0} reduce(multiply.1863, constant.583), dimensions={2}, to_apply=region_74.1867
  reshape.1869 = f32[8,128,1]{2,1,0} reshape(reduce.1868)
  divide.997 = f32[8,128,1]{2,1,0} divide(rsqrt.996, add.995)
  multiply.998 = f32[8,128,1]{2,1,0} multiply(divide.997, broadcast.564)
  multiply.1870 = f32[8,128,1]{2,1,0} multiply(reshape.1869, multiply.998)
  reduce.1883 = f32[8,128]{1,0} reduce(multiply.1870, constant.583), dimensions={2}, to_apply=region_76.1882
  compare.984 = pred[8,128]{1,0} compare(subtract.982, maximum.983), direction=EQ
  select.985 = f32[8,128]{1,0} select(compare.984, broadcast.568, broadcast.570)
  compare.986 = pred[8,128]{1,0} compare(broadcast.570, maximum.983), direction=EQ
  select.987 = f32[8,128]{1,0} select(compare.986, broadcast.572, broadcast.568)
  divide.988 = f32[8,128]{1,0} divide(select.985, select.987)
  multiply.1889 = f32[8,128]{1,0} multiply(reduce.1883, divide.988)
  negate.1890 = f32[8,128]{1,0} negate(multiply.1889)
  multiply.981 = f32[8,128]{1,0} multiply(divide.973, broadcast.572)
  multiply.1891 = f32[8,128]{1,0} multiply(negate.1890, multiply.981)
  add.1892 = f32[8,128]{1,0} add(reduce.1888, multiply.1891)
  divide.1895 = f32[8,128]{1,0} divide(add.1892, broadcast.574)
  broadcast.1896 = f32[8,128,256]{2,1,0} broadcast(divide.1895), dimensions={0,1}
  add.1897 = f32[8,128,256]{2,1,0} add(add.1878, broadcast.1896)
  divide.1893 = f32[8,128]{1,0} divide(multiply.1889, broadcast.574)
  broadcast.1894 = f32[8,128,256]{2,1,0} broadcast(divide.1893), dimensions={0,1}
  multiply.967 = f32[8,128,256]{2,1,0} multiply(add.965, broadcast.576)
  multiply.1898 = f32[8,128,256]{2,1,0} multiply(broadcast.1894, multiply.967)
  add.1899 = f32[8,128,256]{2,1,0} add(add.1897, multiply.1898)
  dot.1907 = f32[8,128,1024]{2,1,0} dot(add.1899, Arg_34.245), lhs_contracting_dims={2}, rhs_contracting_dims={1}
  multiply.1909 = f32[8,128,1024]{2,1,0} multiply(dot.1907, multiply.957)
  multiply.1908 = f32[8,128,1024]{2,1,0} multiply(add.946, dot.1907)
  multiply.1910 = f32[8,128,1024]{2,1,0} multiply(multiply.1908, broadcast.548)
  subtract.955 = f32[8,128,1024]{2,1,0} subtract(broadcast.550, tanh.954)
  multiply.1911 = f32[8,128,1024]{2,1,0} multiply(multiply.1910, subtract.955)
  multiply.1912 = f32[8,128,1024]{2,1,0} multiply(multiply.1911, tanh.954)
  add.1913 = f32[8,128,1024]{2,1,0} add(multiply.1911, multiply.1912)
  multiply.1914 = f32[8,128,1024]{2,1,0} multiply(add.1913, broadcast.552)
  add.1915 = f32[8,128,1024]{2,1,0} add(multiply.1909, multiply.1914)
  multiply.1916 = f32[8,128,1024]{2,1,0} multiply(multiply.1914, broadcast.554)
  multiply.949 = f32[8,128,1024]{2,1,0} multiply(add.946, add.946)
  multiply.950 = f32[8,128,1024]{2,1,0} multiply(multiply.949, broadcast.556)
  multiply.1917 = f32[8,128,1024]{2,1,0} multiply(multiply.1916, multiply.950)
  add.1918 = f32[8,128,1024]{2,1,0} add(add.1915, multiply.1917)
  dot.1926 = f32[8,128,256]{2,1,0} dot(add.1918, Arg_32.243), lhs_contracting_dims={2}, rhs_contracting_dims={1}
  multiply.1933 = f32[8,128,256]{2,1,0} multiply(dot.1926, multiply.934)
  add.1961 = f32[8,128,256]{2,1,0} add(add.1899, multiply.1933)
  negate.1954 = f32[8,128,256]{2,1,0} negate(multiply.1933)
  reduce.1959 = f32[8,128]{1,0} reduce(negate.1954, constant.583), dimensions={2}, to_apply=region_83.1958
  reshape.1960 = f32[8,128,1]{2,1,0} reshape(reduce.1959)
  reduce.1971 = f32[8,128]{1,0} reduce(reshape.1960, constant.583), dimensions={2}, to_apply=region_85.1970
  multiply.1932 = f32[8,128,256]{2,1,0} multiply(subtract.922, dot.1926)
  broadcast.1943 = f32[1,1,256]{2,1,0} broadcast(reshape.927), dimensions={0,1,2}
  reshape.1944 = f32[256]{0} reshape(broadcast.1943)
  broadcast.1945 = f32[8,128,256]{2,1,0} broadcast(reshape.1944), dimensions={2}
  multiply.1946 = f32[8,128,256]{2,1,0} multiply(multiply.1932, broadcast.1945)
  reduce.1951 = f32[8,128]{1,0} reduce(multiply.1946, constant.583), dimensions={2}, to_apply=region_82.1950
  reshape.1952 = f32[8,128,1]{2,1,0} reshape(reduce.1951)
  divide.925 = f32[8,128,1]{2,1,0} divide(rsqrt.924, add.923)
  multiply.926 = f32[8,128,1]{2,1,0} multiply(divide.925, broadcast.564)
  multiply.1953 = f32[8,128,1]{2,1,0} multiply(reshape.1952, multiply.926)
  reduce.1966 = f32[8,128]{1,0} reduce(multiply.1953, constant.583), dimensions={2}, to_apply=region_84.1965
  compare.912 = pred[8,128]{1,0} compare(subtract.910, maximum.911), direction=EQ
  select.913 = f32[8,128]{1,0} select(compare.912, broadcast.568, broadcast.570)
  compare.914 = pred[8,128]{1,0} compare(broadcast.570, maximum.911), direction=EQ
  select.915 = f32[8,128]{1,0} select(compare.914, broadcast.572, broadcast.568)
  divide.916 = f32[8,128]{1,0} divide(select.913, select.915)
  multiply.1972 = f32[8,128]{1,0} multiply(reduce.1966, divide.916)
  negate.1973 = f32[8,128]{1,0} negate(multiply.1972)
  multiply.909 = f32[8,128]{1,0} multiply(divide.901, broadcast.572)
  multiply.1974 = f32[8,128]{1,0} multiply(negate.1973, multiply.909)
  add.1975 = f32[8,128]{1,0} add(reduce.1971, multiply.1974)
  divide.1978 = f32[8,128]{1,0} divide(add.1975, broadcast.574)
  broadcast.1979 = f32[8,128,256]{2,1,0} broadcast(divide.1978), dimensions={0,1}
  add.1980 = f32[8,128,256]{2,1,0} add(add.1961, broadcast.1979)
  divide.1976 = f32[8,128]{1,0} divide(multiply.1972, broadcast.574)
  broadcast.1977 = f32[8,128,256]{2,1,0} broadcast(divide.1976), dimensions={0,1}
  multiply.895 = f32[8,128,256]{2,1,0} multiply(add.893, broadcast.576)
  multiply.1981 = f32[8,128,256]{2,1,0} multiply(broadcast.1977, multiply.895)
  add.1982 = f32[8,128,256]{2,1,0} add(add.1980, multiply.1981)
  dot.1990 = f32[8,128,4,64]{3,2,1,0} dot(add.1982, Arg_22.233), lhs_contracting_dims={2}, rhs_contracting_dims={2}
  transpose.1991 = f32[8,4,64,128]{2,1,3,0} transpose(dot.1990), dimensions={0,2,3,1}
  dot.1993 = f32[8,4,64,128]{3,2,1,0} dot(transpose.1991, divide.882), lhs_batch_dims={0,1}, lhs_contracting_dims={3}, rhs_batch_dims={0,1}, rhs_contracting_dims={2}
  transpose.1994 = f32[8,128,4,64]{1,3,2,0} transpose(dot.1993), dimensions={0,3,1,2}
  dot.2031 = f32[8,128,256]{2,1,0} dot(transpose.1994, Arg_26.237), lhs_contracting_dims={2,3}, rhs_contracting_dims={1,2}
  dot.1992 = f32[8,4,128,128]{3,2,1,0} dot(transpose.1991, add.858), lhs_batch_dims={0,1}, lhs_contracting_dims={2}, rhs_batch_dims={0,2}, rhs_contracting_dims={3}
  broadcast.2007 = f32[8,4,128,1]{3,2,1,0} broadcast(reshape.878), dimensions={0,1,2,3}
  reshape.2008 = f32[8,4,128]{2,1,0} reshape(broadcast.2007)
  broadcast.2009 = f32[8,4,128,128]{3,2,1,0} broadcast(reshape.2008), dimensions={0,1,2}
  divide.2010 = f32[8,4,128,128]{3,2,1,0} divide(dot.1992, broadcast.2009)
  multiply.883 = f32[8,4,128,1]{3,2,1,0} multiply(reshape.878, reshape.878)
  divide.884 = f32[8,4,128,1]{3,2,1,0} divide(broadcast.558, multiply.883)
  broadcast.1995 = f32[8,4,128,1]{3,2,1,0} broadcast(divide.884), dimensions={0,1,2,3}
  reshape.1996 = f32[8,4,128]{2,1,0} reshape(broadcast.1995)
  broadcast.1997 = f32[8,4,128,128]{3,2,1,0} broadcast(reshape.1996), dimensions={0,1,2}
  multiply.1998 = f32[8,4,128,128]{3,2,1,0} multiply(dot.1992, broadcast.1997)
  multiply.1999 = f32[8,4,128,128]{3,2,1,0} multiply(multiply.1998, exponential.872)
  reduce.2004 = f32[8,4,128]{2,1,0} reduce(multiply.1999, constant.583), dimensions={3}, to_apply=region_87.2003
  reshape.2005 = f32[8,4,128,1]{3,2,1,0} reshape(reduce.2004)
  negate.2006 = f32[8,4,128,1]{3,2,1,0} negate(reshape.2005)
  reduce.2015 = f32[8,4,128]{2,1,0} reduce(negate.2006, constant.583), dimensions={3}, to_apply=region_88.2014
  broadcast.2016 = f32[8,4,128,128]{3,2,1,0} broadcast(reduce.2015), dimensions={0,1,2}
  add.2017 = f32[8,4,128,128]{3,2,1,0} add(divide.2010, broadcast.2016)
  multiply.2018 = f32[8,4,128,128]{3,2,1,0} multiply(add.2017, exponential.872)
  dot.2019 = f32[8,4,128,64]{3,2,1,0} dot(multiply.2018, divide.859), lhs_batch_dims={0,1}, lhs_contracting_dims={2}, rhs_batch_dims={0,2}, rhs_contracting_dims={1}
  transpose.2020 = f32[8,128,4,64]{3,1,2,0} transpose(dot.2019), dimensions={0,2,1,3}
  dot.2039 = f32[8,128,256]{2,1,0} dot(transpose.2020, Arg_20.231), lhs_contracting_dims={2,3}, rhs_contracting_dims={1,2}
  add.2040 = f32[8,128,256]{2,1,0} add(dot.2031, dot.2039)
  dot.2021 = f32[8,4,128,64]{3,2,1,0} dot(multiply.2018, add.852), lhs_batch_dims={0,1}, lhs_contracting_dims={3}, rhs_batch_dims={0,2}, rhs_contracting_dims={1}
  transpose.2022 = f32[8,128,4,64]{3,1,2,0} transpose(dot.2021), dimensions={0,2,1,3}
  divide.2023 = f32[8,128,4,64]{3,1,2,0} divide(transpose.2022, broadcast.562)
  dot.2048 = f32[8,128,256]{2,1,0} dot(divide.2023, Arg_24.235), lhs_contracting_dims={2,3}, rhs_contracting_dims={1,2}
  add.2049 = f32[8,128,256]{2,1,0} add(add.2040, dot.2048)
  multiply.2056 = f32[8,128,256]{2,1,0} multiply(add.2049, multiply.834)
  add.2084 = f32[8,128,256]{2,1,0} add(add.1982, multiply.2056)
  negate.2077 = f32[8,128,256]{2,1,0} negate(multiply.2056)
  reduce.2082 = f32[8,128]{1,0} reduce(negate.2077, constant.583), dimensions={2}, to_apply=region_95.2081
  reshape.2083 = f32[8,128,1]{2,1,0} reshape(reduce.2082)
  reduce.2094 = f32[8,128]{1,0} reduce(reshape.2083, constant.583), dimensions={2}, to_apply=region_97.2093
  multiply.2055 = f32[8,128,256]{2,1,0} multiply(subtract.822, add.2049)
  broadcast.2066 = f32[1,1,256]{2,1,0} broadcast(reshape.827), dimensions={0,1,2}
  reshape.2067 = f32[256]{0} reshape(broadcast.2066)
  broadcast.2068 = f32[8,128,256]{2,1,0} broadcast(reshape.2067), dimensions={2}
  multiply.2069 = f32[8,128,256]{2,1,0} multiply(multiply.2055, broadcast.2068)
  reduce.2074 = f32[8,128]{1,0} reduce(multiply.2069, constant.583), dimensions={2}, to_apply=region_94.2073
  reshape.2075 = f32[8,128,1]{2,1,0} reshape(reduce.2074)
  divide.825 = f32[8,128,1]{2,1,0} divide(rsqrt.824, add.823)
  multiply.826 = f32[8,128,1]{2,1,0} multiply(divide.825, broadcast.564)
  multiply.2076 = f32[8,128,1]{2,1,0} multiply(reshape.2075, multiply.826)
  reduce.2089 = f32[8,128]{1,0} reduce(multiply.2076, constant.583), dimensions={2}, to_apply=region_96.2088
  compare.812 = pred[8,128]{1,0} compare(subtract.810, maximum.811), direction=EQ
  select.813 = f32[8,128]{1,0} select(compare.812, broadcast.568, broadcast.570)
  compare.814 = pred[8,128]{1,0} compare(broadcast.570, maximum.811), direction=EQ
  select.815 = f32[8,128]{1,0} select(compare.814, broadcast.572, broadcast.568)
  divide.816 = f32[8,128]{1,0} divide(select.813, select.815)
  multiply.2095 = f32[8,128]{1,0} multiply(reduce.2089, divide.816)
  negate.2096 = f32[8,128]{1,0} negate(multiply.2095)
  multiply.809 = f32[8,128]{1,0} multiply(divide.801, broadcast.572)
  multiply.2097 = f32[8,128]{1,0} multiply(negate.2096, multiply.809)
  add.2098 = f32[8,128]{1,0} add(reduce.2094, multiply.2097)
  divide.2101 = f32[8,128]{1,0} divide(add.2098, broadcast.574)
  broadcast.2102 = f32[8,128,256]{2,1,0} broadcast(divide.2101), dimensions={0,1}
  add.2103 = f32[8,128,256]{2,1,0} add(add.2084, broadcast.2102)
  divide.2099 = f32[8,128]{1,0} divide(multiply.2095, broadcast.574)
  broadcast.2100 = f32[8,128,256]{2,1,0} broadcast(divide.2099), dimensions={0,1}
  multiply.795 = f32[8,128,256]{2,1,0} multiply(add.793, broadcast.576)
  multiply.2104 = f32[8,128,256]{2,1,0} multiply(broadcast.2100, multiply.795)
  add.2105 = f32[8,128,256]{2,1,0} add(add.2103, multiply.2104)
  dot.2113 = f32[8,128,1024]{2,1,0} dot(add.2105, Arg_18.229), lhs_contracting_dims={2}, rhs_contracting_dims={1}
  multiply.2115 = f32[8,128,1024]{2,1,0} multiply(dot.2113, multiply.785)
  multiply.2114 = f32[8,128,1024]{2,1,0} multiply(add.774, dot.2113)
  multiply.2116 = f32[8,128,1024]{2,1,0} multiply(multiply.2114, broadcast.548)
  subtract.783 = f32[8,128,1024]{2,1,0} subtract(broadcast.550, tanh.782)
  multiply.2117 = f32[8,128,1024]{2,1,0} multiply(multiply.2116, subtract.783)
  multiply.2118 = f32[8,128,1024]{2,1,0} multiply(multiply.2117, tanh.782)
  add.2119 = f32[8,128,1024]{2,1,0} add(multiply.2117, multiply.2118)
  multiply.2120 = f32[8,128,1024]{2,1,0} multiply(add.2119, broadcast.552)
  add.2121 = f32[8,128,1024]{2,1,0} add(multiply.2115, multiply.2120)
  multiply.2122 = f32[8,128,1024]{2,1,0} multiply(multiply.2120, broadcast.554)
  multiply.777 = f32[8,128,1024]{2,1,0} multiply(add.774, add.774)
  multiply.778 = f32[8,128,1024]{2,1,0} multiply(multiply.777, broadcast.556)
  multiply.2123 = f32[8,128,1024]{2,1,0} multiply(multiply.2122, multiply.778)
  add.2124 = f32[8,128,1024]{2,1,0} add(add.2121, multiply.2123)
  dot.2132 = f32[8,128,256]{2,1,0} dot(add.2124, Arg_16.227), lhs_contracting_dims={2}, rhs_contracting_dims={1}
  multiply.2139 = f32[8,128,256]{2,1,0} multiply(dot.2132, multiply.762)
  add.2167 = f32[8,128,256]{2,1,0} add(add.2105, multiply.2139)
  negate.2160 = f32[8,128,256]{2,1,0} negate(multiply.2139)
  reduce.2165 = f32[8,128]{1,0} reduce(negate.2160, constant.583), dimensions={2}, to_apply=region_103.2164
  reshape.2166 = f32[8,128,1]{2,1,0} reshape(reduce.2165)
  reduce.2177 = f32[8,128]{1,0} reduce(reshape.2166, constant.583), dimensions={2}, to_apply=region_105.2176
  multiply.2138 = f32[8,128,256]{2,1,0} multiply(subtract.750, dot.2132)
  broadcast.2149 = f32[1,1,256]{2,1,0} broadcast(reshape.755), dimensions={0,1,2}
  reshape.2150 = f32[256]{0} reshape(broadcast.2149)
  broadcast.2151 = f32[8,128,256]{2,1,0} broadcast(reshape.2150), dimensions={2}
  multiply.2152 = f32[8,128,256]{2,1,0} multiply(multiply.2138, broadcast.2151)
  reduce.2157 = f32[8,128]{1,0} reduce(multiply.2152, constant.583), dimensions={2}, to_apply=region_102.2156
  reshape.2158 = f32[8,128,1]{2,1,0} reshape(reduce.2157)
  divide.753 = f32[8,128,1]{2,1,0} divide(rsqrt.752, add.751)
  multiply.754 = f32[8,128,1]{2,1,0} multiply(divide.753, broadcast.564)
  multiply.2159 = f32[8,128,1]{2,1,0} multiply(reshape.2158, multiply.754)
  reduce.2172 = f32[8,128]{1,0} reduce(multiply.2159, constant.583), dimensions={2}, to_apply=region_104.2171
  compare.740 = pred[8,128]{1,0} compare(subtract.738, maximum.739), direction=EQ
  select.741 = f32[8,128]{1,0} select(compare.740, broadcast.568, broadcast.570)
  compare.742 = pred[8,128]{1,0} compare(broadcast.570, maximum.739), direction=EQ
  select.743 = f32[8,128]{1,0} select(compare.742, broadcast.572, broadcast.568)
  divide.744 = f32[8,128]{1,0} divide(select.741, select.743)
  multiply.2178 = f32[8,128]{1,0} multiply(reduce.2172, divide.744)
  negate.2179 = f32[8,128]{1,0} negate(multiply.2178)
  multiply.737 = f32[8,128]{1,0} multiply(divide.729, broadcast.572)
  multiply.2180 = f32[8,128]{1,0} multiply(negate.2179, multiply.737)
  add.2181 = f32[8,128]{1,0} add(reduce.2177, multiply.2180)
  divide.2184 = f32[8,128]{1,0} divide(add.2181, broadcast.574)
  broadcast.2185 = f32[8,128,256]{2,1,0} broadcast(divide.2184), dimensions={0,1}
  add.2186 = f32[8,128,256]{2,1,0} add(add.2167, broadcast.2185)
  divide.2182 = f32[8,128]{1,0} divide(multiply.2178, broadcast.574)
  broadcast.2183 = f32[8,128,256]{2,1,0} broadcast(divide.2182), dimensions={0,1}
  multiply.723 = f32[8,128,256]{2,1,0} multiply(add.721, broadcast.576)
  multiply.2187 = f32[8,128,256]{2,1,0} multiply(broadcast.2183, multiply.723)
  add.2188 = f32[8,128,256]{2,1,0} add(add.2186, multiply.2187)
  dot.2196 = f32[8,128,4,64]{3,2,1,0} dot(add.2188, Arg_6.217), lhs_contracting_dims={2}, rhs_contracting_dims={2}
  transpose.2197 = f32[8,4,64,128]{2,1,3,0} transpose(dot.2196), dimensions={0,2,3,1}
  dot.2199 = f32[8,4,64,128]{3,2,1,0} dot(transpose.2197, divide.710), lhs_batch_dims={0,1}, lhs_contracting_dims={3}, rhs_batch_dims={0,1}, rhs_contracting_dims={2}
  transpose.2200 = f32[8,128,4,64]{1,3,2,0} transpose(dot.2199), dimensions={0,3,1,2}
  dot.2237 = f32[8,128,256]{2,1,0} dot(transpose.2200, Arg_10.221), lhs_contracting_dims={2,3}, rhs_contracting_dims={1,2}
  dot.2198 = f32[8,4,128,128]{3,2,1,0} dot(transpose.2197, add.686), lhs_batch_dims={0,1}, lhs_contracting_dims={2}, rhs_batch_dims={0,2}, rhs_contracting_dims={3}
  broadcast.2213 = f32[8,4,128,1]{3,2,1,0} broadcast(reshape.706), dimensions={0,1,2,3}
  reshape.2214 = f32[8,4,128]{2,1,0} reshape(broadcast.2213)
  broadcast.2215 = f32[8,4,128,128]{3,2,1,0} broadcast(reshape.2214), dimensions={0,1,2}
  divide.2216 = f32[8,4,128,128]{3,2,1,0} divide(dot.2198, broadcast.2215)
  multiply.711 = f32[8,4,128,1]{3,2,1,0} multiply(reshape.706, reshape.706)
  divide.712 = f32[8,4,128,1]{3,2,1,0} divide(broadcast.558, multiply.711)
  broadcast.2201 = f32[8,4,128,1]{3,2,1,0} broadcast(divide.712), dimensions={0,1,2,3}
  reshape.2202 = f32[8,4,128]{2,1,0} reshape(broadcast.2201)
  broadcast.2203 = f32[8,4,128,128]{3,2,1,0} broadcast(reshape.2202), dimensions={0,1,2}
  multiply.2204 = f32[8,4,128,128]{3,2,1,0} multiply(dot.2198, broadcast.2203)
  multiply.2205 = f32[8,4,128,128]{3,2,1,0} multiply(multiply.2204, exponential.700)
  reduce.2210 = f32[8,4,128]{2,1,0} reduce(multiply.2205, constant.583), dimensions={3}, to_apply=region_107.2209
  reshape.2211 = f32[8,4,128,1]{3,2,1,0} reshape(reduce.2210)
  negate.2212 = f32[8,4,128,1]{3,2,1,0} negate(reshape.2211)
  reduce.2221 = f32[8,4,128]{2,1,0} reduce(negate.2212, constant.583), dimensions={3}, to_apply=region_108.2220
  broadcast.2222 = f32[8,4,128,128]{3,2,1,0} broadcast(reduce.2221), dimensions={0,1,2}
  add.2223 = f32[8,4,128,128]{3,2,1,0} add(divide.2216, broadcast.2222)
  multiply.2224 = f32[8,4,128,128]{3,2,1,0} multiply(add.2223, exponential.700)
  dot.2225 = f32[8,4,128,64]{3,2,1,0} dot(multiply.2224, divide.687), lhs_batch_dims={0,1}, lhs_contracting_dims={2}, rhs_batch_dims={0,2}, rhs_contracting_dims={1}
  transpose.2226 = f32[8,128,4,64]{3,1,2,0} transpose(dot.2225), dimensions={0,2,1,3}
  dot.2245 = f32[8,128,256]{2,1,0} dot(transpose.2226, Arg_4.215), lhs_contracting_dims={2,3}, rhs_contracting_dims={1,2}
  add.2246 = f32[8,128,256]{2,1,0} add(dot.2237, dot.2245)
  dot.2227 = f32[8,4,128,64]{3,2,1,0} dot(multiply.2224, add.680), lhs_batch_dims={0,1}, lhs_contracting_dims={3}, rhs_batch_dims={0,2}, rhs_contracting_dims={1}
  transpose.2228 = f32[8,128,4,64]{3,1,2,0} transpose(dot.2227), dimensions={0,2,1,3}
  divide.2229 = f32[8,128,4,64]{3,1,2,0} divide(transpose.2228, broadcast.562)
  dot.2254 = f32[8,128,256]{2,1,0} dot(divide.2229, Arg_8.219), lhs_contracting_dims={2,3}, rhs_contracting_dims={1,2}
  add.2255 = f32[8,128,256]{2,1,0} add(add.2246, dot.2254)
  multiply.2262 = f32[8,128,256]{2,1,0} multiply(add.2255, multiply.662)
  add.2290 = f32[8,128,256]{2,1,0} add(add.2188, multiply.2262)
  negate.2283 = f32[8,128,256]{2,1,0} negate(multiply.2262)
  reduce.2288 = f32[8,128]{1,0} reduce(negate.2283, constant.583), dimensions={2}, to_apply=region_115.2287
  reshape.2289 = f32[8,128,1]{2,1,0} reshape(reduce.2288)
  reduce.2300 = f32[8,128]{1,0} reduce(reshape.2289, constant.583), dimensions={2}, to_apply=region_117.2299
  multiply.2261 = f32[8,128,256]{2,1,0} multiply(subtract.650, add.2255)
  broadcast.2272 = f32[1,1,256]{2,1,0} broadcast(reshape.655), dimensions={0,1,2}
  reshape.2273 = f32[256]{0} reshape(broadcast.2272)
  broadcast.2274 = f32[8,128,256]{2,1,0} broadcast(reshape.2273), dimensions={2}
  multiply.2275 = f32[8,128,256]{2,1,0} multiply(multiply.2261, broadcast.2274)
  reduce.2280 = f32[8,128]{1,0} reduce(multiply.2275, constant.583), dimensions={2}, to_apply=region_114.2279
  reshape.2281 = f32[8,128,1]{2,1,0} reshape(reduce.2280)
  divide.653 = f32[8,128,1]{2,1,0} divide(rsqrt.652, add.651)
  multiply.654 = f32[8,128,1]{2,1,0} multiply(divide.653, broadcast.564)
  multiply.2282 = f32[8,128,1]{2,1,0} multiply(reshape.2281, multiply.654)
  reduce.2295 = f32[8,128]{1,0} reduce(multiply.2282, constant.583), dimensions={2}, to_apply=region_116.2294
  compare.640 = pred[8,128]{1,0} compare(subtract.638, maximum.639), direction=EQ
  select.641 = f32[8,128]{1,0} select(compare.640, broadcast.568, broadcast.570)
  compare.642 = pred[8,128]{1,0} compare(broadcast.570, maximum.639), direction=EQ
  select.643 = f32[8,128]{1,0} select(compare.642, broadcast.572, broadcast.568)
  divide.644 = f32[8,128]{1,0} divide(select.641, select.643)
  multiply.2301 = f32[8,128]{1,0} multiply(reduce.2295, divide.644)
  negate.2302 = f32[8,128]{1,0} negate(multiply.2301)
  multiply.637 = f32[8,128]{1,0} multiply(divide.629, broadcast.572)
  multiply.2303 = f32[8,128]{1,0} multiply(negate.2302, multiply.637)
  add.2304 = f32[8,128]{1,0} add(reduce.2300, multiply.2303)
  divide.2307 = f32[8,128]{1,0} divide(add.2304, broadcast.574)
  broadcast.2308 = f32[8,128,256]{2,1,0} broadcast(divide.2307), dimensions={0,1}
  add.2309 = f32[8,128,256]{2,1,0} add(add.2290, broadcast.2308)
  divide.2305 = f32[8,128]{1,0} divide(multiply.2301, broadcast.574)
  broadcast.2306 = f32[8,128,256]{2,1,0} broadcast(divide.2305), dimensions={0,1}
  multiply.623 = f32[8,128,256]{2,1,0} multiply(get-tuple-element.620, broadcast.576)
  multiply.2310 = f32[8,128,256]{2,1,0} multiply(broadcast.2306, multiply.623)
  add.2311 = f32[8,128,256]{2,1,0} add(add.2309, multiply.2310)
  call.2322 = f32[32000,256]{1,0} call(get-tuple-element.621, add.2311), to_apply=_take_1.2321
  constant.539 = f32[] constant(0.1)
  broadcast.540 = f32[32000,256]{1,0} broadcast(constant.539), dimensions={}
  multiply.2323 = f32[32000,256]{1,0} multiply(call.2322, broadcast.540)
  Arg_70.281 = f32[32000,256]{1,0} parameter(70)
  constant.537 = f32[] constant(0.9)
  broadcast.538 = f32[32000,256]{1,0} broadcast(constant.537), dimensions={}
  multiply.2324 = f32[32000,256]{1,0} multiply(Arg_70.281, broadcast.538)
  add.2325 = f32[32000,256]{1,0} add(multiply.2323, multiply.2324)
  constant.582 = f32[] constant(1)
  constant.580 = f32[] constant(0.9)
  Arg_69.280 = s32[] parameter(69)
  constant.578 = s32[] constant(2147483647)
  compare.2806 = pred[] compare(Arg_69.280, constant.578), direction=LT
  constant.577 = s32[] constant(1)
  add.2807 = s32[] add(Arg_69.280, constant.577)
  call.2813 = s32[] call(compare.2806, add.2807, constant.578), to_apply=_where_2.2812
  convert.2814 = f32[] convert(call.2813)
  power.2815 = f32[] power(constant.580, convert.2814)
  subtract.2816 = f32[] subtract(constant.582, power.2815)
  broadcast.2817 = f32[32000,256]{1,0} broadcast(subtract.2816), dimensions={}
  divide.2818 = f32[32000,256]{1,0} divide(add.2325, broadcast.2817)
  multiply.2530 = f32[32000,256]{1,0} multiply(call.2322, call.2322)
  constant.499 = f32[] constant(0.001)
  broadcast.500 = f32[32000,256]{1,0} broadcast(constant.499), dimensions={}
  multiply.2531 = f32[32000,256]{1,0} multiply(multiply.2530, broadcast.500)
  Arg_139.350 = f32[32000,256]{1,0} parameter(139)
  constant.497 = f32[] constant(0.999)
  broadcast.498 = f32[32000,256]{1,0} broadcast(constant.497), dimensions={}
  multiply.2532 = f32[32000,256]{1,0} multiply(Arg_139.350, broadcast.498)
  add.2533 = f32[32000,256]{1,0} add(multiply.2531, multiply.2532)
  constant.579 = f32[] constant(0.999)
  convert.2955 = f32[] convert(call.2813)
  power.2956 = f32[] power(constant.579, convert.2955)
  subtract.2957 = f32[] subtract(constant.582, power.2956)
  broadcast.2958 = f32[32000,256]{1,0} broadcast(subtract.2957), dimensions={}
  divide.2959 = f32[32000,256]{1,0} divide(add.2533, broadcast.2958)
  sqrt.3096 = f32[32000,256]{1,0} sqrt(divide.2959)
  constant.459 = f32[] constant(1e-08)
  broadcast.460 = f32[32000,256]{1,0} broadcast(constant.459), dimensions={}
  add.3097 = f32[32000,256]{1,0} add(sqrt.3096, broadcast.460)
  divide.3098 = f32[32000,256]{1,0} divide(divide.2818, add.3097)
  constant.439 = f32[] constant(-0.0003)
  broadcast.440 = f32[32000,256]{1,0} broadcast(constant.439), dimensions={}
  multiply.3303 = f32[32000,256]{1,0} multiply(divide.3098, broadcast.440)
  add.3372 = f32[32000,256]{1,0} add(Arg_0.211, multiply.3303)
  reduce.1429 = f32[32000]{0} reduce(call.1424, constant.583), dimensions={0,1}, to_apply=region_31.1428
  constant.535 = f32[] constant(0.1)
  broadcast.536 = f32[32000]{0} broadcast(constant.535), dimensions={}
  multiply.2326 = f32[32000]{0} multiply(reduce.1429, broadcast.536)
  Arg_71.282 = f32[32000]{0} parameter(71)
  constant.533 = f32[] constant(0.9)
  broadcast.534 = f32[32000]{0} broadcast(constant.533), dimensions={}
  multiply.2327 = f32[32000]{0} multiply(Arg_71.282, broadcast.534)
  add.2328 = f32[32000]{0} add(multiply.2326, multiply.2327)
  broadcast.2819 = f32[32000]{0} broadcast(subtract.2816), dimensions={}
  divide.2820 = f32[32000]{0} divide(add.2328, broadcast.2819)
  multiply.2534 = f32[32000]{0} multiply(reduce.1429, reduce.1429)
  constant.495 = f32[] constant(0.001)
  broadcast.496 = f32[32000]{0} broadcast(constant.495), dimensions={}
  multiply.2535 = f32[32000]{0} multiply(multiply.2534, broadcast.496)
  Arg_140.351 = f32[32000]{0} parameter(140)
  constant.493 = f32[] constant(0.999)
  broadcast.494 = f32[32000]{0} broadcast(constant.493), dimensions={}
  multiply.2536 = f32[32000]{0} multiply(Arg_140.351, broadcast.494)
  add.2537 = f32[32000]{0} add(multiply.2535, multiply.2536)
  broadcast.2960 = f32[32000]{0} broadcast(subtract.2957), dimensions={}
  divide.2961 = f32[32000]{0} divide(add.2537, broadcast.2960)
  sqrt.3099 = f32[32000]{0} sqrt(divide.2961)
  constant.457 = f32[] constant(1e-08)
  broadcast.458 = f32[32000]{0} broadcast(constant.457), dimensions={}
  add.3100 = f32[32000]{0} add(sqrt.3099, broadcast.458)
  divide.3101 = f32[32000]{0} divide(divide.2820, add.3100)
  constant.437 = f32[] constant(-0.0003)
  broadcast.438 = f32[32000]{0} broadcast(constant.437), dimensions={}
  multiply.3304 = f32[32000]{0} multiply(divide.3101, broadcast.438)
  add.3373 = f32[32000]{0} add(Arg_1.212, multiply.3304)
  dot.1430 = f32[32000,256]{1,0} dot(call.1424, add.1356), lhs_contracting_dims={0,1}, rhs_contracting_dims={0,1}
  transpose.1431 = f32[256,32000]{0,1} transpose(dot.1430), dimensions={1,0}
  constant.531 = f32[] constant(0.1)
  broadcast.532 = f32[256,32000]{1,0} broadcast(constant.531), dimensions={}
  multiply.2329 = f32[256,32000]{0,1} multiply(transpose.1431, broadcast.532)
  Arg_72.283 = f32[256,32000]{1,0} parameter(72)
  constant.529 = f32[] constant(0.9)
  broadcast.530 = f32[256,32000]{1,0} broadcast(constant.529), dimensions={}
  multiply.2330 = f32[256,32000]{1,0} multiply(Arg_72.283, broadcast.530)
  add.2331 = f32[256,32000]{0,1} add(multiply.2329, multiply.2330)
  broadcast.2821 = f32[256,32000]{1,0} broadcast(subtract.2816), dimensions={}
  divide.2822 = f32[256,32000]{0,1} divide(add.2331, broadcast.2821)
  multiply.2538 = f32[256,32000]{0,1} multiply(transpose.1431, transpose.1431)
  constant.491 = f32[] constant(0.001)
  broadcast.492 = f32[256,32000]{1,0} broadcast(constant.491), dimensions={}
  multiply.2539 = f32[256,32000]{0,1} multiply(multiply.2538, broadcast.492)
  Arg_141.352 = f32[256,32000]{1,0} parameter(141)
  constant.489 = f32[] constant(0.999)
  broadcast.490 = f32[256,32000]{1,0} broadcast(constant.489), dimensions={}
  multiply.2540 = f32[256,32000]{1,0} multiply(Arg_141.352, broadcast.490)
  add.2541 = f32[256,32000]{0,1} add(multiply.2539, multiply.2540)
  broadcast.2962 = f32[256,32000]{1,0} broadcast(subtract.2957), dimensions={}
  divide.2963 = f32[256,32000]{0,1} divide(add.2541, broadcast.2962)
  sqrt.3102 = f32[256,32000]{0,1} sqrt(divide.2963)
  constant.455 = f32[] constant(1e-08)
  broadcast.456 = f32[256,32000]{1,0} broadcast(constant.455), dimensions={}
  add.3103 = f32[256,32000]{0,1} add(sqrt.3102, broadcast.456)
  divide.3104 = f32[256,32000]{0,1} divide(divide.2822, add.3103)
  constant.435 = f32[] constant(-0.0003)
  broadcast.436 = f32[256,32000]{1,0} broadcast(constant.435), dimensions={}
  multiply.3305 = f32[256,32000]{0,1} multiply(divide.3104, broadcast.436)
  add.3374 = f32[256,32000]{1,0} add(Arg_2.213, multiply.3305)
  reduce.2242 = f32[4,64]{1,0} reduce(transpose.2226, constant.583), dimensions={0,1}, to_apply=region_110.2241
  constant.527 = f32[] constant(0.1)
  broadcast.528 = f32[4,64]{1,0} broadcast(constant.527), dimensions={}
  multiply.2332 = f32[4,64]{1,0} multiply(reduce.2242, broadcast.528)
  Arg_73.284 = f32[4,64]{1,0} parameter(73)
  constant.525 = f32[] constant(0.9)
  broadcast.526 = f32[4,64]{1,0} broadcast(constant.525), dimensions={}
  multiply.2333 = f32[4,64]{1,0} multiply(Arg_73.284, broadcast.526)
  add.2334 = f32[4,64]{1,0} add(multiply.2332, multiply.2333)
  broadcast.2823 = f32[4,64]{1,0} broadcast(subtract.2816), dimensions={}
  divide.2824 = f32[4,64]{1,0} divide(add.2334, broadcast.2823)
  multiply.2542 = f32[4,64]{1,0} multiply(reduce.2242, reduce.2242)
  constant.487 = f32[] constant(0.001)
  broadcast.488 = f32[4,64]{1,0} broadcast(constant.487), dimensions={}
  multiply.2543 = f32[4,64]{1,0} multiply(multiply.2542, broadcast.488)
  Arg_142.353 = f32[4,64]{1,0} parameter(142)
  constant.485 = f32[] constant(0.999)
  broadcast.486 = f32[4,64]{1,0} broadcast(constant.485), dimensions={}
  multiply.2544 = f32[4,64]{1,0} multiply(Arg_142.353, broadcast.486)
  add.2545 = f32[4,64]{1,0} add(multiply.2543, multiply.2544)
  broadcast.2964 = f32[4,64]{1,0} broadcast(subtract.2957), dimensions={}
  divide.2965 = f32[4,64]{1,0} divide(add.2545, broadcast.2964)
  sqrt.3105 = f32[4,64]{1,0} sqrt(divide.2965)
  constant.453 = f32[] constant(1e-08)
  broadcast.454 = f32[4,64]{1,0} broadcast(constant.453), dimensions={}
  add.3106 = f32[4,64]{1,0} add(sqrt.3105, broadcast.454)
  divide.3107 = f32[4,64]{1,0} divide(divide.2824, add.3106)
  constant.433 = f32[] constant(-0.0003)
  broadcast.434 = f32[4,64]{1,0} broadcast(constant.433), dimensions={}
  multiply.3306 = f32[4,64]{1,0} multiply(divide.3107, broadcast.434)
  add.3375 = f32[4,64]{1,0} add(Arg_3.214, multiply.3306)
  dot.2243 = f32[4,64,256]{2,1,0} dot(transpose.2226, add.668), lhs_contracting_dims={0,1}, rhs_contracting_dims={0,1}
  transpose.2244 = f32[256,4,64]{0,2,1} transpose(dot.2243), dimensions={2,0,1}
  constant.523 = f32[] constant(0.1)
  broadcast.524 = f32[256,4,64]{2,1,0} broadcast(constant.523), dimensions={}
  multiply.2335 = f32[256,4,64]{0,2,1} multiply(transpose.2244, broadcast.524)
  Arg_74.285 = f32[256,4,64]{2,1,0} parameter(74)
  constant.521 = f32[] constant(0.9)
  broadcast.522 = f32[256,4,64]{2,1,0} broadcast(constant.521), dimensions={}
  multiply.2336 = f32[256,4,64]{2,1,0} multiply(Arg_74.285, broadcast.522)
  add.2337 = f32[256,4,64]{0,2,1} add(multiply.2335, multiply.2336)
  broadcast.2825 = f32[256,4,64]{2,1,0} broadcast(subtract.2816), dimensions={}
  divide.2826 = f32[256,4,64]{0,2,1} divide(add.2337, broadcast.2825)
  multiply.2546 = f32[256,4,64]{0,2,1} multiply(transpose.2244, transpose.2244)
  constant.483 = f32[] constant(0.001)
  broadcast.484 = f32[256,4,64]{2,1,0} broadcast(constant.483), dimensions={}
  multiply.2547 = f32[256,4,64]{0,2,1} multiply(multiply.2546, broadcast.484)
  Arg_143.354 = f32[256,4,64]{2,1,0} parameter(143)
  constant.481 = f32[] constant(0.999)
  broadcast.482 = f32[256,4,64]{2,1,0} broadcast(constant.481), dimensions={}
  multiply.2548 = f32[256,4,64]{2,1,0} multiply(Arg_143.354, broadcast.482)
  add.2549 = f32[256,4,64]{0,2,1} add(multiply.2547, multiply.2548)
  broadcast.2966 = f32[256,4,64]{2,1,0} broadcast(subtract.2957), dimensions={}
  divide.2967 = f32[256,4,64]{0,2,1} divide(add.2549, broadcast.2966)
  sqrt.3108 = f32[256,4,64]{0,2,1} sqrt(divide.2967)
  constant.451 = f32[] constant(1e-08)
  broadcast.452 = f32[256,4,64]{2,1,0} broadcast(constant.451), dimensions={}
  add.3109 = f32[256,4,64]{0,2,1} add(sqrt.3108, broadcast.452)
  divide.3110 = f32[256,4,64]{0,2,1} divide(divide.2826, add.3109)
  constant.431 = f32[] constant(-0.0003)
  broadcast.432 = f32[256,4,64]{2,1,0} broadcast(constant.431), dimensions={}
  multiply.3307 = f32[256,4,64]{0,2,1} multiply(divide.3110, broadcast.432)
  add.3376 = f32[256,4,64]{2,1,0} add(Arg_4.215, multiply.3307)
  reduce.2193 = f32[256]{0} reduce(add.2188, constant.583), dimensions={0,1}, to_apply=region_106.2192
  constant.519 = f32[] constant(0.1)
  broadcast.520 = f32[256]{0} broadcast(constant.519), dimensions={}
  multiply.2338 = f32[256]{0} multiply(reduce.2193, broadcast.520)
  Arg_75.286 = f32[256]{0} parameter(75)
  constant.517 = f32[] constant(0.9)
  broadcast.518 = f32[256]{0} broadcast(constant.517), dimensions={}
  multiply.2339 = f32[256]{0} multiply(Arg_75.286, broadcast.518)
  add.2340 = f32[256]{0} add(multiply.2338, multiply.2339)
  broadcast.2827 = f32[256]{0} broadcast(subtract.2816), dimensions={}
  divide.2828 = f32[256]{0} divide(add.2340, broadcast.2827)
  multiply.2550 = f32[256]{0} multiply(reduce.2193, reduce.2193)
  constant.479 = f32[] constant(0.001)
  broadcast.480 = f32[256]{0} broadcast(constant.479), dimensions={}
  multiply.2551 = f32[256]{0} multiply(multiply.2550, broadcast.480)
  Arg_144.355 = f32[256]{0} parameter(144)
  constant.477 = f32[] constant(0.999)
  broadcast.478 = f32[256]{0} broadcast(constant.477), dimensions={}
  multiply.2552 = f32[256]{0} multiply(Arg_144.355, broadcast.478)
  add.2553 = f32[256]{0} add(multiply.2551, multiply.2552)
  broadcast.2968 = f32[256]{0} broadcast(subtract.2957), dimensions={}
  divide.2969 = f32[256]{0} divide(add.2553, broadcast.2968)
  sqrt.3111 = f32[256]{0} sqrt(divide.2969)
  constant.449 = f32[] constant(1e-08)
  broadcast.450 = f32[256]{0} broadcast(constant.449), dimensions={}
  add.3112 = f32[256]{0} add(sqrt.3111, broadcast.450)
  divide.3113 = f32[256]{0} divide(divide.2828, add.3112)
  constant.429 = f32[] constant(-0.0003)
  broadcast.430 = f32[256]{0} broadcast(constant.429), dimensions={}
  multiply.3308 = f32[256]{0} multiply(divide.3113, broadcast.430)
  add.3377 = f32[256]{0} add(Arg_5.216, multiply.3308)
  dot.2194 = f32[256,4,64]{2,1,0} dot(add.2188, transpose.714), lhs_contracting_dims={0,1}, rhs_contracting_dims={0,1}
  transpose.2195 = f32[4,64,256]{1,0,2} transpose(dot.2194), dimensions={1,2,0}
  constant.515 = f32[] constant(0.1)
  broadcast.516 = f32[4,64,256]{2,1,0} broadcast(constant.515), dimensions={}
  multiply.2341 = f32[4,64,256]{1,0,2} multiply(transpose.2195, broadcast.516)
  Arg_76.287 = f32[4,64,256]{2,1,0} parameter(76)
  constant.513 = f32[] constant(0.9)
  broadcast.514 = f32[4,64,256]{2,1,0} broadcast(constant.513), dimensions={}
  multiply.2342 = f32[4,64,256]{2,1,0} multiply(Arg_76.287, broadcast.514)
  add.2343 = f32[4,64,256]{1,0,2} add(multiply.2341, multiply.2342)
  broadcast.2829 = f32[4,64,256]{2,1,0} broadcast(subtract.2816), dimensions={}
  divide.2830 = f32[4,64,256]{1,0,2} divide(add.2343, broadcast.2829)
  multiply.2554 = f32[4,64,256]{1,0,2} multiply(transpose.2195, transpose.2195)
  constant.475 = f32[] constant(0.001)
  broadcast.476 = f32[4,64,256]{2,1,0} broadcast(constant.475), dimensions={}
  multiply.2555 = f32[4,64,256]{1,0,2} multiply(multiply.2554, broadcast.476)
  Arg_145.356 = f32[4,64,256]{2,1,0} parameter(145)
  constant.473 = f32[] constant(0.999)
  broadcast.474 = f32[4,64,256]{2,1,0} broadcast(constant.473), dimensions={}
  multiply.2556 = f32[4,64,256]{2,1,0} multiply(Arg_145.356, broadcast.474)
  add.2557 = f32[4,64,256]{1,0,2} add(multiply.2555, multiply.2556)
  broadcast.2970 = f32[4,64,256]{2,1,0} broadcast(subtract.2957), dimensions={}
  divide.2971 = f32[4,64,256]{1,0,2} divide(add.2557, broadcast.2970)
  sqrt.3114 = f32[4,64,256]{1,0,2} sqrt(divide.2971)
  constant.447 = f32[] constant(1e-08)
  broadcast.448 = f32[4,64,256]{2,1,0} broadcast(constant.447), dimensions={}
  add.3115 = f32[4,64,256]{1,0,2} add(sqrt.3114, broadcast.448)
  divide.3116 = f32[4,64,256]{1,0,2} divide(divide.2830, add.3115)
  constant.427 = f32[] constant(-0.0003)
  broadcast.428 = f32[4,64,256]{2,1,0} broadcast(constant.427), dimensions={}
  multiply.3309 = f32[4,64,256]{1,0,2} multiply(divide.3116, broadcast.428)
  add.3378 = f32[4,64,256]{2,1,0} add(Arg_6.217, multiply.3309)
  reduce.2251 = f32[4,64]{1,0} reduce(divide.2229, constant.583), dimensions={0,1}, to_apply=region_111.2250
  multiply.2344 = f32[4,64]{1,0} multiply(reduce.2251, broadcast.528)
  Arg_77.288 = f32[4,64]{1,0} parameter(77)
  multiply.2345 = f32[4,64]{1,0} multiply(Arg_77.288, broadcast.526)
  add.2346 = f32[4,64]{1,0} add(multiply.2344, multiply.2345)
  broadcast.2831 = f32[4,64]{1,0} broadcast(subtract.2816), dimensions={}
  divide.2832 = f32[4,64]{1,0} divide(add.2346, broadcast.2831)
  multiply.2558 = f32[4,64]{1,0} multiply(reduce.2251, reduce.2251)
  multiply.2559 = f32[4,64]{1,0} multiply(multiply.2558, broadcast.488)
  Arg_146.357 = f32[4,64]{1,0} parameter(146)
  multiply.2560 = f32[4,64]{1,0} multiply(Arg_146.357, broadcast.486)
  add.2561 = f32[4,64]{1,0} add(multiply.2559, multiply.2560)
  broadcast.2972 = f32[4,64]{1,0} broadcast(subtract.2957), dimensions={}
  divide.2973 = f32[4,64]{1,0} divide(add.2561, broadcast.2972)
  sqrt.3117 = f32[4,64]{1,0} sqrt(divide.2973)
  add.3118 = f32[4,64]{1,0} add(sqrt.3117, broadcast.454)
  divide.3119 = f32[4,64]{1,0} divide(divide.2832, add.3118)
  multiply.3310 = f32[4,64]{1,0} multiply(divide.3119, broadcast.434)
  add.3379 = f32[4,64]{1,0} add(Arg_7.218, multiply.3310)
  dot.2252 = f32[4,64,256]{2,1,0} dot(divide.2229, add.668), lhs_contracting_dims={0,1}, rhs_contracting_dims={0,1}
  transpose.2253 = f32[256,4,64]{0,2,1} transpose(dot.2252), dimensions={2,0,1}
  multiply.2347 = f32[256,4,64]{0,2,1} multiply(transpose.2253, broadcast.524)
  Arg_78.289 = f32[256,4,64]{2,1,0} parameter(78)
  multiply.2348 = f32[256,4,64]{2,1,0} multiply(Arg_78.289, broadcast.522)
  add.2349 = f32[256,4,64]{0,2,1} add(multiply.2347, multiply.2348)
  broadcast.2833 = f32[256,4,64]{2,1,0} broadcast(subtract.2816), dimensions={}
  divide.2834 = f32[256,4,64]{0,2,1} divide(add.2349, broadcast.2833)
  multiply.2562 = f32[256,4,64]{0,2,1} multiply(transpose.2253, transpose.2253)
  multiply.2563 = f32[256,4,64]{0,2,1} multiply(multiply.2562, broadcast.484)
  Arg_147.358 = f32[256,4,64]{2,1,0} parameter(147)
  multiply.2564 = f32[256,4,64]{2,1,0} multiply(Arg_147.358, broadcast.482)
  add.2565 = f32[256,4,64]{0,2,1} add(multiply.2563, multiply.2564)
  broadcast.2974 = f32[256,4,64]{2,1,0} broadcast(subtract.2957), dimensions={}
  divide.2975 = f32[256,4,64]{0,2,1} divide(add.2565, broadcast.2974)
  sqrt.3120 = f32[256,4,64]{0,2,1} sqrt(divide.2975)
  add.3121 = f32[256,4,64]{0,2,1} add(sqrt.3120, broadcast.452)
  divide.3122 = f32[256,4,64]{0,2,1} divide(divide.2834, add.3121)
  multiply.3311 = f32[256,4,64]{0,2,1} multiply(divide.3122, broadcast.432)
  add.3380 = f32[256,4,64]{2,1,0} add(Arg_8.219, multiply.3311)
  reduce.2234 = f32[4,64]{1,0} reduce(transpose.2200, constant.583), dimensions={0,1}, to_apply=region_109.2233
  multiply.2350 = f32[4,64]{1,0} multiply(reduce.2234, broadcast.528)
  Arg_79.290 = f32[4,64]{1,0} parameter(79)
  multiply.2351 = f32[4,64]{1,0} multiply(Arg_79.290, broadcast.526)
  add.2352 = f32[4,64]{1,0} add(multiply.2350, multiply.2351)
  broadcast.2835 = f32[4,64]{1,0} broadcast(subtract.2816), dimensions={}
  divide.2836 = f32[4,64]{1,0} divide(add.2352, broadcast.2835)
  multiply.2566 = f32[4,64]{1,0} multiply(reduce.2234, reduce.2234)
  multiply.2567 = f32[4,64]{1,0} multiply(multiply.2566, broadcast.488)
  Arg_148.359 = f32[4,64]{1,0} parameter(148)
  multiply.2568 = f32[4,64]{1,0} multiply(Arg_148.359, broadcast.486)
  add.2569 = f32[4,64]{1,0} add(multiply.2567, multiply.2568)
  broadcast.2976 = f32[4,64]{1,0} broadcast(subtract.2957), dimensions={}
  divide.2977 = f32[4,64]{1,0} divide(add.2569, broadcast.2976)
  sqrt.3123 = f32[4,64]{1,0} sqrt(divide.2977)
  add.3124 = f32[4,64]{1,0} add(sqrt.3123, broadcast.454)
  divide.3125 = f32[4,64]{1,0} divide(divide.2836, add.3124)
  multiply.3312 = f32[4,64]{1,0} multiply(divide.3125, broadcast.434)
  add.3381 = f32[4,64]{1,0} add(Arg_9.220, multiply.3312)
  dot.2235 = f32[4,64,256]{2,1,0} dot(transpose.2200, add.668), lhs_contracting_dims={0,1}, rhs_contracting_dims={0,1}
  transpose.2236 = f32[256,4,64]{0,2,1} transpose(dot.2235), dimensions={2,0,1}
  multiply.2353 = f32[256,4,64]{0,2,1} multiply(transpose.2236, broadcast.524)
  Arg_80.291 = f32[256,4,64]{2,1,0} parameter(80)
  multiply.2354 = f32[256,4,64]{2,1,0} multiply(Arg_80.291, broadcast.522)
  add.2355 = f32[256,4,64]{0,2,1} add(multiply.2353, multiply.2354)
  broadcast.2837 = f32[256,4,64]{2,1,0} broadcast(subtract.2816), dimensions={}
  divide.2838 = f32[256,4,64]{0,2,1} divide(add.2355, broadcast.2837)
  multiply.2570 = f32[256,4,64]{0,2,1} multiply(transpose.2236, transpose.2236)
  multiply.2571 = f32[256,4,64]{0,2,1} multiply(multiply.2570, broadcast.484)
  Arg_149.360 = f32[256,4,64]{2,1,0} parameter(149)
  multiply.2572 = f32[256,4,64]{2,1,0} multiply(Arg_149.360, broadcast.482)
  add.2573 = f32[256,4,64]{0,2,1} add(multiply.2571, multiply.2572)
  broadcast.2978 = f32[256,4,64]{2,1,0} broadcast(subtract.2957), dimensions={}
  divide.2979 = f32[256,4,64]{0,2,1} divide(add.2573, broadcast.2978)
  sqrt.3126 = f32[256,4,64]{0,2,1} sqrt(divide.2979)
  add.3127 = f32[256,4,64]{0,2,1} add(sqrt.3126, broadcast.452)
  divide.3128 = f32[256,4,64]{0,2,1} divide(divide.2838, add.3127)
  multiply.3313 = f32[256,4,64]{0,2,1} multiply(divide.3128, broadcast.432)
  add.3382 = f32[256,4,64]{2,1,0} add(Arg_10.221, multiply.3313)
  reduce.2260 = f32[256]{0} reduce(add.2255, constant.583), dimensions={0,1}, to_apply=region_112.2259
  multiply.2356 = f32[256]{0} multiply(reduce.2260, broadcast.520)
  Arg_81.292 = f32[256]{0} parameter(81)
  multiply.2357 = f32[256]{0} multiply(Arg_81.292, broadcast.518)
  add.2358 = f32[256]{0} add(multiply.2356, multiply.2357)
  broadcast.2839 = f32[256]{0} broadcast(subtract.2816), dimensions={}
  divide.2840 = f32[256]{0} divide(add.2358, broadcast.2839)
  multiply.2574 = f32[256]{0} multiply(reduce.2260, reduce.2260)
  multiply.2575 = f32[256]{0} multiply(multiply.2574, broadcast.480)
  Arg_150.361 = f32[256]{0} parameter(150)
  multiply.2576 = f32[256]{0} multiply(Arg_150.361, broadcast.478)
  add.2577 = f32[256]{0} add(multiply.2575, multiply.2576)
  broadcast.2980 = f32[256]{0} broadcast(subtract.2957), dimensions={}
  divide.2981 = f32[256]{0} divide(add.2577, broadcast.2980)
  sqrt.3129 = f32[256]{0} sqrt(divide.2981)
  add.3130 = f32[256]{0} add(sqrt.3129, broadcast.450)
  divide.3131 = f32[256]{0} divide(divide.2840, add.3130)
  multiply.3314 = f32[256]{0} multiply(divide.3131, broadcast.430)
  add.3383 = f32[256]{0} add(Arg_11.222, multiply.3314)
  broadcast.2263 = f32[8,128,1]{2,1,0} broadcast(rsqrt.652), dimensions={0,1,2}
  reshape.2264 = f32[8,128]{1,0} reshape(broadcast.2263)
  broadcast.2265 = f32[8,128,256]{2,1,0} broadcast(reshape.2264), dimensions={0,1}
  multiply.2266 = f32[8,128,256]{2,1,0} multiply(broadcast.2265, multiply.2261)
  reduce.2271 = f32[256]{0} reduce(multiply.2266, constant.583), dimensions={0,1}, to_apply=region_113.2270
  multiply.2359 = f32[256]{0} multiply(reduce.2271, broadcast.520)
  Arg_82.293 = f32[256]{0} parameter(82)
  multiply.2360 = f32[256]{0} multiply(Arg_82.293, broadcast.518)
  add.2361 = f32[256]{0} add(multiply.2359, multiply.2360)
  broadcast.2841 = f32[256]{0} broadcast(subtract.2816), dimensions={}
  divide.2842 = f32[256]{0} divide(add.2361, broadcast.2841)
  multiply.2578 = f32[256]{0} multiply(reduce.2271, reduce.2271)
  multiply.2579 = f32[256]{0} multiply(multiply.2578, broadcast.480)
  Arg_151.362 = f32[256]{0} parameter(151)
  multiply.2580 = f32[256]{0} multiply(Arg_151.362, broadcast.478)
  add.2581 = f32[256]{0} add(multiply.2579, multiply.2580)
  broadcast.2982 = f32[256]{0} broadcast(subtract.2957), dimensions={}
  divide.2983 = f32[256]{0} divide(add.2581, broadcast.2982)
  sqrt.3132 = f32[256]{0} sqrt(divide.2983)
  add.3133 = f32[256]{0} add(sqrt.3132, broadcast.450)
  divide.3134 = f32[256]{0} divide(divide.2842, add.3133)
  multiply.3315 = f32[256]{0} multiply(divide.3134, broadcast.430)
  add.3384 = f32[256]{0} add(Arg_12.223, multiply.3315)
  reduce.2137 = f32[256]{0} reduce(dot.2132, constant.583), dimensions={0,1}, to_apply=region_100.2136
  multiply.2362 = f32[256]{0} multiply(reduce.2137, broadcast.520)
  Arg_83.294 = f32[256]{0} parameter(83)
  multiply.2363 = f32[256]{0} multiply(Arg_83.294, broadcast.518)
  add.2364 = f32[256]{0} add(multiply.2362, multiply.2363)
  broadcast.2843 = f32[256]{0} broadcast(subtract.2816), dimensions={}
  divide.2844 = f32[256]{0} divide(add.2364, broadcast.2843)
  multiply.2582 = f32[256]{0} multiply(reduce.2137, reduce.2137)
  multiply.2583 = f32[256]{0} multiply(multiply.2582, broadcast.480)
  Arg_152.363 = f32[256]{0} parameter(152)
  multiply.2584 = f32[256]{0} multiply(Arg_152.363, broadcast.478)
  add.2585 = f32[256]{0} add(multiply.2583, multiply.2584)
  broadcast.2984 = f32[256]{0} broadcast(subtract.2957), dimensions={}
  divide.2985 = f32[256]{0} divide(add.2585, broadcast.2984)
  sqrt.3135 = f32[256]{0} sqrt(divide.2985)
  add.3136 = f32[256]{0} add(sqrt.3135, broadcast.450)
  divide.3137 = f32[256]{0} divide(divide.2844, add.3136)
  multiply.3316 = f32[256]{0} multiply(divide.3137, broadcast.430)
  add.3385 = f32[256]{0} add(Arg_13.224, multiply.3316)
  broadcast.2140 = f32[8,128,1]{2,1,0} broadcast(rsqrt.752), dimensions={0,1,2}
  reshape.2141 = f32[8,128]{1,0} reshape(broadcast.2140)
  broadcast.2142 = f32[8,128,256]{2,1,0} broadcast(reshape.2141), dimensions={0,1}
  multiply.2143 = f32[8,128,256]{2,1,0} multiply(broadcast.2142, multiply.2138)
  reduce.2148 = f32[256]{0} reduce(multiply.2143, constant.583), dimensions={0,1}, to_apply=region_101.2147
  multiply.2365 = f32[256]{0} multiply(reduce.2148, broadcast.520)
  Arg_84.295 = f32[256]{0} parameter(84)
  multiply.2366 = f32[256]{0} multiply(Arg_84.295, broadcast.518)
  add.2367 = f32[256]{0} add(multiply.2365, multiply.2366)
  broadcast.2845 = f32[256]{0} broadcast(subtract.2816), dimensions={}
  divide.2846 = f32[256]{0} divide(add.2367, broadcast.2845)
  multiply.2586 = f32[256]{0} multiply(reduce.2148, reduce.2148)
  multiply.2587 = f32[256]{0} multiply(multiply.2586, broadcast.480)
  Arg_153.364 = f32[256]{0} parameter(153)
  multiply.2588 = f32[256]{0} multiply(Arg_153.364, broadcast.478)
  add.2589 = f32[256]{0} add(multiply.2587, multiply.2588)
  broadcast.2986 = f32[256]{0} broadcast(subtract.2957), dimensions={}
  divide.2987 = f32[256]{0} divide(add.2589, broadcast.2986)
  sqrt.3138 = f32[256]{0} sqrt(divide.2987)
  add.3139 = f32[256]{0} add(sqrt.3138, broadcast.450)
  divide.3140 = f32[256]{0} divide(divide.2846, add.3139)
  multiply.3317 = f32[256]{0} multiply(divide.3140, broadcast.430)
  add.3386 = f32[256]{0} add(Arg_14.225, multiply.3317)
  reduce.2129 = f32[1024]{0} reduce(add.2124, constant.583), dimensions={0,1}, to_apply=region_99.2128
  constant.511 = f32[] constant(0.1)
  broadcast.512 = f32[1024]{0} broadcast(constant.511), dimensions={}
  multiply.2368 = f32[1024]{0} multiply(reduce.2129, broadcast.512)
  Arg_85.296 = f32[1024]{0} parameter(85)
  constant.509 = f32[] constant(0.9)
  broadcast.510 = f32[1024]{0} broadcast(constant.509), dimensions={}
  multiply.2369 = f32[1024]{0} multiply(Arg_85.296, broadcast.510)
  add.2370 = f32[1024]{0} add(multiply.2368, multiply.2369)
  broadcast.2847 = f32[1024]{0} broadcast(subtract.2816), dimensions={}
  divide.2848 = f32[1024]{0} divide(add.2370, broadcast.2847)
  multiply.2590 = f32[1024]{0} multiply(reduce.2129, reduce.2129)
  constant.471 = f32[] constant(0.001)
  broadcast.472 = f32[1024]{0} broadcast(constant.471), dimensions={}
  multiply.2591 = f32[1024]{0} multiply(multiply.2590, broadcast.472)
  Arg_154.365 = f32[1024]{0} parameter(154)
  constant.469 = f32[] constant(0.999)
  broadcast.470 = f32[1024]{0} broadcast(constant.469), dimensions={}
  multiply.2592 = f32[1024]{0} multiply(Arg_154.365, broadcast.470)
  add.2593 = f32[1024]{0} add(multiply.2591, multiply.2592)
  broadcast.2988 = f32[1024]{0} broadcast(subtract.2957), dimensions={}
  divide.2989 = f32[1024]{0} divide(add.2593, broadcast.2988)
  sqrt.3141 = f32[1024]{0} sqrt(divide.2989)
  constant.445 = f32[] constant(1e-08)
  broadcast.446 = f32[1024]{0} broadcast(constant.445), dimensions={}
  add.3142 = f32[1024]{0} add(sqrt.3141, broadcast.446)
  divide.3143 = f32[1024]{0} divide(divide.2848, add.3142)
  constant.425 = f32[] constant(-0.0003)
  broadcast.426 = f32[1024]{0} broadcast(constant.425), dimensions={}
  multiply.3318 = f32[1024]{0} multiply(divide.3143, broadcast.426)
  add.3387 = f32[1024]{0} add(Arg_15.226, multiply.3318)
  dot.2130 = f32[1024,256]{1,0} dot(add.2124, add.768), lhs_contracting_dims={0,1}, rhs_contracting_dims={0,1}
  transpose.2131 = f32[256,1024]{0,1} transpose(dot.2130), dimensions={1,0}
  constant.507 = f32[] constant(0.1)
  broadcast.508 = f32[256,1024]{1,0} broadcast(constant.507), dimensions={}
  multiply.2371 = f32[256,1024]{0,1} multiply(transpose.2131, broadcast.508)
  Arg_86.297 = f32[256,1024]{1,0} parameter(86)
  constant.505 = f32[] constant(0.9)
  broadcast.506 = f32[256,1024]{1,0} broadcast(constant.505), dimensions={}
  multiply.2372 = f32[256,1024]{1,0} multiply(Arg_86.297, broadcast.506)
  add.2373 = f32[256,1024]{0,1} add(multiply.2371, multiply.2372)
  broadcast.2849 = f32[256,1024]{1,0} broadcast(subtract.2816), dimensions={}
  divide.2850 = f32[256,1024]{0,1} divide(add.2373, broadcast.2849)
  multiply.2594 = f32[256,1024]{0,1} multiply(transpose.2131, transpose.2131)
  constant.467 = f32[] constant(0.001)
  broadcast.468 = f32[256,1024]{1,0} broadcast(constant.467), dimensions={}
  multiply.2595 = f32[256,1024]{0,1} multiply(multiply.2594, broadcast.468)
  Arg_155.366 = f32[256,1024]{1,0} parameter(155)
  constant.465 = f32[] constant(0.999)
  broadcast.466 = f32[256,1024]{1,0} broadcast(constant.465), dimensions={}
  multiply.2596 = f32[256,1024]{1,0} multiply(Arg_155.366, broadcast.466)
  add.2597 = f32[256,1024]{0,1} add(multiply.2595, multiply.2596)
  broadcast.2990 = f32[256,1024]{1,0} broadcast(subtract.2957), dimensions={}
  divide.2991 = f32[256,1024]{0,1} divide(add.2597, broadcast.2990)
  sqrt.3144 = f32[256,1024]{0,1} sqrt(divide.2991)
  constant.443 = f32[] constant(1e-08)
  broadcast.444 = f32[256,1024]{1,0} broadcast(constant.443), dimensions={}
  add.3145 = f32[256,1024]{0,1} add(sqrt.3144, broadcast.444)
  divide.3146 = f32[256,1024]{0,1} divide(divide.2850, add.3145)
  constant.423 = f32[] constant(-0.0003)
  broadcast.424 = f32[256,1024]{1,0} broadcast(constant.423), dimensions={}
  multiply.3319 = f32[256,1024]{0,1} multiply(divide.3146, broadcast.424)
  add.3388 = f32[256,1024]{1,0} add(Arg_16.227, multiply.3319)
  reduce.2110 = f32[256]{0} reduce(add.2105, constant.583), dimensions={0,1}, to_apply=region_98.2109
  multiply.2374 = f32[256]{0} multiply(reduce.2110, broadcast.520)
  Arg_87.298 = f32[256]{0} parameter(87)
  multiply.2375 = f32[256]{0} multiply(Arg_87.298, broadcast.518)
  add.2376 = f32[256]{0} add(multiply.2374, multiply.2375)
  broadcast.2851 = f32[256]{0} broadcast(subtract.2816), dimensions={}
  divide.2852 = f32[256]{0} divide(add.2376, broadcast.2851)
  multiply.2598 = f32[256]{0} multiply(reduce.2110, reduce.2110)
  multiply.2599 = f32[256]{0} multiply(multiply.2598, broadcast.480)
  Arg_156.367 = f32[256]{0} parameter(156)
  multiply.2600 = f32[256]{0} multiply(Arg_156.367, broadcast.478)
  add.2601 = f32[256]{0} add(multiply.2599, multiply.2600)
  broadcast.2992 = f32[256]{0} broadcast(subtract.2957), dimensions={}
  divide.2993 = f32[256]{0} divide(add.2601, broadcast.2992)
  sqrt.3147 = f32[256]{0} sqrt(divide.2993)
  add.3148 = f32[256]{0} add(sqrt.3147, broadcast.450)
  divide.3149 = f32[256]{0} divide(divide.2852, add.3148)
  multiply.3320 = f32[256]{0} multiply(divide.3149, broadcast.430)
  add.3389 = f32[256]{0} add(Arg_17.228, multiply.3320)
  dot.2111 = f32[256,1024]{1,0} dot(add.2105, multiply.786), lhs_contracting_dims={0,1}, rhs_contracting_dims={0,1}
  transpose.2112 = f32[1024,256]{0,1} transpose(dot.2111), dimensions={1,0}
  constant.503 = f32[] constant(0.1)
  broadcast.504 = f32[1024,256]{1,0} broadcast(constant.503), dimensions={}
  multiply.2377 = f32[1024,256]{0,1} multiply(transpose.2112, broadcast.504)
  Arg_88.299 = f32[1024,256]{1,0} parameter(88)
  constant.501 = f32[] constant(0.9)
  broadcast.502 = f32[1024,256]{1,0} broadcast(constant.501), dimensions={}
  multiply.2378 = f32[1024,256]{1,0} multiply(Arg_88.299, broadcast.502)
  add.2379 = f32[1024,256]{0,1} add(multiply.2377, multiply.2378)
  broadcast.2853 = f32[1024,256]{1,0} broadcast(subtract.2816), dimensions={}
  divide.2854 = f32[1024,256]{0,1} divide(add.2379, broadcast.2853)
  multiply.2602 = f32[1024,256]{0,1} multiply(transpose.2112, transpose.2112)
  constant.463 = f32[] constant(0.001)
  broadcast.464 = f32[1024,256]{1,0} broadcast(constant.463), dimensions={}
  multiply.2603 = f32[1024,256]{0,1} multiply(multiply.2602, broadcast.464)
  Arg_157.368 = f32[1024,256]{1,0} parameter(157)
  constant.461 = f32[] constant(0.999)
  broadcast.462 = f32[1024,256]{1,0} broadcast(constant.461), dimensions={}
  multiply.2604 = f32[1024,256]{1,0} multiply(Arg_157.368, broadcast.462)
  add.2605 = f32[1024,256]{0,1} add(multiply.2603, multiply.2604)
  broadcast.2994 = f32[1024,256]{1,0} broadcast(subtract.2957), dimensions={}
  divide.2995 = f32[1024,256]{0,1} divide(add.2605, broadcast.2994)
  sqrt.3150 = f32[1024,256]{0,1} sqrt(divide.2995)
  constant.441 = f32[] constant(1e-08)
  broadcast.442 = f32[1024,256]{1,0} broadcast(constant.441), dimensions={}
…
  sqrt.3297 = f32[256]{0} sqrt(divide.3093)
  add.3298 = f32[256]{0} add(sqrt.3297, broadcast.450)
  divide.3299 = f32[256]{0} divide(divide.2952, add.3298)
  multiply.3370 = f32[256]{0} multiply(divide.3299, broadcast.430)
  add.3439 = f32[256]{0} add(Arg_67.278, multiply.3370)
  broadcast.1440 = f32[8,128,1]{2,1,0} broadcast(rsqrt.1340), dimensions={0,1,2}
  reshape.1441 = f32[8,128]{1,0} reshape(broadcast.1440)
  broadcast.1442 = f32[8,128,256]{2,1,0} broadcast(reshape.1441), dimensions={0,1}
  multiply.1443 = f32[8,128,256]{2,1,0} multiply(broadcast.1442, multiply.1438)
  reduce.1448 = f32[256]{0} reduce(multiply.1443, constant.583), dimensions={0,1}, to_apply=region_33.1447
  multiply.2527 = f32[256]{0} multiply(reduce.1448, broadcast.520)
  Arg_138.349 = f32[256]{0} parameter(138)
  multiply.2528 = f32[256]{0} multiply(Arg_138.349, broadcast.518)
  add.2529 = f32[256]{0} add(multiply.2527, multiply.2528)
  broadcast.2953 = f32[256]{0} broadcast(subtract.2816), dimensions={}
  divide.2954 = f32[256]{0} divide(add.2529, broadcast.2953)
  multiply.2802 = f32[256]{0} multiply(reduce.1448, reduce.1448)
  multiply.2803 = f32[256]{0} multiply(multiply.2802, broadcast.480)
  Arg_207.418 = f32[256]{0} parameter(207)
  multiply.2804 = f32[256]{0} multiply(Arg_207.418, broadcast.478)
  add.2805 = f32[256]{0} add(multiply.2803, multiply.2804)
  broadcast.3094 = f32[256]{0} broadcast(subtract.2957), dimensions={}
  divide.3095 = f32[256]{0} divide(add.2805, broadcast.3094)
  sqrt.3300 = f32[256]{0} sqrt(divide.3095)
  add.3301 = f32[256]{0} add(sqrt.3300, broadcast.450)
  divide.3302 = f32[256]{0} divide(divide.2954, add.3301)
  multiply.3371 = f32[256]{0} multiply(divide.3302, broadcast.430)
  add.3440 = f32[256]{0} add(Arg_68.279, multiply.3371)
  ROOT tuple.3441 = (f32[32000,256]{1,0}, f32[32000]{0}, f32[256,32000]{1,0}, f32[4,64]{1,0}, f32[256,4,64]{2,1,0}, /*index=5*/f32[256]{0}, f32[4,64,256]{2,1,0}, f32[4,64]{1,0}, f32[256,4,64]{2,1,0}, f32[4,64]{1,0}, /*index=10*/f32[256,4,64]{2,1,0}, f32[256]{0}, f32[256]{0}, f32[256]{0}, f32[256]{0}, /*index=15*/f32[1024]{0}, f32[256,1024]{1,0}, f32[256]{0}, f32[1024,256]{1,0}, f32[4,64]{1,0}, /*index=20*/f32[256,4,64]{2,1,0}, f32[256]{0}, f32[4,64,256]{2,1,0}, f32[4,64]{1,0}, f32[256,4,64]{2,1,0}, /*index=25*/f32[4,64]{1,0}, f32[256,4,64]{2,1,0}, f32[256]{0}, f32[256]{0}, f32[256]{0}, /*index=30*/f32[256]{0}, f32[1024]{0}, f32[256,1024]{1,0}, f32[256]{0}, f32[1024,256]{1,0}, /*index=35*/f32[4,64]{1,0}, f32[256,4,64]{2,1,0}, f32[256]{0}, f32[4,64,256]{2,1,0}, f32[4,64]{1,0}, /*index=40*/f32[256,4,64]{2,1,0}, f32[4,64]{1,0}, f32[256,4,64]{2,1,0}, f32[256]{0}, f32[256]{0}, /*index=45*/f32[256]{0}, f32[256]{0}, f32[1024]{0}, f32[256,1024]{1,0}, f32[256]{0}, /*index=50*/f32[1024,256]{1,0}, f32[4,64]{1,0}, f32[256,4,64]{2,1,0}, f32[256]{0}, f32[4,64,256]{2,1,0}, /*index=55*/f32[4,64]{1,0}, f32[256,4,64]{2,1,0}, f32[4,64]{1,0}, f32[256,4,64]{2,1,0}, f32[256]{0}, /*index=60*/f32[256]{0}, f32[256]{0}, f32[256]{0}, f32[1024]{0}, f32[256,1024]{1,0}, /*index=65*/f32[256]{0}, f32[1024,256]{1,0}, f32[256]{0}, f32[256]{0}, s32[], /*index=70*/f32[32000,256]{1,0}, f32[32000]{0}, f32[256,32000]{0,1}, f32[4,64]{1,0}, f32[256,4,64]{0,2,1}, /*index=75*/f32[256]{0}, f32[4,64,256]{1,0,2}, f32[4,64]{1,0}, f32[256,4,64]{0,2,1}, f32[4,64]{1,0}, /*index=80*/f32[256,4,64]{0,2,1}, f32[256]{0}, f32[256]{0}, f32[256]{0}, f32[256]{0}, /*index=85*/f32[1024]{0}, f32[256,1024]{0,1}, f32[256]{0}, f32[1024,256]{0,1}, f32[4,64]{1,0}, /*index=90*/f32[256,4,64]{0,2,1}, f32[256]{0}, f32[4,64,256]{1,0,2}, f32[4,64]{1,0}, f32[256,4,64]{0,2,1}, /*index=95*/f32[4,64]{1,0}, f32[256,4,64]{0,2,1}, f32[256]{0}, f32[256]{0}, f32[256]{0}, /*index=100*/f32[256]{0}, f32[1024]{0}, f32[256,1024]{0,1}, f32[256]{0}, f32[1024,256]{0,1}, /*index=105*/f32[4,64]{1,0}, f32[256,4,64]{0,2,1}, f32[256]{0}, f32[4,64,256]{1,0,2}, f32[4,64]{1,0}, /*index=110*/f32[256,4,64]{0,2,1}, f32[4,64]{1,0}, f32[256,4,64]{0,2,1}, f32[256]{0}, f32[256]{0}, /*index=115*/f32[256]{0}, f32[256]{0}, f32[1024]{0}, f32[256,1024]{0,1}, f32[256]{0}, /*index=120*/f32[1024,256]{0,1}, f32[4,64]{1,0}, f32[256,4,64]{0,2,1}, f32[256]{0}, f32[4,64,256]{1,0,2}, /*index=125*/f32[4,64]{1,0}, f32[256,4,64]{0,2,1}, f32[4,64]{1,0}, f32[256,4,64]{0,2,1}, f32[256]{0}, /*index=130*/f32[256]{0}, f32[256]{0}, f32[256]{0}, f32[1024]{0}, f32[256,1024]{0,1}, /*index=135*/f32[256]{0}, f32[1024,256]{0,1}, f32[256]{0}, f32[256]{0}, f32[32000,256]{1,0}, /*index=140*/f32[32000]{0}, f32[256,32000]{0,1}, f32[4,64]{1,0}, f32[256,4,64]{0,2,1}, f32[256]{0}, /*index=145*/f32[4,64,256]{1,0,2}, f32[4,64]{1,0}, f32[256,4,64]{0,2,1}, f32[4,64]{1,0}, f32[256,4,64]{0,2,1}, /*index=150*/f32[256]{0}, f32[256]{0}, f32[256]{0}, f32[256]{0}, f32[1024]{0}, /*index=155*/f32[256,1024]{0,1}, f32[256]{0}, f32[1024,256]{0,1}, f32[4,64]{1,0}, f32[256,4,64]{0,2,1}, /*index=160*/f32[256]{0}, f32[4,64,256]{1,0,2}, f32[4,64]{1,0}, f32[256,4,64]{0,2,1}, f32[4,64]{1,0}, /*index=165*/f32[256,4,64]{0,2,1}, f32[256]{0}, f32[256]{0}, f32[256]{0}, f32[256]{0}, /*index=170*/f32[1024]{0}, f32[256,1024]{0,1}, f32[256]{0}, f32[1024,256]{0,1}, f32[4,64]{1,0}, /*index=175*/f32[256,4,64]{0,2,1}, f32[256]{0}, f32[4,64,256]{1,0,2}, f32[4,64]{1,0}, f32[256,4,64]{0,2,1}, /*index=180*/f32[4,64]{1,0}, f32[256,4,64]{0,2,1}, f32[256]{0}, f32[256]{0}, f32[256]{0}, /*index=185*/f32[256]{0}, f32[1024]{0}, f32[256,1024]{0,1}, f32[256]{0}, f32[1024,256]{0,1}, /*index=190*/f32[4,64]{1,0}, f32[256,4,64]{0,2,1}, f32[256]{0}, f32[4,64,256]{1,0,2}, f32[4,64]{1,0}, /*index=195*/f32[256,4,64]{0,2,1}, f32[4,64]{1,0}, f32[256,4,64]{0,2,1}, f32[256]{0}, f32[256]{0}, /*index=200*/f32[256]{0}, f32[256]{0}, f32[1024]{0}, f32[256,1024]{0,1}, f32[256]{0}, /*index=205*/f32[1024,256]{0,1}, f32[256]{0}, f32[256]{0}) tuple(add.3372, add.3373, add.3374, add.3375, add.3376, add.3377, add.3378, add.3379, add.3380, add.3381, add.3382, add.3383, add.3384, add.3385, add.3386, add.3387, add.3388, add.3389, add.3390, add.3391, add.3392, add.3393, add.3394, add.3395, add.3396, add.3397, add.3398, add.3399, add.3400, add.3401, add.3402, add.3403, add.3404, add.3405, add.3406, add.3407, add.3408, add.3409, add.3410, add.3411, add.3412, add.3413, add.3414, add.3415, add.3416, add.3417, add.3418, add.3419, add.3420, add.3421, add.3422, add.3423, add.3424, add.3425, add.3426, add.3427, add.3428, add.3429, add.3430, add.3431, add.3432, add.3433, add.3434, add.3435, add.3436, add.3437, add.3438, add.3439, add.3440, call.2813, add.2325, add.2328, add.2331, add.2334, add.2337, add.2340, add.2343, add.2346, add.2349, add.2352, add.2355, add.2358, add.2361, add.2364, add.2367, add.2370, add.2373, add.2376, add.2379, add.2382, add.2385, add.2388, add.2391, add.2394, add.2397, add.2400, add.2403, add.2406, add.2409, add.2412, add.2415, add.2418, add.2421, add.2424, add.2427, add.2430, add.2433, add.2436, add.2439, add.2442, add.2445, add.2448, add.2451, add.2454, add.2457, add.2460, add.2463, add.2466, add.2469, add.2472, add.2475, add.2478, add.2481, add.2484, add.2487, add.2490, add.2493, add.2496, add.2499, add.2502, add.2505, add.2508, add.2511, add.2514, add.2517, add.2520, add.2523, add.2526, add.2529, add.2533, add.2537, add.2541, add.2545, add.2549, add.2553, add.2557, add.2561, add.2565, add.2569, add.2573, add.2577, add.2581, add.2585, add.2589, add.2593, add.2597, add.2601, add.2605, add.2609, add.2613, add.2617, add.2621, add.2625, add.2629, add.2633, add.2637, add.2641, add.2645, add.2649, add.2653, add.2657, add.2661, add.2665, add.2669, add.2673, add.2677, add.2681, add.2685, add.2689, add.2693, add.2697, add.2701, add.2705, add.2709, add.2713, add.2717, add.2721, add.2725, add.2729, add.2733, add.2737, add.2741, add.2745, add.2749, add.2753, add.2757, add.2761, add.2765, add.2769, add.2773, add.2777, add.2781, add.2785, add.2789, add.2793, add.2797, add.2801, add.2805)
}

ENTRY main.3653 {
  Arg_0.1 = f32[32000,256]{1,0} parameter(0)
  Arg_1.2 = f32[32000]{0} parameter(1)
  Arg_2.3 = f32[256,32000]{1,0} parameter(2)
  Arg_3.4 = f32[4,64]{1,0} parameter(3)
  Arg_4.5 = f32[256,4,64]{2,1,0} parameter(4)
  Arg_5.6 = f32[256]{0} parameter(5)
  Arg_6.7 = f32[4,64,256]{2,1,0} parameter(6)
  Arg_7.8 = f32[4,64]{1,0} parameter(7)
  Arg_8.9 = f32[256,4,64]{2,1,0} parameter(8)
  Arg_9.10 = f32[4,64]{1,0} parameter(9)
  Arg_10.11 = f32[256,4,64]{2,1,0} parameter(10)
  Arg_11.12 = f32[256]{0} parameter(11)
  Arg_12.13 = f32[256]{0} parameter(12)
  Arg_13.14 = f32[256]{0} parameter(13)
  Arg_14.15 = f32[256]{0} parameter(14)
  Arg_15.16 = f32[1024]{0} parameter(15)
  Arg_16.17 = f32[256,1024]{1,0} parameter(16)
  Arg_17.18 = f32[256]{0} parameter(17)
  Arg_18.19 = f32[1024,256]{1,0} parameter(18)
  Arg_19.20 = f32[4,64]{1,0} parameter(19)
  Arg_20.21 = f32[256,4,64]{2,1,0} parameter(20)
  Arg_21.22 = f32[256]{0} parameter(21)
  Arg_22.23 = f32[4,64,256]{2,1,0} parameter(22)
  Arg_23.24 = f32[4,64]{1,0} parameter(23)
  Arg_24.25 = f32[256,4,64]{2,1,0} parameter(24)
  Arg_25.26 = f32[4,64]{1,0} parameter(25)
  Arg_26.27 = f32[256,4,64]{2,1,0} parameter(26)
  Arg_27.28 = f32[256]{0} parameter(27)
  Arg_28.29 = f32[256]{0} parameter(28)
  Arg_29.30 = f32[256]{0} parameter(29)
  Arg_30.31 = f32[256]{0} parameter(30)
  Arg_31.32 = f32[1024]{0} parameter(31)
  Arg_32.33 = f32[256,1024]{1,0} parameter(32)
  Arg_33.34 = f32[256]{0} parameter(33)
  Arg_34.35 = f32[1024,256]{1,0} parameter(34)
  Arg_35.36 = f32[4,64]{1,0} parameter(35)
  Arg_36.37 = f32[256,4,64]{2,1,0} parameter(36)
  Arg_37.38 = f32[256]{0} parameter(37)
  Arg_38.39 = f32[4,64,256]{2,1,0} parameter(38)
  Arg_39.40 = f32[4,64]{1,0} parameter(39)
  Arg_40.41 = f32[256,4,64]{2,1,0} parameter(40)
  Arg_41.42 = f32[4,64]{1,0} parameter(41)
  Arg_42.43 = f32[256,4,64]{2,1,0} parameter(42)
  Arg_43.44 = f32[256]{0} parameter(43)
  Arg_44.45 = f32[256]{0} parameter(44)
  Arg_45.46 = f32[256]{0} parameter(45)
  Arg_46.47 = f32[256]{0} parameter(46)
  Arg_47.48 = f32[1024]{0} parameter(47)
  Arg_48.49 = f32[256,1024]{1,0} parameter(48)
  Arg_49.50 = f32[256]{0} parameter(49)
  Arg_50.51 = f32[1024,256]{1,0} parameter(50)
  Arg_51.52 = f32[4,64]{1,0} parameter(51)
  Arg_52.53 = f32[256,4,64]{2,1,0} parameter(52)
  Arg_53.54 = f32[256]{0} parameter(53)
  Arg_54.55 = f32[4,64,256]{2,1,0} parameter(54)
  Arg_55.56 = f32[4,64]{1,0} parameter(55)
  Arg_56.57 = f32[256,4,64]{2,1,0} parameter(56)
  Arg_57.58 = f32[4,64]{1,0} parameter(57)
  Arg_58.59 = f32[256,4,64]{2,1,0} parameter(58)
  Arg_59.60 = f32[256]{0} parameter(59)
  Arg_60.61 = f32[256]{0} parameter(60)
  Arg_61.62 = f32[256]{0} parameter(61)
  Arg_62.63 = f32[256]{0} parameter(62)
  Arg_63.64 = f32[1024]{0} parameter(63)
  Arg_64.65 = f32[256,1024]{1,0} parameter(64)
  Arg_65.66 = f32[256]{0} parameter(65)
  Arg_66.67 = f32[1024,256]{1,0} parameter(66)
  Arg_67.68 = f32[256]{0} parameter(67)
  Arg_68.69 = f32[256]{0} parameter(68)
  Arg_69.70 = s32[] parameter(69)
  Arg_70.71 = f32[32000,256]{1,0} parameter(70)
  Arg_71.72 = f32[32000]{0} parameter(71)
  Arg_72.73 = f32[256,32000]{1,0} parameter(72)
  Arg_73.74 = f32[4,64]{1,0} parameter(73)
  Arg_74.75 = f32[256,4,64]{2,1,0} parameter(74)
  Arg_75.76 = f32[256]{0} parameter(75)
  Arg_76.77 = f32[4,64,256]{2,1,0} parameter(76)
  Arg_77.78 = f32[4,64]{1,0} parameter(77)
  Arg_78.79 = f32[256,4,64]{2,1,0} parameter(78)
  Arg_79.80 = f32[4,64]{1,0} parameter(79)
  Arg_80.81 = f32[256,4,64]{2,1,0} parameter(80)
  Arg_81.82 = f32[256]{0} parameter(81)
  Arg_82.83 = f32[256]{0} parameter(82)
  Arg_83.84 = f32[256]{0} parameter(83)
  Arg_84.85 = f32[256]{0} parameter(84)
  Arg_85.86 = f32[1024]{0} parameter(85)
  Arg_86.87 = f32[256,1024]{1,0} parameter(86)
  Arg_87.88 = f32[256]{0} parameter(87)
  Arg_88.89 = f32[1024,256]{1,0} parameter(88)
  Arg_89.90 = f32[4,64]{1,0} parameter(89)
  Arg_90.91 = f32[256,4,64]{2,1,0} parameter(90)
  Arg_91.92 = f32[256]{0} parameter(91)
  Arg_92.93 = f32[4,64,256]{2,1,0} parameter(92)
  Arg_93.94 = f32[4,64]{1,0} parameter(93)
  Arg_94.95 = f32[256,4,64]{2,1,0} parameter(94)
  Arg_95.96 = f32[4,64]{1,0} parameter(95)
  Arg_96.97 = f32[256,4,64]{2,1,0} parameter(96)
  Arg_97.98 = f32[256]{0} parameter(97)
  Arg_98.99 = f32[256]{0} parameter(98)
  Arg_99.100 = f32[256]{0} parameter(99)
  Arg_100.101 = f32[256]{0} parameter(100)
  Arg_101.102 = f32[1024]{0} parameter(101)
  Arg_102.103 = f32[256,1024]{1,0} parameter(102)
  Arg_103.104 = f32[256]{0} parameter(103)
  Arg_104.105 = f32[1024,256]{1,0} parameter(104)
  Arg_105.106 = f32[4,64]{1,0} parameter(105)
  Arg_106.107 = f32[256,4,64]{2,1,0} parameter(106)
  Arg_107.108 = f32[256]{0} parameter(107)
  Arg_108.109 = f32[4,64,256]{2,1,0} parameter(108)
  Arg_109.110 = f32[4,64]{1,0} parameter(109)
  Arg_110.111 = f32[256,4,64]{2,1,0} parameter(110)
  Arg_111.112 = f32[4,64]{1,0} parameter(111)
  Arg_112.113 = f32[256,4,64]{2,1,0} parameter(112)
  Arg_113.114 = f32[256]{0} parameter(113)
  Arg_114.115 = f32[256]{0} parameter(114)
  Arg_115.116 = f32[256]{0} parameter(115)
  Arg_116.117 = f32[256]{0} parameter(116)
  Arg_117.118 = f32[1024]{0} parameter(117)
  Arg_118.119 = f32[256,1024]{1,0} parameter(118)
  Arg_119.120 = f32[256]{0} parameter(119)
  Arg_120.121 = f32[1024,256]{1,0} parameter(120)
  Arg_121.122 = f32[4,64]{1,0} parameter(121)
  Arg_122.123 = f32[256,4,64]{2,1,0} parameter(122)
  Arg_123.124 = f32[256]{0} parameter(123)
  Arg_124.125 = f32[4,64,256]{2,1,0} parameter(124)
  Arg_125.126 = f32[4,64]{1,0} parameter(125)
  Arg_126.127 = f32[256,4,64]{2,1,0} parameter(126)
  Arg_127.128 = f32[4,64]{1,0} parameter(127)
  Arg_128.129 = f32[256,4,64]{2,1,0} parameter(128)
  Arg_129.130 = f32[256]{0} parameter(129)
  Arg_130.131 = f32[256]{0} parameter(130)
  Arg_131.132 = f32[256]{0} parameter(131)
  Arg_132.133 = f32[256]{0} parameter(132)
  Arg_133.134 = f32[1024]{0} parameter(133)
  Arg_134.135 = f32[256,1024]{1,0} parameter(134)
  Arg_135.136 = f32[256]{0} parameter(135)
  Arg_136.137 = f32[1024,256]{1,0} parameter(136)
  Arg_137.138 = f32[256]{0} parameter(137)
  Arg_138.139 = f32[256]{0} parameter(138)
  Arg_139.140 = f32[32000,256]{1,0} parameter(139)
  Arg_140.141 = f32[32000]{0} parameter(140)
  Arg_141.142 = f32[256,32000]{1,0} parameter(141)
  Arg_142.143 = f32[4,64]{1,0} parameter(142)
  Arg_143.144 = f32[256,4,64]{2,1,0} parameter(143)
  Arg_144.145 = f32[256]{0} parameter(144)
  Arg_145.146 = f32[4,64,256]{2,1,0} parameter(145)
  Arg_146.147 = f32[4,64]{1,0} parameter(146)
  Arg_147.148 = f32[256,4,64]{2,1,0} parameter(147)
  Arg_148.149 = f32[4,64]{1,0} parameter(148)
  Arg_149.150 = f32[256,4,64]{2,1,0} parameter(149)
  Arg_150.151 = f32[256]{0} parameter(150)
  Arg_151.152 = f32[256]{0} parameter(151)
  Arg_152.153 = f32[256]{0} parameter(152)
  Arg_153.154 = f32[256]{0} parameter(153)
  Arg_154.155 = f32[1024]{0} parameter(154)
  Arg_155.156 = f32[256,1024]{1,0} parameter(155)
  Arg_156.157 = f32[256]{0} parameter(156)
  Arg_157.158 = f32[1024,256]{1,0} parameter(157)
  Arg_158.159 = f32[4,64]{1,0} parameter(158)
  Arg_159.160 = f32[256,4,64]{2,1,0} parameter(159)
  Arg_160.161 = f32[256]{0} parameter(160)
  Arg_161.162 = f32[4,64,256]{2,1,0} parameter(161)
  Arg_162.163 = f32[4,64]{1,0} parameter(162)
  Arg_163.164 = f32[256,4,64]{2,1,0} parameter(163)
  Arg_164.165 = f32[4,64]{1,0} parameter(164)
  Arg_165.166 = f32[256,4,64]{2,1,0} parameter(165)
  Arg_166.167 = f32[256]{0} parameter(166)
  Arg_167.168 = f32[256]{0} parameter(167)
  Arg_168.169 = f32[256]{0} parameter(168)
  Arg_169.170 = f32[256]{0} parameter(169)
  Arg_170.171 = f32[1024]{0} parameter(170)
  Arg_171.172 = f32[256,1024]{1,0} parameter(171)
  Arg_172.173 = f32[256]{0} parameter(172)
  Arg_173.174 = f32[1024,256]{1,0} parameter(173)
  Arg_174.175 = f32[4,64]{1,0} parameter(174)
  Arg_175.176 = f32[256,4,64]{2,1,0} parameter(175)
  Arg_176.177 = f32[256]{0} parameter(176)
  Arg_177.178 = f32[4,64,256]{2,1,0} parameter(177)
  Arg_178.179 = f32[4,64]{1,0} parameter(178)
  Arg_179.180 = f32[256,4,64]{2,1,0} parameter(179)
  Arg_180.181 = f32[4,64]{1,0} parameter(180)
  Arg_181.182 = f32[256,4,64]{2,1,0} parameter(181)
  Arg_182.183 = f32[256]{0} parameter(182)
  Arg_183.184 = f32[256]{0} parameter(183)
  Arg_184.185 = f32[256]{0} parameter(184)
  Arg_185.186 = f32[256]{0} parameter(185)
  Arg_186.187 = f32[1024]{0} parameter(186)
  Arg_187.188 = f32[256,1024]{1,0} parameter(187)
  Arg_188.189 = f32[256]{0} parameter(188)
  Arg_189.190 = f32[1024,256]{1,0} parameter(189)
  Arg_190.191 = f32[4,64]{1,0} parameter(190)
  Arg_191.192 = f32[256,4,64]{2,1,0} parameter(191)
  Arg_192.193 = f32[256]{0} parameter(192)
  Arg_193.194 = f32[4,64,256]{2,1,0} parameter(193)
  Arg_194.195 = f32[4,64]{1,0} parameter(194)
  Arg_195.196 = f32[256,4,64]{2,1,0} parameter(195)
  Arg_196.197 = f32[4,64]{1,0} parameter(196)
  Arg_197.198 = f32[256,4,64]{2,1,0} parameter(197)
  Arg_198.199 = f32[256]{0} parameter(198)
  Arg_199.200 = f32[256]{0} parameter(199)
  Arg_200.201 = f32[256]{0} parameter(200)
  Arg_201.202 = f32[256]{0} parameter(201)
  Arg_202.203 = f32[1024]{0} parameter(202)
  Arg_203.204 = f32[256,1024]{1,0} parameter(203)
  Arg_204.205 = f32[256]{0} parameter(204)
  Arg_205.206 = f32[1024,256]{1,0} parameter(205)
  Arg_206.207 = f32[256]{0} parameter(206)
  Arg_207.208 = f32[256]{0} parameter(207)
  Arg_208.209 = s32[8,128]{1,0} parameter(208)
  Arg_209.210 = s32[8,128]{1,0} parameter(209)
  call.3443 = (f32[32000,256]{1,0}, f32[32000]{0}, f32[256,32000]{1,0}, f32[4,64]{1,0}, f32[256,4,64]{2,1,0}, /*index=5*/f32[256]{0}, f32[4,64,256]{2,1,0}, f32[4,64]{1,0}, f32[256,4,64]{2,1,0}, f32[4,64]{1,0}, /*index=10*/f32[256,4,64]{2,1,0}, f32[256]{0}, f32[256]{0}, f32[256]{0}, f32[256]{0}, /*index=15*/f32[1024]{0}, f32[256,1024]{1,0}, f32[256]{0}, f32[1024,256]{1,0}, f32[4,64]{1,0}, /*index=20*/f32[256,4,64]{2,1,0}, f32[256]{0}, f32[4,64,256]{2,1,0}, f32[4,64]{1,0}, f32[256,4,64]{2,1,0}, /*index=25*/f32[4,64]{1,0}, f32[256,4,64]{2,1,0}, f32[256]{0}, f32[256]{0}, f32[256]{0}, /*index=30*/f32[256]{0}, f32[1024]{0}, f32[256,1024]{1,0}, f32[256]{0}, f32[1024,256]{1,0}, /*index=35*/f32[4,64]{1,0}, f32[256,4,64]{2,1,0}, f32[256]{0}, f32[4,64,256]{2,1,0}, f32[4,64]{1,0}, /*index=40*/f32[256,4,64]{2,1,0}, f32[4,64]{1,0}, f32[256,4,64]{2,1,0}, f32[256]{0}, f32[256]{0}, /*index=45*/f32[256]{0}, f32[256]{0}, f32[1024]{0}, f32[256,1024]{1,0}, f32[256]{0}, /*index=50*/f32[1024,256]{1,0}, f32[4,64]{1,0}, f32[256,4,64]{2,1,0}, f32[256]{0}, f32[4,64,256]{2,1,0}, /*index=55*/f32[4,64]{1,0}, f32[256,4,64]{2,1,0}, f32[4,64]{1,0}, f32[256,4,64]{2,1,0}, f32[256]{0}, /*index=60*/f32[256]{0}, f32[256]{0}, f32[256]{0}, f32[1024]{0}, f32[256,1024]{1,0}, /*index=65*/f32[256]{0}, f32[1024,256]{1,0}, f32[256]{0}, f32[256]{0}, s32[], /*index=70*/f32[32000,256]{1,0}, f32[32000]{0}, f32[256,32000]{0,1}, f32[4,64]{1,0}, f32[256,4,64]{0,2,1}, /*index=75*/f32[256]{0}, f32[4,64,256]{1,0,2}, f32[4,64]{1,0}, f32[256,4,64]{0,2,1}, f32[4,64]{1,0}, /*index=80*/f32[256,4,64]{0,2,1}, f32[256]{0}, f32[256]{0}, f32[256]{0}, f32[256]{0}, /*index=85*/f32[1024]{0}, f32[256,1024]{0,1}, f32[256]{0}, f32[1024,256]{0,1}, f32[4,64]{1,0}, /*index=90*/f32[256,4,64]{0,2,1}, f32[256]{0}, f32[4,64,256]{1,0,2}, f32[4,64]{1,0}, f32[256,4,64]{0,2,1}, /*index=95*/f32[4,64]{1,0}, f32[256,4,64]{0,2,1}, f32[256]{0}, f32[256]{0}, f32[256]{0}, /*index=100*/f32[256]{0}, f32[1024]{0}, f32[256,1024]{0,1}, f32[256]{0}, f32[1024,256]{0,1}, /*index=105*/f32[4,64]{1,0}, f32[256,4,64]{0,2,1}, f32[256]{0}, f32[4,64,256]{1,0,2}, f32[4,64]{1,0}, /*index=110*/f32[256,4,64]{0,2,1}, f32[4,64]{1,0}, f32[256,4,64]{0,2,1}, f32[256]{0}, f32[256]{0}, /*index=115*/f32[256]{0}, f32[256]{0}, f32[1024]{0}, f32[256,1024]{0,1}, f32[256]{0}, /*index=120*/f32[1024,256]{0,1}, f32[4,64]{1,0}, f32[256,4,64]{0,2,1}, f32[256]{0}, f32[4,64,256]{1,0,2}, /*index=125*/f32[4,64]{1,0}, f32[256,4,64]{0,2,1}, f32[4,64]{1,0}, f32[256,4,64]{0,2,1}, f32[256]{0}, /*index=130*/f32[256]{0}, f32[256]{0}, f32[256]{0}, f32[1024]{0}, f32[256,1024]{0,1}, /*index=135*/f32[256]{0}, f32[1024,256]{0,1}, f32[256]{0}, f32[256]{0}, f32[32000,256]{1,0}, /*index=140*/f32[32000]{0}, f32[256,32000]{0,1}, f32[4,64]{1,0}, f32[256,4,64]{0,2,1}, f32[256]{0}, /*index=145*/f32[4,64,256]{1,0,2}, f32[4,64]{1,0}, f32[256,4,64]{0,2,1}, f32[4,64]{1,0}, f32[256,4,64]{0,2,1}, /*index=150*/f32[256]{0}, f32[256]{0}, f32[256]{0}, f32[256]{0}, f32[1024]{0}, /*index=155*/f32[256,1024]{0,1}, f32[256]{0}, f32[1024,256]{0,1}, f32[4,64]{1,0}, f32[256,4,64]{0,2,1}, /*index=160*/f32[256]{0}, f32[4,64,256]{1,0,2}, f32[4,64]{1,0}, f32[256,4,64]{0,2,1}, f32[4,64]{1,0}, /*index=165*/f32[256,4,64]{0,2,1}, f32[256]{0}, f32[256]{0}, f32[256]{0}, f32[256]{0}, /*index=170*/f32[1024]{0}, f32[256,1024]{0,1}, f32[256]{0}, f32[1024,256]{0,1}, f32[4,64]{1,0}, /*index=175*/f32[256,4,64]{0,2,1}, f32[256]{0}, f32[4,64,256]{1,0,2}, f32[4,64]{1,0}, f32[256,4,64]{0,2,1}, /*index=180*/f32[4,64]{1,0}, f32[256,4,64]{0,2,1}, f32[256]{0}, f32[256]{0}, f32[256]{0}, /*index=185*/f32[256]{0}, f32[1024]{0}, f32[256,1024]{0,1}, f32[256]{0}, f32[1024,256]{0,1}, /*index=190*/f32[4,64]{1,0}, f32[256,4,64]{0,2,1}, f32[256]{0}, f32[4,64,256]{1,0,2}, f32[4,64]{1,0}, /*index=195*/f32[256,4,64]{0,2,1}, f32[4,64]{1,0}, f32[256,4,64]{0,2,1}, f32[256]{0}, f32[256]{0}, /*index=200*/f32[256]{0}, f32[256]{0}, f32[1024]{0}, f32[256,1024]{0,1}, f32[256]{0}, /*index=205*/f32[1024,256]{0,1}, f32[256]{0}, f32[256]{0}) call(Arg_0.1, Arg_1.2, Arg_2.3, Arg_3.4, Arg_4.5, Arg_5.6, Arg_6.7, Arg_7.8, Arg_8.9, Arg_9.10, Arg_10.11, Arg_11.12, Arg_12.13, Arg_13.14, Arg_14.15, Arg_15.16, Arg_16.17, Arg_17.18, Arg_18.19, Arg_19.20, Arg_20.21, Arg_21.22, Arg_22.23, Arg_23.24, Arg_24.25, Arg_25.26, Arg_26.27, Arg_27.28, Arg_28.29, Arg_29.30, Arg_30.31, Arg_31.32, Arg_32.33, Arg_33.34, Arg_34.35, Arg_35.36, Arg_36.37, Arg_37.38, Arg_38.39, Arg_39.40, Arg_40.41, Arg_41.42, Arg_42.43, Arg_43.44, Arg_44.45, Arg_45.46, Arg_46.47, Arg_47.48, Arg_48.49, Arg_49.50, Arg_50.51, Arg_51.52, Arg_52.53, Arg_53.54, Arg_54.55, Arg_55.56, Arg_56.57, Arg_57.58, Arg_58.59, Arg_59.60, Arg_60.61, Arg_61.62, Arg_62.63, Arg_63.64, Arg_64.65, Arg_65.66, Arg_66.67, Arg_67.68, Arg_68.69, Arg_69.70, Arg_70.71, Arg_71.72, Arg_72.73, Arg_73.74, Arg_74.75, Arg_75.76, Arg_76.77, Arg_77.78, Arg_78.79, Arg_79.80, Arg_80.81, Arg_81.82, Arg_82.83, Arg_83.84, Arg_84.85, Arg_85.86, Arg_86.87, Arg_87.88, Arg_88.89, Arg_89.90, Arg_90.91, Arg_91.92, Arg_92.93, Arg_93.94, Arg_94.95, Arg_95.96, Arg_96.97, Arg_97.98, Arg_98.99, Arg_99.100, Arg_100.101, Arg_101.102, Arg_102.103, Arg_103.104, Arg_104.105, Arg_105.106, Arg_106.107, Arg_107.108, Arg_108.109, Arg_109.110, Arg_110.111, Arg_111.112, Arg_112.113, Arg_113.114, Arg_114.115, Arg_115.116, Arg_116.117, Arg_117.118, Arg_118.119, Arg_119.120, Arg_120.121, Arg_121.122, Arg_122.123, Arg_123.124, Arg_124.125, Arg_125.126, Arg_126.127, Arg_127.128, Arg_128.129, Arg_129.130, Arg_130.131, Arg_131.132, Arg_132.133, Arg_133.134, Arg_134.135, Arg_135.136, Arg_136.137, Arg_137.138, Arg_138.139, Arg_139.140, Arg_140.141, Arg_141.142, Arg_142.143, Arg_143.144, Arg_144.145, Arg_145.146, Arg_146.147, Arg_147.148, Arg_148.149, Arg_149.150, Arg_150.151, Arg_151.152, Arg_152.153, Arg_153.154, Arg_154.155, Arg_155.156, Arg_156.157, Arg_157.158, Arg_158.159, Arg_159.160, Arg_160.161, Arg_161.162, Arg_162.163, Arg_163.164, Arg_164.165, Arg_165.166, Arg_166.167, Arg_167.168, Arg_168.169, Arg_169.170, Arg_170.171, Arg_171.172, Arg_172.173, Arg_173.174, Arg_174.175, Arg_175.176, Arg_176.177, Arg_177.178, Arg_178.179, Arg_179.180, Arg_180.181, Arg_181.182, Arg_182.183, Arg_183.184, Arg_184.185, Arg_185.186, Arg_186.187, Arg_187.188, Arg_188.189, Arg_189.190, Arg_190.191, Arg_191.192, Arg_192.193, Arg_193.194, Arg_194.195, Arg_195.196, Arg_196.197, Arg_197.198, Arg_198.199, Arg_199.200, Arg_200.201, Arg_201.202, Arg_202.203, Arg_203.204, Arg_204.205, Arg_205.206, Arg_206.207, Arg_207.208, Arg_208.209, Arg_209.210), to_apply=train_step.3442
  get-tuple-element.3444 = f32[32000,256]{1,0} get-tuple-element(call.3443), index=0
  get-tuple-element.3445 = f32[32000]{0} get-tuple-element(call.3443), index=1
  get-tuple-element.3446 = f32[256,32000]{1,0} get-tuple-element(call.3443), index=2
  get-tuple-element.3447 = f32[4,64]{1,0} get-tuple-element(call.3443), index=3
  get-tuple-element.3448 = f32[256,4,64]{2,1,0} get-tuple-element(call.3443), index=4
  get-tuple-element.3449 = f32[256]{0} get-tuple-element(call.3443), index=5
  get-tuple-element.3450 = f32[4,64,256]{2,1,0} get-tuple-element(call.3443), index=6
  get-tuple-element.3451 = f32[4,64]{1,0} get-tuple-element(call.3443), index=7
  get-tuple-element.3452 = f32[256,4,64]{2,1,0} get-tuple-element(call.3443), index=8
  get-tuple-element.3453 = f32[4,64]{1,0} get-tuple-element(call.3443), index=9
  get-tuple-element.3454 = f32[256,4,64]{2,1,0} get-tuple-element(call.3443), index=10
  get-tuple-element.3455 = f32[256]{0} get-tuple-element(call.3443), index=11
  get-tuple-element.3456 = f32[256]{0} get-tuple-element(call.3443), index=12
  get-tuple-element.3457 = f32[256]{0} get-tuple-element(call.3443), index=13
  get-tuple-element.3458 = f32[256]{0} get-tuple-element(call.3443), index=14
  get-tuple-element.3459 = f32[1024]{0} get-tuple-element(call.3443), index=15
  get-tuple-element.3460 = f32[256,1024]{1,0} get-tuple-element(call.3443), index=16
  get-tuple-element.3461 = f32[256]{0} get-tuple-element(call.3443), index=17
  get-tuple-element.3462 = f32[1024,256]{1,0} get-tuple-element(call.3443), index=18
  get-tuple-element.3463 = f32[4,64]{1,0} get-tuple-element(call.3443), index=19
  get-tuple-element.3464 = f32[256,4,64]{2,1,0} get-tuple-element(call.3443), index=20
  get-tuple-element.3465 = f32[256]{0} get-tuple-element(call.3443), index=21
  get-tuple-element.3466 = f32[4,64,256]{2,1,0} get-tuple-element(call.3443), index=22
  get-tuple-element.3467 = f32[4,64]{1,0} get-tuple-element(call.3443), index=23
  get-tuple-element.3468 = f32[256,4,64]{2,1,0} get-tuple-element(call.3443), index=24
  get-tuple-element.3469 = f32[4,64]{1,0} get-tuple-element(call.3443), index=25
  get-tuple-element.3470 = f32[256,4,64]{2,1,0} get-tuple-element(call.3443), index=26
  get-tuple-element.3471 = f32[256]{0} get-tuple-element(call.3443), index=27
  get-tuple-element.3472 = f32[256]{0} get-tuple-element(call.3443), index=28
  get-tuple-element.3473 = f32[256]{0} get-tuple-element(call.3443), index=29
  get-tuple-element.3474 = f32[256]{0} get-tuple-element(call.3443), index=30
  get-tuple-element.3475 = f32[1024]{0} get-tuple-element(call.3443), index=31
  get-tuple-element.3476 = f32[256,1024]{1,0} get-tuple-element(call.3443), index=32
  get-tuple-element.3477 = f32[256]{0} get-tuple-element(call.3443), index=33
  get-tuple-element.3478 = f32[1024,256]{1,0} get-tuple-element(call.3443), index=34
  get-tuple-element.3479 = f32[4,64]{1,0} get-tuple-element(call.3443), index=35
  get-tuple-element.3480 = f32[256,4,64]{2,1,0} get-tuple-element(call.3443), index=36
  get-tuple-element.3481 = f32[256]{0} get-tuple-element(call.3443), index=37
  get-tuple-element.3482 = f32[4,64,256]{2,1,0} get-tuple-element(call.3443), index=38
  get-tuple-element.3483 = f32[4,64]{1,0} get-tuple-element(call.3443), index=39
  get-tuple-element.3484 = f32[256,4,64]{2,1,0} get-tuple-element(call.3443), index=40
  get-tuple-element.3485 = f32[4,64]{1,0} get-tuple-element(call.3443), index=41
  get-tuple-element.3486 = f32[256,4,64]{2,1,0} get-tuple-element(call.3443), index=42
  get-tuple-element.3487 = f32[256]{0} get-tuple-element(call.3443), index=43
  get-tuple-element.3488 = f32[256]{0} get-tuple-element(call.3443), index=44
  get-tuple-element.3489 = f32[256]{0} get-tuple-element(call.3443), index=45
  get-tuple-element.3490 = f32[256]{0} get-tuple-element(call.3443), index=46
  get-tuple-element.3491 = f32[1024]{0} get-tuple-element(call.3443), index=47
  get-tuple-element.3492 = f32[256,1024]{1,0} get-tuple-element(call.3443), index=48
  get-tuple-element.3493 = f32[256]{0} get-tuple-element(call.3443), index=49
  get-tuple-element.3494 = f32[1024,256]{1,0} get-tuple-element(call.3443), index=50
  get-tuple-element.3495 = f32[4,64]{1,0} get-tuple-element(call.3443), index=51
  get-tuple-element.3496 = f32[256,4,64]{2,1,0} get-tuple-element(call.3443), index=52
  get-tuple-element.3497 = f32[256]{0} get-tuple-element(call.3443), index=53
  get-tuple-element.3498 = f32[4,64,256]{2,1,0} get-tuple-element(call.3443), index=54
  get-tuple-element.3499 = f32[4,64]{1,0} get-tuple-element(call.3443), index=55
  get-tuple-element.3500 = f32[256,4,64]{2,1,0} get-tuple-element(call.3443), index=56
  get-tuple-element.3501 = f32[4,64]{1,0} get-tuple-element(call.3443), index=57
  get-tuple-element.3502 = f32[256,4,64]{2,1,0} get-tuple-element(call.3443), index=58
  get-tuple-element.3503 = f32[256]{0} get-tuple-element(call.3443), index=59
  get-tuple-element.3504 = f32[256]{0} get-tuple-element(call.3443), index=60
  get-tuple-element.3505 = f32[256]{0} get-tuple-element(call.3443), index=61
  get-tuple-element.3506 = f32[256]{0} get-tuple-element(call.3443), index=62
  get-tuple-element.3507 = f32[1024]{0} get-tuple-element(call.3443), index=63
  get-tuple-element.3508 = f32[256,1024]{1,0} get-tuple-element(call.3443), index=64
  get-tuple-element.3509 = f32[256]{0} get-tuple-element(call.3443), index=65
  get-tuple-element.3510 = f32[1024,256]{1,0} get-tuple-element(call.3443), index=66
  get-tuple-element.3511 = f32[256]{0} get-tuple-element(call.3443), index=67
  get-tuple-element.3512 = f32[256]{0} get-tuple-element(call.3443), index=68
  get-tuple-element.3513 = s32[] get-tuple-element(call.3443), index=69
  get-tuple-element.3514 = f32[32000,256]{1,0} get-tuple-element(call.3443), index=70
  get-tuple-element.3515 = f32[32000]{0} get-tuple-element(call.3443), index=71
  get-tuple-element.3516 = f32[256,32000]{0,1} get-tuple-element(call.3443), index=72
  get-tuple-element.3517 = f32[4,64]{1,0} get-tuple-element(call.3443), index=73
  get-tuple-element.3518 = f32[256,4,64]{0,2,1} get-tuple-element(call.3443), index=74
  get-tuple-element.3519 = f32[256]{0} get-tuple-element(call.3443), index=75
  get-tuple-element.3520 = f32[4,64,256]{1,0,2} get-tuple-element(call.3443), index=76
  get-tuple-element.3521 = f32[4,64]{1,0} get-tuple-element(call.3443), index=77
  get-tuple-element.3522 = f32[256,4,64]{0,2,1} get-tuple-element(call.3443), index=78
  get-tuple-element.3523 = f32[4,64]{1,0} get-tuple-element(call.3443), index=79
  get-tuple-element.3524 = f32[256,4,64]{0,2,1} get-tuple-element(call.3443), index=80
  get-tuple-element.3525 = f32[256]{0} get-tuple-element(call.3443), index=81
  get-tuple-element.3526 = f32[256]{0} get-tuple-element(call.3443), index=82
  get-tuple-element.3527 = f32[256]{0} get-tuple-element(call.3443), index=83
  get-tuple-element.3528 = f32[256]{0} get-tuple-element(call.3443), index=84
  get-tuple-element.3529 = f32[1024]{0} get-tuple-element(call.3443), index=85
  get-tuple-element.3530 = f32[256,1024]{0,1} get-tuple-element(call.3443), index=86
  get-tuple-element.3531 = f32[256]{0} get-tuple-element(call.3443), index=87
  get-tuple-element.3532 = f32[1024,256]{0,1} get-tuple-element(call.3443), index=88
  get-tuple-element.3533 = f32[4,64]{1,0} get-tuple-element(call.3443), index=89
  get-tuple-element.3534 = f32[256,4,64]{0,2,1} get-tuple-element(call.3443), index=90
  get-tuple-element.3535 = f32[256]{0} get-tuple-element(call.3443), index=91
  get-tuple-element.3536 = f32[4,64,256]{1,0,2} get-tuple-element(call.3443), index=92
  get-tuple-element.3537 = f32[4,64]{1,0} get-tuple-element(call.3443), index=93
  get-tuple-element.3538 = f32[256,4,64]{0,2,1} get-tuple-element(call.3443), index=94
  get-tuple-element.3539 = f32[4,64]{1,0} get-tuple-element(call.3443), index=95
  get-tuple-element.3540 = f32[256,4,64]{0,2,1} get-tuple-element(call.3443), index=96
  get-tuple-element.3541 = f32[256]{0} get-tuple-element(call.3443), index=97
  get-tuple-element.3542 = f32[256]{0} get-tuple-element(call.3443), index=98
  get-tuple-element.3543 = f32[256]{0} get-tuple-element(call.3443), index=99
  get-tuple-element.3544 = f32[256]{0} get-tuple-element(call.3443), index=100
  get-tuple-element.3545 = f32[1024]{0} get-tuple-element(call.3443), index=101
  get-tuple-element.3546 = f32[256,1024]{0,1} get-tuple-element(call.3443), index=102
  get-tuple-element.3547 = f32[256]{0} get-tuple-element(call.3443), index=103
  get-tuple-element.3548 = f32[1024,256]{0,1} get-tuple-element(call.3443), index=104
  get-tuple-element.3549 = f32[4,64]{1,0} get-tuple-element(call.3443), index=105
  get-tuple-element.3550 = f32[256,4,64]{0,2,1} get-tuple-element(call.3443), index=106
  get-tuple-element.3551 = f32[256]{0} get-tuple-element(call.3443), index=107
  get-tuple-element.3552 = f32[4,64,256]{1,0,2} get-tuple-element(call.3443), index=108
  get-tuple-element.3553 = f32[4,64]{1,0} get-tuple-element(call.3443), index=109
  get-tuple-element.3554 = f32[256,4,64]{0,2,1} get-tuple-element(call.3443), index=110
  get-tuple-element.3555 = f32[4,64]{1,0} get-tuple-element(call.3443), index=111
  get-tuple-element.3556 = f32[256,4,64]{0,2,1} get-tuple-element(call.3443), index=112
  get-tuple-element.3557 = f32[256]{0} get-tuple-element(call.3443), index=113
  get-tuple-element.3558 = f32[256]{0} get-tuple-element(call.3443), index=114
  get-tuple-element.3559 = f32[256]{0} get-tuple-element(call.3443), index=115
  get-tuple-element.3560 = f32[256]{0} get-tuple-element(call.3443), index=116
  get-tuple-element.3561 = f32[1024]{0} get-tuple-element(call.3443), index=117
  get-tuple-element.3562 = f32[256,1024]{0,1} get-tuple-element(call.3443), index=118
  get-tuple-element.3563 = f32[256]{0} get-tuple-element(call.3443), index=119
  get-tuple-element.3564 = f32[1024,256]{0,1} get-tuple-element(call.3443), index=120
  get-tuple-element.3565 = f32[4,64]{1,0} get-tuple-element(call.3443), index=121
  get-tuple-element.3566 = f32[256,4,64]{0,2,1} get-tuple-element(call.3443), index=122
  get-tuple-element.3567 = f32[256]{0} get-tuple-element(call.3443), index=123
  get-tuple-element.3568 = f32[4,64,256]{1,0,2} get-tuple-element(call.3443), index=124
  get-tuple-element.3569 = f32[4,64]{1,0} get-tuple-element(call.3443), index=125
  get-tuple-element.3570 = f32[256,4,64]{0,2,1} get-tuple-element(call.3443), index=126
  get-tuple-element.3571 = f32[4,64]{1,0} get-tuple-element(call.3443), index=127
  get-tuple-element.3572 = f32[256,4,64]{0,2,1} get-tuple-element(call.3443), index=128
  get-tuple-element.3573 = f32[256]{0} get-tuple-element(call.3443), index=129
  get-tuple-element.3574 = f32[256]{0} get-tuple-element(call.3443), index=130
  get-tuple-element.3575 = f32[256]{0} get-tuple-element(call.3443), index=131
  get-tuple-element.3576 = f32[256]{0} get-tuple-element(call.3443), index=132
  get-tuple-element.3577 = f32[1024]{0} get-tuple-element(call.3443), index=133
  get-tuple-element.3578 = f32[256,1024]{0,1} get-tuple-element(call.3443), index=134
  get-tuple-element.3579 = f32[256]{0} get-tuple-element(call.3443), index=135
  get-tuple-element.3580 = f32[1024,256]{0,1} get-tuple-element(call.3443), index=136
  get-tuple-element.3581 = f32[256]{0} get-tuple-element(call.3443), index=137
  get-tuple-element.3582 = f32[256]{0} get-tuple-element(call.3443), index=138
  get-tuple-element.3583 = f32[32000,256]{1,0} get-tuple-element(call.3443), index=139
  get-tuple-element.3584 = f32[32000]{0} get-tuple-element(call.3443), index=140
  get-tuple-element.3585 = f32[256,32000]{0,1} get-tuple-element(call.3443), index=141
  get-tuple-element.3586 = f32[4,64]{1,0} get-tuple-element(call.3443), index=142
  get-tuple-element.3587 = f32[256,4,64]{0,2,1} get-tuple-element(call.3443), index=143
  get-tuple-element.3588 = f32[256]{0} get-tuple-element(call.3443), index=144
  get-tuple-element.3589 = f32[4,64,256]{1,0,2} get-tuple-element(call.3443), index=145
  get-tuple-element.3590 = f32[4,64]{1,0} get-tuple-element(call.3443), index=146
  get-tuple-element.3591 = f32[256,4,64]{0,2,1} get-tuple-element(call.3443), index=147
  get-tuple-element.3592 = f32[4,64]{1,0} get-tuple-element(call.3443), index=148
  get-tuple-element.3593 = f32[256,4,64]{0,2,1} get-tuple-element(call.3443), index=149
  get-tuple-element.3594 = f32[256]{0} get-tuple-element(call.3443), index=150
  get-tuple-element.3595 = f32[256]{0} get-tuple-element(call.3443), index=151
  get-tuple-element.3596 = f32[256]{0} get-tuple-element(call.3443), index=152
  get-tuple-element.3597 = f32[256]{0} get-tuple-element(call.3443), index=153
  get-tuple-element.3598 = f32[1024]{0} get-tuple-element(call.3443), index=154
  get-tuple-element.3599 = f32[256,1024]{0,1} get-tuple-element(call.3443), index=155
  get-tuple-element.3600 = f32[256]{0} get-tuple-element(call.3443), index=156
  get-tuple-element.3601 = f32[1024,256]{0,1} get-tuple-element(call.3443), index=157
  get-tuple-element.3602 = f32[4,64]{1,0} get-tuple-element(call.3443), index=158
  get-tuple-element.3603 = f32[256,4,64]{0,2,1} get-tuple-element(call.3443), index=159
  get-tuple-element.3604 = f32[256]{0} get-tuple-element(call.3443), index=160
  get-tuple-element.3605 = f32[4,64,256]{1,0,2} get-tuple-element(call.3443), index=161
  get-tuple-element.3606 = f32[4,64]{1,0} get-tuple-element(call.3443), index=162
  get-tuple-element.3607 = f32[256,4,64]{0,2,1} get-tuple-element(call.3443), index=163
  get-tuple-element.3608 = f32[4,64]{1,0} get-tuple-element(call.3443), index=164
  get-tuple-element.3609 = f32[256,4,64]{0,2,1} get-tuple-element(call.3443), index=165
  get-tuple-element.3610 = f32[256]{0} get-tuple-element(call.3443), index=166
  get-tuple-element.3611 = f32[256]{0} get-tuple-element(call.3443), index=167
  get-tuple-element.3612 = f32[256]{0} get-tuple-element(call.3443), index=168
  get-tuple-element.3613 = f32[256]{0} get-tuple-element(call.3443), index=169
  get-tuple-element.3614 = f32[1024]{0} get-tuple-element(call.3443), index=170
  get-tuple-element.3615 = f32[256,1024]{0,1} get-tuple-element(call.3443), index=171
  get-tuple-element.3616 = f32[256]{0} get-tuple-element(call.3443), index=172
  get-tuple-element.3617 = f32[1024,256]{0,1} get-tuple-element(call.3443), index=173
  get-tuple-element.3618 = f32[4,64]{1,0} get-tuple-element(call.3443), index=174
  get-tuple-element.3619 = f32[256,4,64]{0,2,1} get-tuple-element(call.3443), index=175
  get-tuple-element.3620 = f32[256]{0} get-tuple-element(call.3443), index=176
  get-tuple-element.3621 = f32[4,64,256]{1,0,2} get-tuple-element(call.3443), index=177
  get-tuple-element.3622 = f32[4,64]{1,0} get-tuple-element(call.3443), index=178
  get-tuple-element.3623 = f32[256,4,64]{0,2,1} get-tuple-element(call.3443), index=179
  get-tuple-element.3624 = f32[4,64]{1,0} get-tuple-element(call.3443), index=180
  get-tuple-element.3625 = f32[256,4,64]{0,2,1} get-tuple-element(call.3443), index=181
  get-tuple-element.3626 = f32[256]{0} get-tuple-element(call.3443), index=182
  get-tuple-element.3627 = f32[256]{0} get-tuple-element(call.3443), index=183
  get-tuple-element.3628 = f32[256]{0} get-tuple-element(call.3443), index=184
  get-tuple-element.3629 = f32[256]{0} get-tuple-element(call.3443), index=185
  get-tuple-element.3630 = f32[1024]{0} get-tuple-element(call.3443), index=186
  get-tuple-element.3631 = f32[256,1024]{0,1} get-tuple-element(call.3443), index=187
  get-tuple-element.3632 = f32[256]{0} get-tuple-element(call.3443), index=188
  get-tuple-element.3633 = f32[1024,256]{0,1} get-tuple-element(call.3443), index=189
  get-tuple-element.3634 = f32[4,64]{1,0} get-tuple-element(call.3443), index=190
  get-tuple-element.3635 = f32[256,4,64]{0,2,1} get-tuple-element(call.3443), index=191
  get-tuple-element.3636 = f32[256]{0} get-tuple-element(call.3443), index=192
  get-tuple-element.3637 = f32[4,64,256]{1,0,2} get-tuple-element(call.3443), index=193
  get-tuple-element.3638 = f32[4,64]{1,0} get-tuple-element(call.3443), index=194
  get-tuple-element.3639 = f32[256,4,64]{0,2,1} get-tuple-element(call.3443), index=195
  get-tuple-element.3640 = f32[4,64]{1,0} get-tuple-element(call.3443), index=196
  get-tuple-element.3641 = f32[256,4,64]{0,2,1} get-tuple-element(call.3443), index=197
  get-tuple-element.3642 = f32[256]{0} get-tuple-element(call.3443), index=198
  get-tuple-element.3643 = f32[256]{0} get-tuple-element(call.3443), index=199
  get-tuple-element.3644 = f32[256]{0} get-tuple-element(call.3443), index=200
  get-tuple-element.3645 = f32[256]{0} get-tuple-element(call.3443), index=201
  get-tuple-element.3646 = f32[1024]{0} get-tuple-element(call.3443), index=202
  get-tuple-element.3647 = f32[256,1024]{0,1} get-tuple-element(call.3443), index=203
  get-tuple-element.3648 = f32[256]{0} get-tuple-element(call.3443), index=204
  get-tuple-element.3649 = f32[1024,256]{0,1} get-tuple-element(call.3443), index=205
  get-tuple-element.3650 = f32[256]{0} get-tuple-element(call.3443), index=206
  get-tuple-element.3651 = f32[256]{0} get-tuple-element(call.3443), index=207
  ROOT tuple.3652 = (f32[32000,256]{1,0}, f32[32000]{0}, f32[256,32000]{1,0}, f32[4,64]{1,0}, f32[256,4,64]{2,1,0}, /*index=5*/f32[256]{0}, f32[4,64,256]{2,1,0}, f32[4,64]{1,0}, f32[256,4,64]{2,1,0}, f32[4,64]{1,0}, /*index=10*/f32[256,4,64]{2,1,0}, f32[256]{0}, f32[256]{0}, f32[256]{0}, f32[256]{0}, /*index=15*/f32[1024]{0}, f32[256,1024]{1,0}, f32[256]{0}, f32[1024,256]{1,0}, f32[4,64]{1,0}, /*index=20*/f32[256,4,64]{2,1,0}, f32[256]{0}, f32[4,64,256]{2,1,0}, f32[4,64]{1,0}, f32[256,4,64]{2,1,0}, /*index=25*/f32[4,64]{1,0}, f32[256,4,64]{2,1,0}, f32[256]{0}, f32[256]{0}, f32[256]{0}, /*index=30*/f32[256]{0}, f32[1024]{0}, f32[256,1024]{1,0}, f32[256]{0}, f32[1024,256]{1,0}, /*index=35*/f32[4,64]{1,0}, f32[256,4,64]{2,1,0}, f32[256]{0}, f32[4,64,256]{2,1,0}, f32[4,64]{1,0}, /*index=40*/f32[256,4,64]{2,1,0}, f32[4,64]{1,0}, f32[256,4,64]{2,1,0}, f32[256]{0}, f32[256]{0}, /*index=45*/f32[256]{0}, f32[256]{0}, f32[1024]{0}, f32[256,1024]{1,0}, f32[256]{0}, /*index=50*/f32[1024,256]{1,0}, f32[4,64]{1,0}, f32[256,4,64]{2,1,0}, f32[256]{0}, f32[4,64,256]{2,1,0}, /*index=55*/f32[4,64]{1,0}, f32[256,4,64]{2,1,0}, f32[4,64]{1,0}, f32[256,4,64]{2,1,0}, f32[256]{0}, /*index=60*/f32[256]{0}, f32[256]{0}, f32[256]{0}, f32[1024]{0}, f32[256,1024]{1,0}, /*index=65*/f32[256]{0}, f32[1024,256]{1,0}, f32[256]{0}, f32[256]{0}, s32[], /*index=70*/f32[32000,256]{1,0}, f32[32000]{0}, f32[256,32000]{0,1}, f32[4,64]{1,0}, f32[256,4,64]{0,2,1}, /*index=75*/f32[256]{0}, f32[4,64,256]{1,0,2}, f32[4,64]{1,0}, f32[256,4,64]{0,2,1}, f32[4,64]{1,0}, /*index=80*/f32[256,4,64]{0,2,1}, f32[256]{0}, f32[256]{0}, f32[256]{0}, f32[256]{0}, /*index=85*/f32[1024]{0}, f32[256,1024]{0,1}, f32[256]{0}, f32[1024,256]{0,1}, f32[4,64]{1,0}, /*index=90*/f32[256,4,64]{0,2,1}, f32[256]{0}, f32[4,64,256]{1,0,2}, f32[4,64]{1,0}, f32[256,4,64]{0,2,1}, /*index=95*/f32[4,64]{1,0}, f32[256,4,64]{0,2,1}, f32[256]{0}, f32[256]{0}, f32[256]{0}, /*index=100*/f32[256]{0}, f32[1024]{0}, f32[256,1024]{0,1}, f32[256]{0}, f32[1024,256]{0,1}, /*index=105*/f32[4,64]{1,0}, f32[256,4,64]{0,2,1}, f32[256]{0}, f32[4,64,256]{1,0,2}, f32[4,64]{1,0}, /*index=110*/f32[256,4,64]{0,2,1}, f32[4,64]{1,0}, f32[256,4,64]{0,2,1}, f32[256]{0}, f32[256]{0}, /*index=115*/f32[256]{0}, f32[256]{0}, f32[1024]{0}, f32[256,1024]{0,1}, f32[256]{0}, /*index=120*/f32[1024,256]{0,1}, f32[4,64]{1,0}, f32[256,4,64]{0,2,1}, f32[256]{0}, f32[4,64,256]{1,0,2}, /*index=125*/f32[4,64]{1,0}, f32[256,4,64]{0,2,1}, f32[4,64]{1,0}, f32[256,4,64]{0,2,1}, f32[256]{0}, /*index=130*/f32[256]{0}, f32[256]{0}, f32[256]{0}, f32[1024]{0}, f32[256,1024]{0,1}, /*index=135*/f32[256]{0}, f32[1024,256]{0,1}, f32[256]{0}, f32[256]{0}, f32[32000,256]{1,0}, /*index=140*/f32[32000]{0}, f32[256,32000]{0,1}, f32[4,64]{1,0}, f32[256,4,64]{0,2,1}, f32[256]{0}, /*index=145*/f32[4,64,256]{1,0,2}, f32[4,64]{1,0}, f32[256,4,64]{0,2,1}, f32[4,64]{1,0}, f32[256,4,64]{0,2,1}, /*index=150*/f32[256]{0}, f32[256]{0}, f32[256]{0}, f32[256]{0}, f32[1024]{0}, /*index=155*/f32[256,1024]{0,1}, f32[256]{0}, f32[1024,256]{0,1}, f32[4,64]{1,0}, f32[256,4,64]{0,2,1}, /*index=160*/f32[256]{0}, f32[4,64,256]{1,0,2}, f32[4,64]{1,0}, f32[256,4,64]{0,2,1}, f32[4,64]{1,0}, /*index=165*/f32[256,4,64]{0,2,1}, f32[256]{0}, f32[256]{0}, f32[256]{0}, f32[256]{0}, /*index=170*/f32[1024]{0}, f32[256,1024]{0,1}, f32[256]{0}, f32[1024,256]{0,1}, f32[4,64]{1,0}, /*index=175*/f32[256,4,64]{0,2,1}, f32[256]{0}, f32[4,64,256]{1,0,2}, f32[4,64]{1,0}, f32[256,4,64]{0,2,1}, /*index=180*/f32[4,64]{1,0}, f32[256,4,64]{0,2,1}, f32[256]{0}, f32[256]{0}, f32[256]{0}, /*index=185*/f32[256]{0}, f32[1024]{0}, f32[256,1024]{0,1}, f32[256]{0}, f32[1024,256]{0,1}, /*index=190*/f32[4,64]{1,0}, f32[256,4,64]{0,2,1}, f32[256]{0}, f32[4,64,256]{1,0,2}, f32[4,64]{1,0}, /*index=195*/f32[256,4,64]{0,2,1}, f32[4,64]{1,0}, f32[256,4,64]{0,2,1}, f32[256]{0}, f32[256]{0}, /*index=200*/f32[256]{0}, f32[256]{0}, f32[1024]{0}, f32[256,1024]{0,1}, f32[256]{0}, /*index=205*/f32[1024,256]{0,1}, f32[256]{0}, f32[256]{0}) tuple(get-tuple-element.3444, get-tuple-element.3445, get-tuple-element.3446, get-tuple-element.3447, get-tuple-element.3448, get-tuple-element.3449, get-tuple-element.3450, get-tuple-element.3451, get-tuple-element.3452, get-tuple-element.3453, get-tuple-element.3454, get-tuple-element.3455, get-tuple-element.3456, get-tuple-element.3457, get-tuple-element.3458, get-tuple-element.3459, get-tuple-element.3460, get-tuple-element.3461, get-tuple-element.3462, get-tuple-element.3463, get-tuple-element.3464, get-tuple-element.3465, get-tuple-element.3466, get-tuple-element.3467, get-tuple-element.3468, get-tuple-element.3469, get-tuple-element.3470, get-tuple-element.3471, get-tuple-element.3472, get-tuple-element.3473, get-tuple-element.3474, get-tuple-element.3475, get-tuple-element.3476, get-tuple-element.3477, get-tuple-element.3478, get-tuple-element.3479, get-tuple-element.3480, get-tuple-element.3481, get-tuple-element.3482, get-tuple-element.3483, get-tuple-element.3484, get-tuple-element.3485, get-tuple-element.3486, get-tuple-element.3487, get-tuple-element.3488, get-tuple-element.3489, get-tuple-element.3490, get-tuple-element.3491, get-tuple-element.3492, get-tuple-element.3493, get-tuple-element.3494, get-tuple-element.3495, get-tuple-element.3496, get-tuple-element.3497, get-tuple-element.3498, get-tuple-element.3499, get-tuple-element.3500, get-tuple-element.3501, get-tuple-element.3502, get-tuple-element.3503, get-tuple-element.3504, get-tuple-element.3505, get-tuple-element.3506, get-tuple-element.3507, get-tuple-element.3508, get-tuple-element.3509, get-tuple-element.3510, get-tuple-element.3511, get-tuple-element.3512, get-tuple-element.3513, get-tuple-element.3514, get-tuple-element.3515, get-tuple-element.3516, get-tuple-element.3517, get-tuple-element.3518, get-tuple-element.3519, get-tuple-element.3520, get-tuple-element.3521, get-tuple-element.3522, get-tuple-element.3523, get-tuple-element.3524, get-tuple-element.3525, get-tuple-element.3526, get-tuple-element.3527, get-tuple-element.3528, get-tuple-element.3529, get-tuple-element.3530, get-tuple-element.3531, get-tuple-element.3532, get-tuple-element.3533, get-tuple-element.3534, get-tuple-element.3535, get-tuple-element.3536, get-tuple-element.3537, get-tuple-element.3538, get-tuple-element.3539, get-tuple-element.3540, get-tuple-element.3541, get-tuple-element.3542, get-tuple-element.3543, get-tuple-element.3544, get-tuple-element.3545, get-tuple-element.3546, get-tuple-element.3547, get-tuple-element.3548, get-tuple-element.3549, get-tuple-element.3550, get-tuple-element.3551, get-tuple-element.3552, get-tuple-element.3553, get-tuple-element.3554, get-tuple-element.3555, get-tuple-element.3556, get-tuple-element.3557, get-tuple-element.3558, get-tuple-element.3559, get-tuple-element.3560, get-tuple-element.3561, get-tuple-element.3562, get-tuple-element.3563, get-tuple-element.3564, get-tuple-element.3565, get-tuple-element.3566, get-tuple-element.3567, get-tuple-element.3568, get-tuple-element.3569, get-tuple-element.3570, get-tuple-element.3571, get-tuple-element.3572, get-tuple-element.3573, get-tuple-element.3574, get-tuple-element.3575, get-tuple-element.3576, get-tuple-element.3577, get-tuple-element.3578, get-tuple-element.3579, get-tuple-element.3580, get-tuple-element.3581, get-tuple-element.3582, get-tuple-element.3583, get-tuple-element.3584, get-tuple-element.3585, get-tuple-element.3586, get-tuple-element.3587, get-tuple-element.3588, get-tuple-element.3589, get-tuple-element.3590, get-tuple-element.3591, get-tuple-element.3592, get-tuple-element.3593, get-tuple-element.3594, get-tuple-element.3595, get-tuple-element.3596, get-tuple-element.3597, get-tuple-element.3598, get-tuple-element.3599, get-tuple-element.3600, get-tuple-element.3601, get-tuple-element.3602, get-tuple-element.3603, get-tuple-element.3604, get-tuple-element.3605, get-tuple-element.3606, get-tuple-element.3607, get-tuple-element.3608, get-tuple-element.3609, get-tuple-element.3610, get-tuple-element.3611, get-tuple-element.3612, get-tuple-element.3613, get-tuple-element.3614, get-tuple-element.3615, get-tuple-element.3616, get-tuple-element.3617, get-tuple-element.3618, get-tuple-element.3619, get-tuple-element.3620, get-tuple-element.3621, get-tuple-element.3622, get-tuple-element.3623, get-tuple-element.3624, get-tuple-element.3625, get-tuple-element.3626, get-tuple-element.3627, get-tuple-element.3628, get-tuple-element.3629, get-tuple-element.3630, get-tuple-element.3631, get-tuple-element.3632, get-tuple-element.3633, get-tuple-element.3634, get-tuple-element.3635, get-tuple-element.3636, get-tuple-element.3637, get-tuple-element.3638, get-tuple-element.3639, get-tuple-element.3640, get-tuple-element.3641, get-tuple-element.3642, get-tuple-element.3643, get-tuple-element.3644, get-tuple-element.3645, get-tuple-element.3646, get-tuple-element.3647, get-tuple-element.3648, get-tuple-element.3649, get-tuple-element.3650, get-tuple-element.3651)
}

